HW1/results/Model 5 - Split image-16 11, lr=0.0001, wd=0.0001, bs=32.pkl (torch_old, 738944 bytes, 66 tensors)

linear1.weight f4 [120, 49]
0	0x3d0b016e	0.03393691
1	0x3dedcc9b	0.11611291
2	0x3d5768cd	0.05259018
3	0x3dec85be	0.11548947
4	0xbc912ed3	-0.017722523
5	0x3db82b6f	0.08992659
6	0x3bdf4ab5	0.0068143257
7	0xbe19c2bd	-0.15015693
8	0xbdc2e6df	-0.095166914
9	0x3e0763e7	0.13221703
10	0xbcddc01c	-0.027069144
11	0x3d1441e6	0.03619566
12	0xbda26733	-0.0792984
13	0x3b9b830c	0.0047458466
14	0xbdcb0b96	-0.09914319
15	0xbc2145f3	-0.009843337
16	0x3e026d5d	0.12737031
17	0x3c97bcec	0.018522702
18	0x3d38362f	0.04497355
19	0x3d97c04a	0.07409723
20	0x3c3442dc	0.011002269
21	0xbe3c5d4c	-0.18394965
22	0xbe158c10	-0.14604211
23	0xbdade1ff	-0.08490371
24	0xbdb67340	-0.08908701
25	0xbd940955	-0.072283424
26	0x3b5a8794	0.003334497
27	0xbdb35c5c	-0.087578505
28	0x3c204619	0.009782338
29	0x3d003293	0.03129823
30	0xbe208e76	-0.15679345
31	0xbdc1ca14	-0.094623715
32	0xbd32b875	-0.043632943
33	0xbe3c3d5b	-0.1838278
34	0xbe7c9314	-0.24665481
35	0x3cd68a66	0.02618904
36	0x3d8bbf91	0.06823648
37	0x3d8cc321	0.068731554
38	0xbd7f8f9b	-0.062392812
39	0xbda9f14e	-0.08297978
40	0xbd3e0091	-0.04638726
41	0x3d09cf11	0.03364474
42	0xbc07a659	-0.008279406
43	0xbc699add	-0.014258114
44	0xbd3ec1ff	-0.046571728
45	0xbddfe303	-0.10931971
46	0xbccc9907	-0.024975313
47	0x3d517daf	0.05114525
48	0xbceb44a9	-0.028719263
49	0x3ddc4ddc	0.10757038
50	0x3de98a8b	0.11403378
51	0x3d8d6e37	0.069057874
52	0xbd25dca1	-0.04049361
53	0xbd65e8bf	-0.056130167
54	0x3b68e8fc	0.003553926
55	0xbd3e854e	-0.046513848
56	0xbdbc8321	-0.09204698
57	0x3d638d5a	0.055554725
58	0x3ccef2c3	0.025262242
59	0x3d817661	0.06321407
60	0x3da0bb9a	0.07848282
61	0x3d4d342e	0.05009859
62	0x3cc575e3	0.024104064
63	0xbd53eef2	-0.051741548
64	0x3d8b0126	0.067873284
65	0x3ca223a9	0.019792395
66	0x3dd7ec94	0.105431706
67	0x3de247ac	0.110488266
68	0x3da38f29	0.0798629
69	0x3e1ee0eb	0.15515487
70	0xbded657c	-0.11591622
71	0x3c84c3cb	0.016206643
72	0xbcc8aafd	-0.024495596
73	0x3da247c7	0.07923847
74	0x3c4ec1a1	0.012619407
75	0x3c10e8bc	0.008844551
76	0x3de3464f	0.11097395
77	0xbdd7d7b4	-0.10539189
78	0x3db3328e	0.08749877
79	0xbd9f668c	-0.07783231
80	0xbdffe02a	-0.12493928
81	0xbdccadf9	-0.0999412
82	0xbdf6cc9d	-0.12050746
83	0x3d461f65	0.048369784
84	0x3cbcddba	0.023054946
85	0x3b73d9a1	0.0037208574
86	0xbd2476b8	-0.04015228
87	0xbd80e72b	-0.06294092
88	0xbdc67ac7	-0.09691387
89	0xbcace261	-0.02110404
90	0x3cd76169	0.026291566
91	0xbcc5a666	-0.024127197
92	0xbcb67dd3	-0.022276795
93	0x3d90f4b3	0.07077923
94	0xbc895f11	-0.016768964
95	0x3cadbb79	0.021207558
96	0xbd311c8d	-0.04324012
97	0x3d0a92d7	0.033831444
98	0x3d917425	0.07102231
99	0xbdc31bde	-0.095267996
100	0x3d3c313a	0.045945384
101	0x3dad92b9	0.08475251
102	0xbd11b38d	-0.035571624
103	0xbe07a04f	-0.13244747
104	0xbd407960	-0.046990752
105	0xbca621fa	-0.020279873
106	0x3da4e76b	0.08051952
107	0xbd6bd7a2	-0.05757869
108	0x3dacfa76	0.08446209
109	0x3e0eafa2	0.13934186
110	0xbd3ff85a	-0.046867706
111	0x3d7b128d	0.06129699
112	0x3b2c156f	0.0026257893
113	0x3da7b061	0.081879385
114	0x3c678927	0.014131821
115	0xbd7200c3	-0.059082758
116	0x3ba3f356	0.005003373
117	0xbd565863	-0.052330386
118	0x3d84a1b8	0.06476158
119	0x3d9899e3	0.074512266
120	0xbdb00eee	-0.085965976
121	0x3dcc3078	0.09970182
122	0xbde27cbc	-0.110589474
123	0xbd8b3d03	-0.067987464
124	0xbd13e9de	-0.036111705
125	0x3d83bd7b	0.06432625
126	0x3c98239f	0.018571673
127	0x3d91f289	0.07126338
128	0x3d4c449d	0.049870122
129	0x3d1786ba	0.03699372
130	0xbd2f0b73	-0.04273553
131	0x3d146b59	0.036235187
132	0xbca66dd2	-0.020316038
133	0xbb756186	-0.0037442162
134	0x3b8a5abf	0.0042222436
135	0x3bb6880a	0.0055704163
136	0xbd48a3b4	-0.048984244
137	0x3cdcc778	0.026950583
138	0xbd69954c	-0.057027146
139	0x3d82c2c5	0.063848056
140	0x3a9d3afa	0.0011995726
141	0x3d97e67f	0.074170105
142	0x3d57dd60	0.052701354
143	0x3db55646	0.08854346
144	0x3d34255a	0.043980934
145	0xbd945f11	-0.07244695
146	0xbdebc4c5	-0.1151214
147	0xbbf9f4f2	-0.0076280767
148	0xbc681874	-0.014165986
149	0xbc93854a	-0.018007893
150	0xbd6b71c9	-0.05748156
151	0xbdad80fb	-0.08471867
152	0xbdb93bcd	-0.09044609
153	0xbe1add0d	-0.15123387
154	0xbe72344c	-0.23652762
155	0xbde9458b	-0.113902174
156	0xbd7367a8	-0.059425026
157	0xbc78ae1a	-0.015178228
158	0xbdcdca44	-0.10048345
159	0xbc6d64b7	-0.014489344
160	0xbdf16767	-0.117873006
161	0xbc9117e6	-0.017711591
162	0xbd1180d2	-0.035523243
163	0xbce808b3	-0.02832446
164	0x3db9327b	0.090428315
165	0x3d994c6c	0.074852794
166	0x3d49e608	0.04929164
167	0x3db89bd6	0.09014098
168	0x3d9fafe6	0.07797222
169	0x3db2e752	0.08735527
170	0x3de134ea	0.10996421
171	0x3dcaf7ad	0.09910522
172	0x3e244805	0.16043098
173	0x3d8ca4d8	0.06867379
174	0x3d8e82a0	0.069585085
175	0x3d0537ce	0.032523923
176	0x3da481eb	0.080325924
177	0xbc5eefb9	-0.013606959
178	0xbc5baf70	-0.013408527
179	0x3df3f2a9	0.11911518
180	0x3d336c9b	0.043804746
181	0x3cfa1e17	0.030531926
182	0xbd844418	-0.064583
183	0x39eec121	0.0004553879
184	0x3c5d9ae5	0.013525699
185	0xbdf9b1d8	-0.12192124
186	0xbb92daff	-0.004481673
187	0x3bbdbb4a	0.005790149
188	0x3ce021ec	0.027359925
189	0xbda5528e	-0.08072387
190	0xbdd0f1dc	-0.10202381
191	0x3c9edb94	0.019391812
192	0xbd9f4c39	-0.0777821
193	0xbdfa5084	-0.122223884
194	0xbc3aeed4	-0.01140948
195	0x3d5c1dca	0.053739347
196	0x3e1ca2ab	0.15296428
197	0x3dbf2497	0.09333151
198	0xbd02d2da	-0.031939365
199	0x3d5eb0c3	0.05436779
200	0xbac98a2d	-0.0015376263
201	0xbdf8142c	-0.121132225
202	0x3cca3e3d	0.02468788
203	0xbd986587	-0.0744124
204	0x3db44524	0.0880225
205	0xbb0e79cf	-0.0021740084
206	0xbd2cc308	-0.042178184
207	0x3d303349	0.04301766
208	0x3ded13b7	0.11576026
209	0x3e1d3603	0.15352635
210	0xbdaa4e20	-0.083156824
211	0x3cfb82b1	0.030701967
212	0xbd45c199	-0.048280332
213	0xbcea0c9b	-0.028570464
214	0xbdca48f7	-0.09877198
215	0x3e0208bd	0.12698646
216	0x3e2e6f2f	0.170346
217	0xbd1d6962	-0.03843058
218	0xbbf7079d	-0.0075387494
219	0xbc887874	-0.016658999
220	0xbd98b87a	-0.07457061
221	0xbdeb1946	-0.1147943
222	0xbd470a12	-0.04859359
223	0xbe0a2443	-0.13490395
224	0xbda6a1d2	-0.081363335
225	0xbd8562c6	-0.0651298
226	0x3dfc5a4b	0.123219095
227	0x3d89a195	0.067202725
228	0x3d493bab	0.04912917
229	0xbda21ebd	-0.07916019
230	0xbe020a4f	-0.12699245
231	0x3ca5f257	0.020257158
232	0xbc9fe0a9	-0.019516306
233	0xbceb1d00	-0.028700352
234	0x3c0c6ebf	0.008571326
235	0x3d9f3858	0.077744186
236	0xbdea37a1	-0.114363916
237	0xbd8517fa	-0.06498714
238	0x3e02de69	0.12780155
239	0xbb701307	-0.0036632435
240	0xbde6b235	-0.11264459
241	0xbc34ee48	-0.011043139
242	0x3d09bf8c	0.03362994
243	0x3d951d0c	0.07280931
244	0x3d157d24	0.036496297
245	0xbcfa6d00	-0.030569553
246	0xbe048ed6	-0.12945113
247	0x3cf0772a	0.029353697
248	0x3d934b00	0.071920395
249	0xbce47af1	-0.027890654
250	0x3d03986d	0.032127786
251	0xbd297b7c	-0.04137753
252	0x3cd9f02f	0.026603786
253	0x3d4e503e	0.050369494
254	0x3d5f59b9	0.054528926
255	0x3e01dbc0	0.12681484

linear1.bias f4 [120]
0	0xbe039cc4	-0.1285277
1	0xbddaac5f	-0.106774084
2	0x3ebeafbd	0.37243453
3	0xbe1fee17	-0.15618168
4	0x3dac7336	0.08420412
5	0xbddd07fd	-0.10792539
6	0xbd2480fa	-0.040162064
7	0x3d4165f0	0.047216356
8	0x3d6f5232	0.058427997
9	0x3e002088	0.1251241
10	0xbd8a4c5d	-0.067528464
11	0xbe3a286a	-0.18179479
12	0x3d68a3ae	0.056796722
13	0x3d72f25d	0.059313167
14	0x3d8ce308	0.0687924
15	0x3e076e46	0.1322566
16	0x3baf583b	0.005351094
17	0x3e00748d	0.1254446
18	0x3e4f4aaa	0.20243326
19	0x3e8c2584	0.27372372
20	0x3e09777b	0.13424484
21	0x3d417ab9	0.047236178
22	0xbdeb6dba	-0.11495538
23	0x3d536303	0.051608097
24	0x3e0977e9	0.13424648
25	0xbd02f644	-0.03197314
26	0xbdafd7ae	-0.085860595
27	0x3e396299	0.18104018
28	0x3d002a42	0.0312903
29	0x3e2479dd	0.16062112
30	0x3e31d44a	0.17366138
31	0x3dfc74ff	0.12327003
32	0x3e7b3e88	0.24535573
33	0x3e0788e4	0.13235813
34	0xbd9804b7	-0.07422774
35	0x3bee6a5f	0.007275864
36	0x3d2285da	0.039678432
37	0xbda2be9f	-0.07946514
38	0x3db81479	0.0898828
39	0x3d75062f	0.05982035
40	0x3dddf38b	0.10837468
41	0x3e101822	0.14071706
42	0x3cda8d9a	0.026678849
43	0x3ce06529	0.027391987
44	0x3e681086	0.22662553
45	0x3d18d70f	0.03731447
46	0x3deaf13b	0.11471792
47	0xbd5b6b77	-0.053569283
48	0x3e1f5e00	0.15563202
49	0xbc6ff06e	-0.014644725
50	0x3e0f59e4	0.13999134
51	0x384ab2c4	4.832704e-05
52	0x3db168c5	0.08662561
53	0x3e31bede	0.17357966
54	0xbd942a2f	-0.072346084
55	0x3e542966	0.20718917
56	0xbca18c8a	-0.019720335
57	0x3e54e044	0.20788676
58	0x3ce957cf	0.028484253
59	0xbe25458a	-0.16139808
60	0x3d75e80a	0.060035743
61	0x3e343155	0.17596944
62	0x3d842e52	0.064541474
63	0x3d82dc8f	0.063897245
64	0x3dd054df	0.10172438
65	0x3ddbe8f8	0.10737795
66	0xbc9867ef	-0.018604247
67	0x3dd88fba	0.10574289
68	0x3e285ea6	0.16442356
69	0xbe670e39	-0.2256402
70	0x3e6514d0	0.2237122
71	0xbe25c0b6	-0.16186795
72	0xbc528fd6	-0.012851676
73	0x3e29f652	0.1659787
74	0x3d024c0a	0.031810798
75	0x3e2ddf32	0.16979674
76	0x3dc10cff	0.09426307
77	0xbd63a8dc	-0.05558096
78	0xbd5ecb96	-0.054393373
79	0x3e3fa767	0.18716203
80	0xbdaae9ad	-0.08345351
81	0x3d85b689	0.065289564
82	0xbda70a64	-0.08156279
83	0x3e4a68f8	0.19766605
84	0xbd4b5119	-0.049637888
85	0x3ebf9ea3	0.37425718
86	0x3d8cef02	0.068815246
87	0x3dbaaab6	0.09114592
88	0xbd913558	-0.07090253
89	0x3ddd928f	0.108189695
90	0x3e030edf	0.12798642
91	0xbd6aabb6	-0.057292663
92	0x3de0a797	0.10969465
93	0xbdd30f8c	-0.103057
94	0xbdaabdc7	-0.083369784
95	0x3e390da7	0.18071614
96	0x3d3e4c34	0.04645939
97	0x3de3faa8	0.11131793
98	0x3c3b9b3f	0.011450588
99	0x3cb91ac5	0.022595773
100	0xbc7a0ee3	-0.015262338
101	0xbc74d3ee	-0.014943106
102	0x3e6631ec	0.22479981
103	0x3d492b80	0.04911375
104	0x3b840caa	0.00402983
105	0xbdd310a6	-0.1030591
106	0x3d5ec535	0.05438729
107	0x3de80dff	0.113307945
108	0xbc783e53	-0.015151578
109	0x3da753b6	0.081702635
110	0x3d44ecb9	0.04807732
111	0xbd43fc9b	-0.047848325
112	0x3ca25b21	0.019818844
113	0x3ce3495c	0.027744941
114	0xbdd75aeb	-0.10515388
115	0x3e79a960	0.24381018
116	0x3b01345c	0.0019715047
117	0xbccc50e1	-0.02494091
118	0x3e8a2c18	0.26986766
119	0x3d9743d8	0.07385987

linear2.weight f4 [90, 120]
0	0x3d8c5c44	0.06853536
1	0x3d1c5c45	0.038173933
2	0x3ce72960	0.028217971
3	0x3cc1bddb	0.0236501
4	0x3de3679d	0.11103747
5	0xbc306cd4	-0.010768134
6	0x3d91275f	0.070875876
7	0x3d6e71c4	0.058213964
8	0x3df45235	0.11929742
9	0xbd864087	-0.06555276
10	0xbdc3a27f	-0.09552478
11	0xbc865969	-0.016400056
12	0x3d6589fd	0.0560398
13	0x3c1bb215	0.009502907
14	0x3cde5c91	0.027143748
15	0x3cce9b84	0.02522064
16	0x3b92b3ea	0.004477014
17	0x3cba12a2	0.022713963
18	0x3d470ee5	0.04859819
19	0xbd885287	-0.06656366
20	0x3c78ec4f	0.015193059
21	0x3d49a7f7	0.04923245
22	0x3d3fc747	0.046820905
23	0x3cc72381	0.024308922
24	0x3d93f45e	0.07224344
25	0xbdec0d41	-0.115259655
26	0x3d989e41	0.074520595
27	0x3d7181c7	0.058961656
28	0x3dbf6df1	0.093471415
29	0xbc6aa9f5	-0.0143227475
30	0x3ad318ce	0.0016105415
31	0xbd743d1e	-0.0596286
32	0x3d60ce25	0.054884095
33	0x3de27ff2	0.1105956
34	0x3ded6526	0.11591558
35	0x3db103ac	0.086432785
36	0xbd9e6701	-0.0773449
37	0xbd1489ea	-0.036264338
38	0x3d258efb	0.04041956
39	0x3c6ca658	0.014443956
40	0xbc23ea73	-0.0100046275
41	0x3b48d6cd	0.003064561
42	0xbcfccc42	-0.030859116
43	0x3d43c767	0.047797587
44	0x3d0c892b	0.0343105
45	0xbc4891e5	-0.012241815
46	0xbda313fc	-0.07962796
47	0xbc9e0f42	-0.019294385
48	0xbc5468c7	-0.012964434
49	0xbdcfd957	-0.10148876
50	0x3d5d1fc1	0.05398536
51	0x3b9ca963	0.0047809347
52	0x3cb9318e	0.022606637
53	0x3cdcfc31	0.026975723
54	0xbd45ed5c	-0.048322067
55	0x3d09aa55	0.033609707
56	0x3e09639c	0.13416904
57	0x3d94e682	0.072705284
58	0xbc92fa2c	-0.017941557
59	0x3d7b785c	0.06139408
60	0x3cfb9d17	0.030714555
61	0x3dbc8e64	0.09206846
62	0x3c9723d0	0.018449694
63	0x3d4c0f72	0.049819417
64	0xbd5e0a16	-0.054208837
65	0x3d2a02d5	0.041506607
66	0x3d5eb5e2	0.054372676
67	0x3dfd5fa3	0.12371757
68	0xbd1217e7	-0.035667326
69	0xbdc14a26	-0.09437971
70	0x3bd68e9a	0.006547761
71	0x3d60fb84	0.054927364
72	0x3d64e46a	0.055881895
73	0xbd0bba5c	-0.034113273
74	0xbce319c9	-0.027722256
75	0xbdd05c69	-0.10173876
76	0xbb5d9dbf	-0.0033815948
77	0xbb507250	-0.0031806417
78	0x3c3f7017	0.011684439
79	0x3d0b38f7	0.033989873
80	0xbca16176	-0.019699793
81	0xbca17d36	-0.019713026
82	0xbd4a96d2	-0.04946024
83	0x3d0f278e	0.03494983
84	0x3db853da	0.090003684
85	0xbb9acb88	-0.00472397
86	0xbd6c36b8	-0.05766937
87	0xbd17f69b	-0.037100416
88	0xbdc889c1	-0.097918995
89	0xbce5ef85	-0.028068313
90	0xbd807980	-0.06273174
91	0x3d1016f6	0.035178147
92	0xbd6eda46	-0.05831363
93	0x3d73a6af	0.059485134
94	0x3c8a8ce4	0.016912885
95	0x3b35a64d	0.0027717531
96	0x3d7ef143	0.062241804
97	0x3c9a3ff5	0.018829325
98	0x3d88e46f	0.06684195
99	0x3d1f685e	0.03891789
100	0x3d712ce5	0.058880705
101	0x3ce6a2b2	0.028153751
102	0x3d7db292	0.061937876
103	0x3dafdb54	0.085867554
104	0x3be1ca52	0.0068905735
105	0xbd9830e0	-0.07431197
106	0x3d0e7fa5	0.0347897
107	0x3d92e9be	0.07173489
108	0x3d818774	0.06324664
109	0x3da0b641	0.07847262
110	0x3b7b1dc0	0.0038317293
111	0xbd8faf70	-0.07015884
112	0xbd3a30fa	-0.045456864
113	0x3cc4e1f7	0.02403353
114	0x3d444c76	0.04792448
115	0x3d2a01f4	0.04150577
116	0xbd6b32f9	-0.05742166
117	0xbe014f86	-0.12627992
118	0x3cca94ed	0.024729216
119	0xbd0d0ef1	-0.034438077
120	0xbd487fab	-0.04894988
121	0x3c36e701	0.011163474
122	0x3d759fb2	0.05996675
123	0x3db3956d	0.08768735
124	0x3d8e5299	0.06949348
125	0xbd097cb5	-0.033566196
126	0x3d3958a0	0.045250535
127	0x3da67aca	0.08128889
128	0xbaa0e546	-0.001227536
129	0x3d852c33	0.06502571
130	0xba86c1c7	-0.0010281139
131	0xbdc2e86b	-0.095169865
132	0x3dd33b36	0.10314028
133	0x3d790c29	0.060802612
134	0x3d81f8d9	0.06346292
135	0xbdea379d	-0.11436389
136	0x3c84ed64	0.016226478
137	0x3d278471	0.04089779
138	0xbcc069f3	-0.02348802
139	0x3d59a26b	0.05313341
140	0x3d92793b	0.07152029
141	0x3c9705fa	0.018435467
142	0x3dcbdfac	0.099547714
143	0x3d2e1a23	0.042505395
144	0x3d458568	0.04822293
145	0xbb31f858	-0.002715608
146	0xbdb95c15	-0.090507664
147	0x3c8049cd	0.015660191
148	0x3db11ecc	0.08648452
149	0x3dd5b551	0.10434974
150	0xbcc68d26	-0.024237227
151	0xbd6e884e	-0.05823546
152	0x3d6b84d8	0.057499737
153	0x3d096bfa	0.03355024
154	0x3dcaff73	0.09912004
155	0x3ded2342	0.115789905
156	0xbc50451a	-0.012711788
157	0xbca9e793	-0.020740306
158	0x3dd8583c	0.10563704
159	0x3c0e7bf1	0.008696542
160	0xbca1ef24	-0.019767351
161	0xbb39756e	-0.0028298753
162	0xbd67d26b	-0.056597155
163	0x3d54c82a	0.051948704
164	0x3dadce0b	0.08486565
165	0xbd8dde83	-0.06927206
166	0xbbb7305f	-0.005590483
167	0xbc1b2a33	-0.00947051
168	0x3d8c9172	0.06863679
169	0x3c962ed5	0.018332878
170	0xbd34d73f	-0.044150587
171	0x3d01f49a	0.03172741
172	0x3ce67cb4	0.028135635
173	0x3debd14e	0.11514531
174	0xbdb5f8dd	-0.088853575
175	0x3daa28f1	0.0830859
176	0x3d2c4620	0.042059064
177	0x3d8685e8	0.06568509
178	0x3d3ad5f4	0.045614198
179	0x3c4bf611	0.0124488035
180	0x3dd98bed	0.10622392
181	0x3d8297b2	0.0637659
182	0x3cfeafa9	0.03108962
183	0x3dd86c50	0.10567534
184	0x3d6823f9	0.05667493
185	0x3d61e402	0.055149086
186	0x3de0dad9	0.10979242
187	0x3d1b6703	0.037940037
188	0x3db1a193	0.08673396
189	0xbd1e9c15	-0.03872307
190	0x3d328fbb	0.043594103
191	0x3b340013	0.0027465865
192	0x3d9f8620	0.07789254
193	0x3d8be50b	0.06830796
194	0xbc6e0a19	-0.014528775
195	0xbd2aca65	-0.041696925
196	0x3db0da3b	0.08635374
197	0xbde2b5da	-0.11069842
198	0x3da3bb17	0.07994669
199	0x3dac572e	0.08415066
200	0xbdea5177	-0.114413194
201	0xbb4f8496	-0.003166472
202	0xbdd0ad60	-0.10189319
203	0x3dee8c43	0.116478465
204	0xbd48ae08	-0.048994094
205	0x3dd06c94	0.1017696
206	0xbcebae46	-0.028769623
207	0x3d2e633d	0.04257511
208	0xbda5eecb	-0.08102187
209	0xbb95b025	-0.004568117
210	0xbc3dff9b	-0.011596586
211	0xbd2eb5ff	-0.042654034
212	0xbc98cb19	-0.018651532
213	0x3da1f931	0.079088576
214	0x3d8a6776	0.06758015
215	0x3d2a5829	0.041587982
216	0xbde8031e	-0.113287196
217	0x3d5068bc	0.050881132
218	0x3da1889a	0.07887383
219	0x3e01ea2d	0.12686987
220	0x3dad1cea	0.084527805
221	0x3dd1509c	0.10220453
222	0x3d1a38b1	0.03765172
223	0x3daa952c	0.083292335
224	0x3d9948e5	0.07484607
225	0xbe0fe021	-0.14050342
226	0xbd790d83	-0.0608039
227	0x3daa9f89	0.0833121
228	0x3d9730fa	0.073823884
229	0x3d26afa4	0.040694848
230	0xbd810867	-0.06300431
231	0xbd42661b	-0.047460657
232	0xbd8afab9	-0.06786103
233	0xbd3919ec	-0.045190737
234	0xbd15c6ed	-0.036566664
235	0x3d90f0f8	0.07077211
236	0xbb8fb760	-0.0043858737
237	0xbd3b61ad	-0.045747448
238	0x3c4b5281	0.012409807
239	0xbdab350f	-0.083597295
240	0xbd0a82bb	-0.03381608
241	0xbdaab8b6	-0.08336012
242	0x3d51853f	0.051152464
243	0xbdfdc66f	-0.12391364
244	0x3d5c9e95	0.053862173
245	0xbe4021bb	-0.18762867
246	0x3d6f3ad7	0.058405723
247	0xbbdf747a	-0.006819305
248	0x3e41b423	0.18916373
249	0xbdd7f2d8	-0.10544366
250	0x3cd49356	0.025949161
251	0xbda4422a	-0.08020432
252	0xbce76e8c	-0.028250955
253	0xbe6c3aab	-0.23069255
254	0xbe17e9a4	-0.1483522
255	0x3d1adacc	0.037806317

linear2.bias f4 [90]
0	0x3d7969ee	0.060892038
1	0x3d7aa30b	0.061190646
2	0x3ce0d7eb	0.027446708
3	0x3dc1133a	0.09427495
4	0xbc0f428e	-0.008743895
5	0x3e3432e2	0.17597535
6	0xbc889de8	-0.016676858
7	0x3c82bae9	0.015958266
8	0x3da5e5c8	0.08100468
9	0x3dc84ac8	0.097798884
10	0x3daf9115	0.08572594
11	0x3e156135	0.14587863
12	0x3d8ba838	0.068191946
13	0x3dc36e1b	0.09542485
14	0x3da16b66	0.07881813
15	0x3dc43899	0.09581108
16	0x3d2db9ec	0.042413637
17	0x3d3709e1	0.044687156
18	0x3cf1dc25	0.029523918
19	0x3dace844	0.08442739
20	0x3dbc1308	0.091833174
21	0x3d649e62	0.055815108
22	0xbd221336	-0.039569102
23	0x3d6d6933	0.057961654
24	0x3d75efeb	0.060043257
25	0x3c9f245b	0.019426515
26	0x3da01e6c	0.078183025
27	0x3d861186	0.06546311
28	0x3d0f90b8	0.035050124
29	0x3cc42d37	0.023947341
30	0x3d29fab2	0.041498847
31	0x3d88be2b	0.06676897
32	0x3d98505e	0.07437204
33	0x3e3cc326	0.18433818
34	0x3d4f647f	0.05063295
35	0x3d9671b2	0.073459044
36	0x3daa8e62	0.083279386
37	0x3d9b1bce	0.07573663
38	0x3c6c859b	0.014436151
39	0x3d86c3fc	0.0658035
40	0x3dc3009b	0.095216
41	0x3bbef008	0.005826954
42	0x3d8400f1	0.06445492
43	0x3cddc833	0.027073001
44	0x3d1012f6	0.035174333
45	0x3dd4f53f	0.103983395
46	0x3d9c52df	0.07632994
47	0x3e40e5d5	0.18837674
48	0x3ce7587f	0.02824044
49	0x3d48fb04	0.049067512
50	0x3dc5ef52	0.09664787
51	0x3dace5c3	0.08442261
52	0x3d025333	0.031817626
53	0x3e064e60	0.13115835
54	0x3d5543e5	0.052066702
55	0x3db79085	0.08963112
56	0x3d96cb35	0.073629774
57	0x3e045674	0.12923604
58	0x3d3bc1e4	0.045839205
59	0x3d096231	0.03354091
60	0x3c13045c	0.008973207
61	0x3bb82404	0.005619528
62	0x3e167cb3	0.14696006
63	0x3d58547d	0.05281495
64	0x3d8f4ee2	0.069974676
65	0xbbc809cf	-0.006104685
66	0x3b769e67	0.0037631036
67	0x3af37d43	0.001857676
68	0x3d4703b8	0.04858753
69	0x3d1e109b	0.038590055
70	0xbc92f61c	-0.01793962
71	0x3d50e216	0.050996862
72	0x3d231f14	0.03982456
73	0x3dc22e5d	0.09481499
74	0x3d1ffb18	0.03905782
75	0x3d22188f	0.039574202
76	0x3e3902d2	0.18067482
77	0x3d86ad6e	0.06576048
78	0x3da8c46f	0.08240592
79	0x3da6c855	0.08143679
80	0x3d4bc0bd	0.049744356
81	0x3e1603d9	0.14649905
82	0x3d05a565	0.032628436
83	0x3d002ae1	0.031290893
84	0x3da0e5fd	0.07856367
85	0x3dbb7f03	0.09155085
86	0x3e483e79	0.19555081
87	0x3c98d603	0.018656736
88	0x3d35fe04	0.0444317
89	0x3d24f81f	0.04027569

linear3.weight f4 [60, 90]
0	0x3dbdd0dc	0.092683524
1	0x3d61e705	0.055151958
2	0xbda6668b	-0.08125027
3	0x3de4f675	0.111798204
4	0x3ddb38d8	0.107042015
5	0x3ce2198f	0.027600078
6	0x3e0edeee	0.13952228
7	0x3cf0274b	0.029315611
8	0xbd882acb	-0.06648787
9	0x3b9c4c8c	0.0047698673
10	0x3dad50d7	0.084626846
11	0xbc1f7c51	-0.009734229
12	0x3dab8abd	0.083760716
13	0x3dac9c8e	0.08428298
14	0x3e033ae9	0.12815441
15	0x3d06df4c	0.032927796
16	0x3df3075b	0.11866637
17	0x3da34938	0.0797295
18	0x3e1fd341	0.1560793
19	0x3d419a7e	0.047266476
20	0x3ccc8377	0.024965031
21	0x3e0bd746	0.13656339
22	0x3de8882d	0.113540985
23	0xbdd63742	-0.10459758
24	0x3d9df97c	0.07713601
25	0x3dffb10b	0.1248494
26	0x3d30cd84	0.043164745
27	0x3d4882b0	0.04895276
28	0xbe87eaa0	-0.26546192
29	0xbd9d07b7	-0.07667487
30	0xbcb51b2a	-0.02210768
31	0xbd40c9c9	-0.047067437
32	0xbe08abb5	-0.13346751
33	0x3ba754ab	0.0051065288
34	0xbd2825c2	-0.041051634
35	0x3e19844e	0.14991876
36	0x3e0ae052	0.13562134
37	0xbd626778	-0.055274457
38	0xbd599786	-0.05312302
39	0x3dab6852	0.08369507
40	0xbdb15f4e	-0.08660756
41	0xbdc562c5	-0.096379794
42	0x3d2d2e59	0.04228053
43	0x3bb8f467	0.0056443694
44	0x3def36fb	0.116804086
45	0x3cdf9af4	0.027295567
46	0x3dcce952	0.1000544
47	0xbd83945c	-0.06424782
48	0xbc2fb965	-0.010725354
49	0x3e62cfdf	0.22149609
50	0xbbc980f7	-0.006149407
51	0x3d8e270f	0.069410436
52	0x3df2361b	0.11826726
53	0x3d6bc8a6	0.0575644
54	0x3ddb0fcb	0.10696372
55	0xbd2e2183	-0.042512428
56	0xbd23a961	-0.039956454
57	0x3d74f091	0.059799735
58	0xbd584ac7	-0.05280569
59	0xbbe1687e	-0.0068789115
60	0xbdabb68e	-0.08384429
61	0xbd1cb5d1	-0.03825933
62	0xbcc9b891	-0.024624141
63	0x3d002792	0.031287737
64	0xbc9a714a	-0.018852849
65	0x3e7c62fb	0.24647133
66	0xbd6c904d	-0.057754803
67	0xbd6ddfa4	-0.05807461
68	0x3db28fc1	0.08718825
69	0xbd8fe05b	-0.07025214
70	0xbd8b0d72	-0.06789674
71	0x3e1a1cc5	0.15050037
72	0x3dbc7f9b	0.09204026
73	0x3de8a1d0	0.11358988
74	0x3db52f67	0.08846932
75	0x3e1357d5	0.14388974
76	0xbd73fdb0	-0.059568107
77	0x3d9290f4	0.07156554
78	0xbcc9047d	-0.024538273
79	0x3dc292d6	0.09500663
80	0xbd8e98f7	-0.069627695
81	0x3c80da6a	0.015729148
82	0x3c09e753	0.008416968
83	0x3d46a4cb	0.048497003
84	0xbe1d6804	-0.1537171
85	0xbc8466d4	-0.016162314
86	0x3b74fb0e	0.0037381086
87	0x3e1b2a61	0.15152885
88	0x3d098d97	0.033582296
89	0x3e142f51	0.14471175
90	0x3c73b739	0.014875227
91	0x3d0fed09	0.035138164
92	0x3e12a311	0.14320017
93	0x3d5ea5f2	0.054357477
94	0xbdbfee71	-0.09371651
95	0x3e05fda4	0.13085037
96	0xbcccce3d	-0.025000686
97	0x3d06178d	0.032737304
98	0x3e163a08	0.14670575
99	0x3cff1b55	0.031140963
100	0xbd037335	-0.03209229
101	0x3df8d708	0.12150389
102	0xbb82f7ff	-0.0039968486
103	0x3d66d1ee	0.05635255
104	0x3d38a259	0.0450767
105	0x3d91d247	0.07120185
106	0x3c58f96c	0.013243061
107	0x3c0101bf	0.007873951
108	0xbda73e78	-0.08166212
109	0x3d03083b	0.03199027
110	0x3d97626e	0.07391821
111	0xbd0a24a9	-0.033726368
112	0xbddbd2ee	-0.10733591
113	0x3dc1fb69	0.09471781
114	0xbbe415a0	-0.0069605857
115	0xbd226639	-0.03964827
116	0xbd0cd6ad	-0.03438442
117	0x3d8b45e1	0.06800438
118	0x3e6c9061	0.23101951
119	0x3de9790e	0.114000425
120	0x3d9546cf	0.07288896
121	0x3d54e6a4	0.05197777
122	0x3dfe754d	0.12424717
123	0x3e2a120d	0.16608448
124	0x3e077162	0.13226846
125	0xbd1d96b1	-0.03847379
126	0xbc26390a	-0.010145435
127	0x3de384c5	0.11109308
128	0x3dc5b8fe	0.09654425
129	0xbdb44f23	-0.08804157
130	0x3e0fb8e3	0.14035372
131	0x3df83d52	0.12121071
132	0xbcff0625	-0.03113086
133	0x3d9fc705	0.07801632
134	0xbd6623e1	-0.05618656
135	0x3da7a080	0.0818491
136	0xbd26f220	-0.040758252
137	0x3e137a3f	0.14402102
138	0x3d831923	0.06401279
139	0xbe29e499	-0.1659111
140	0x3de10fb4	0.10989323
141	0x3da64bb7	0.0811991
142	0xbcc02a59	-0.023457693
143	0x3e0922e7	0.1339222
144	0x3bbca1f6	0.005756612
145	0x3dfef88a	0.12449749
146	0x3dd028e7	0.101640515
147	0x3da62e63	0.08114316
148	0x3d4f9a34	0.05068417
149	0x3d9e82d6	0.07739799
150	0x3de2c549	0.110727854
151	0x3d709015	0.058731157
152	0x3dc83130	0.09775007
153	0x3c342324	0.010994706
154	0x3da9060b	0.08253106
155	0xbe6757a7	-0.2259203
156	0x3dba20f9	0.0908832
157	0x3db43f7e	0.08801173
158	0x3ce4d77c	0.027934782
159	0x3da2d6e4	0.079511434
160	0x3d8b8842	0.068130985
161	0xbd04a061	-0.03237951
162	0xbd764f89	-0.060134444
163	0xbc346e2d	-0.011012596
164	0xbd396cc8	-0.045269758
165	0xbd6f2eff	-0.05839443
166	0x3e043ff0	0.12915015
167	0x3d6a3d6f	0.057187494
168	0x3daabe2a	0.08337052
169	0x3d61541c	0.055011854
170	0x3dfc0aee	0.12306772
171	0x3dd5d609	0.104412146
172	0x3db4c49d	0.088265635
173	0xbb067e5e	-0.0020522098
174	0x3e3db6c8	0.18526757
175	0x3dc9a94a	0.098467425
176	0x3deed380	0.11661434
177	0xb992c163	-0.00027991374
178	0x3d5aa96c	0.05338423
179	0xbd810b7f	-0.06301021
180	0xa94687bf	-4.4082573e-14
181	0xa791c8a6	-4.046313e-15
182	0xa930f047	-3.9288258e-14
183	0xa886111b	-1.4884407e-14
184	0xa9304848	-3.9142544e-14
185	0xa82ea93f	-9.69564e-15
186	0xa8e4ca41	-2.5400799e-14
187	0xa98035ee	-5.693697e-14
188	0xa8b6125a	-2.0214018e-14
189	0xa92a51f5	-3.781867e-14
190	0xa8f0aaad	-2.6719371e-14
191	0x278eed05	3.9669894e-15
192	0xa8b25049	-1.9796788e-14
193	0xa838eee8	-1.0265856e-14
194	0xa89bace0	-1.728343e-14
195	0xa923c761	-3.6366204e-14
196	0xa9251152	-3.6652383e-14
197	0xa91e0c68	-3.5093808e-14
198	0xa962bbf7	-5.0345114e-14
199	0x28584160	1.2004585e-14
200	0x26f57683	1.7032413e-15
201	0xa91661f0	-3.3391638e-14
202	0xa99955a6	-6.8094225e-14
203	0xa8773469	-1.3722619e-14
204	0xa9b7f1f6	-8.168806e-14
205	0xa8b68f6c	-2.0268258e-14
206	0xa9d1174b	-9.285505e-14
207	0xa9b67c8c	-8.104029e-14
208	0x25c8ed18	3.485513e-16
209	0xa8125a12	-8.124159e-15
210	0xa9237608	-3.6295646e-14
211	0xa972dc08	-5.392564e-14
212	0xa9962fff	-6.669664e-14
213	0xa85829eb	-1.1999498e-14
214	0xa7b3503b	-4.9769466e-15
215	0xa8e369d8	-2.5247965e-14
216	0xa9bb277d	-8.3113183e-14
217	0x27dcf4d8	6.1327726e-15
218	0xa8cab5b9	-2.2505315e-14
219	0xa922fc1a	-3.618989e-14
220	0xa8d0436c	-2.3121878e-14
221	0x26e36fa0	1.5781545e-15
222	0xa94e26cd	-4.5774843e-14
223	0xa8523cc3	-1.1670517e-14
224	0xa93eb02c	-4.234128e-14
225	0xa974b72d	-5.4337763e-14
226	0xa99a6e79	-6.858138e-14
227	0x26a6b054	1.1566358e-15
228	0xa92adc86	-3.7938856e-14
229	0xa9267af7	-3.696606e-14
230	0xa84dc57c	-1.1422609e-14
231	0xa90e3396	-3.1575078e-14
232	0xa929eb21	-3.772948e-14
233	0xa8c2d95e	-2.1632595e-14
234	0xa8b6ca68	-2.0293839e-14
235	0xa886a6c9	-1.494932e-14
236	0x26ae6797	1.2101753e-15
237	0xa7b0c76b	-4.9066022e-15
238	0xa96bc5c0	-5.2352003e-14
239	0xa8ef21fa	-2.6549065e-14
240	0xa8e3201e	-2.5215991e-14
241	0xa917fb04	-3.3746457e-14
242	0x2735d8c9	2.5236315e-15
243	0xa981f56a	-5.7713234e-14
244	0xa8bae764	-2.0750498e-14
245	0xa909cb39	-3.059638e-14
246	0x276d869f	3.2963335e-15
247	0xa9752359	-5.4431587e-14
248	0xa8f734b8	-2.7445372e-14
249	0xa8bb3837	-2.078555e-14
250	0xa936b93c	-4.0572783e-14
251	0xa93b29ab	-4.1558482e-14
252	0xa946508e	-4.4034702e-14
253	0xa8f8500b	-2.7568244e-14
254	0xa8911573	-1.6107536e-14
255	0xa8b02158	-1.9554386e-14

linear3.bias f4 [60]
0	0x3de09a12	0.109668866
1	0x3da239c6	0.07921176
2	0xa9b81bae	-8.176043e-14
3	0x3ddf9b21	0.1091826
4	0x3e2c25bd	0.16811271
5	0x3cb1cb64	0.02170343
6	0x3d8e6400	0.06952667
7	0x3ca839a1	0.020535292
8	0x3d098238	0.033571452
9	0x3d8da163	0.06915548
10	0xaffa9efe	-4.5587706e-10
11	0x3cf99c62	0.030470077
12	0x3d948bcb	0.07253226
13	0x811bd712	-2.862331e-38
14	0x3dcd3007	0.10018926
15	0xbb899d7e	-0.0041996827
16	0xbcf5557a	-0.029947985
17	0x9077ddbb	-4.8882976e-29
18	0x3dca1d8e	0.09868918
19	0x3d67b793	0.056571554
20	0x3dcc32c8	0.09970623
21	0xbb9db5a2	-0.004812912
22	0x3db15b0d	0.08659945
23	0x3b2f8252	0.0026780558
24	0x3d7b0c5b	0.06129108
25	0x0020bb95	3.006028e-39
26	0x3d91330a	0.07089813
27	0x3a9d15f5	0.0011984693
28	0x35f9fe2a	1.8625917e-06
29	0x3e02c776	0.12771401
30	0x3d87615d	0.066103674
31	0x3dd57ccf	0.10424196
32	0x3ce7788a	0.02825572
33	0x3daf1aad	0.0855001
34	0x3d07b48c	0.033131167
35	0xa235ab50	-2.4620766e-18
36	0x3d8c6bd7	0.06856506
37	0x3c98c3dd	0.018648082
38	0x3d94008f	0.07226669
39	0x3ca0eea4	0.019645043
40	0x3d14372e	0.036185436
41	0x3dc5b202	0.09653093
42	0xb5c18808	-1.4419211e-06
43	0x3c75bf3a	0.014999205
44	0x3d934521	0.0719092
45	0x3d916025	0.07098416
46	0x3d2506a2	0.04028953
47	0x3d509557	0.05092367
48	0x3ce8a64e	0.028399613
49	0x3d855c60	0.0651176
50	0x3e0e8aa0	0.13920069
51	0x3d4fa643	0.05069567
52	0xbca04d66	-0.019568156
53	0x3daddafc	0.084890336
54	0x3c67ed8b	0.014155756
55	0x3d1da39b	0.038486104
56	0x3d8f4348	0.06995255
57	0xb9f74b63	-0.0004716768
58	0x3c4c1cfb	0.012458081
59	0x3d85fdf8	0.06542581

linear4.weight f4 [30, 60]
0	0xbdf170fc	-0.11789128
1	0x3e0b89be	0.13626763
2	0x2a3c525c	1.6726328e-13
3	0x3e85d1da	0.26136667
4	0x3e751fe1	0.23937942
5	0x3da9ed72	0.08297242
6	0x3d847f40	0.064695835
7	0xbcfe2b07	-0.031026376
8	0xbd898b81	-0.067160614
9	0x3d6b18b4	0.057396606
10	0x375da2ca	1.3210529e-05
11	0x3b148d02	0.0022667055
12	0xbd889b9c	-0.06670305
13	0x2d0cace7	7.996471e-12
14	0x3da2fd08	0.07958418
15	0xbd7edd2e	-0.062222652
16	0x3d41d652	0.047323532
17	0xa1a1cacb	-1.0963463e-18
18	0x3e6e5948	0.23276246
19	0x3e2d6162	0.1693168
20	0x3e5c1442	0.21492103
21	0x3aab3342	0.0013061541
22	0x3e56c3fe	0.20973203
23	0x3ca5d95d	0.020245248
24	0x3e1c65ab	0.15273158
25	0x80f7a20f	-2.2741503e-38
26	0x3e63fae6	0.22263679
27	0x3d8c5089	0.06851298
28	0xba02ec93	-0.0004994359
29	0x3e5ac8b5	0.21365626
30	0x3e13c870	0.1443193
31	0x3db6e880	0.089310646
32	0xbc3d104c	-0.01153953
33	0x3e51bf6a	0.20483175
34	0xbd8d850f	-0.069101445
35	0x32eef6cb	2.7819075e-08
36	0xbd7f346f	-0.062305864
37	0xbd88087f	-0.066422455
38	0x3d2868a8	0.041115433
39	0x3d549152	0.0518964
40	0xbda2fcf3	-0.079584025
41	0x3e12bbf5	0.14329512
42	0xb8ad018d	-8.249572e-05
43	0x3da290fd	0.079378106
44	0xbd8c09d8	-0.06837815
45	0x3e3e4802	0.18582156
46	0x3c973f0f	0.018462686
47	0x3e132088	0.14367878
48	0xbd96bfe8	-0.07360822
49	0x3e3cff2b	0.18456714
50	0x3e86c1f0	0.26319838
51	0xbd748e38	-0.059705943
52	0xbcc8ff63	-0.02453584
53	0x3e139223	0.14411215
54	0x3ca37022	0.01995093
55	0x3dca1d73	0.09868898
56	0x3e0d44a3	0.13795714
57	0xbd2572cc	-0.040392682
58	0x3dae299d	0.08504031
59	0x3d24dc4c	0.040249154
60	0x3dea39a8	0.11436778
61	0x3dd2251f	0.102609865
62	0x2734fb39	2.5116206e-15
63	0x3ddfad5d	0.10921738
64	0x3de3eb20	0.11128831
65	0xbdb1d16f	-0.086825244
66	0x3d9eab83	0.07747557
67	0x3c01ee8c	0.007930409
68	0xbdab8027	-0.083740525
69	0x3daa8662	0.08326413
70	0xb5fbec9b	-1.8769819e-06
71	0x3e5b89e4	0.2143932
72	0x3ccba10d	0.024857068
73	0xa68d536a	-9.80645e-16
74	0xbdccd20a	-0.10000999
75	0x3da8026f	0.08203589
76	0x3e4b345a	0.1984419
77	0x2bacde00	1.2282952e-12
78	0x3d3e7e5a	0.046507217
79	0xbd402fe1	-0.04692066
80	0x3df77b4e	0.120840654
81	0x3beb65c7	0.0071837637
82	0xba4e4a7f	-0.0007869377
83	0x3dd97d24	0.10619572
84	0xbdfba3e3	-0.12287118
85	0x09f56671	5.907794e-33
86	0xbc085953	-0.008322078
87	0xbc90b643	-0.017665034
88	0x3899aa34	7.327311e-05
89	0x3db930e6	0.0904253
90	0x3e1486ad	0.145045
91	0xbdd87a15	-0.1057016
92	0x3bf849d4	0.0075771604
93	0x3d83c9b0	0.06434953
94	0x3e052c74	0.13005239
95	0x0d50b126	6.4308183e-31
96	0xbd31dba5	-0.04342236
97	0xbdbffdd2	-0.09374584
98	0x3cfe9bee	0.031080212
99	0x3e2b7b2c	0.16746205
100	0x3da7329f	0.08163952
101	0x3e05286f	0.13003705
102	0x39e21284	0.00043119874
103	0x3dc02ea6	0.093838975
104	0xbd0079d0	-0.03136617
105	0x3e448081	0.19189645
106	0x3e72c556	0.2370809
107	0x3d5a22bd	0.053255785
108	0x3e2882c0	0.16456127
109	0x3e22d4e8	0.1590153
110	0x3de502e6	0.111821935
111	0x3cafc786	0.021457445
112	0x3e394998	0.1809448
113	0x3e4bbe15	0.1989673
114	0xbe0027fc	-0.12515253
115	0xbe1faf02	-0.15594104
116	0x3c8f1f90	0.017471105
117	0x3de971d7	0.11398666
118	0x3db1b7fb	0.086776696
119	0xbc9ee7c4	-0.019397624
120	0x3d0951be	0.03352522
121	0xbbf0c82f	-0.0073480825
122	0x28b42a4f	2.0002363e-14
123	0x3df70aa2	0.12062575
124	0x3d5848be	0.052803747
125	0xbe34db60	-0.1766181
126	0x3da44ab1	0.08022059
127	0x3d90231e	0.07037948
128	0xbe4fdc83	-0.20298962
129	0xbd027d60	-0.03185785
130	0x384ace1c	4.8352507e-05
131	0x3e757670	0.23970962
132	0xbda44194	-0.080203205
133	0xae3b3c45	-4.2572407e-11
134	0xbe20e910	-0.15713906
135	0x3dd49112	0.103792325
136	0x3e44d603	0.19222264
137	0x2ee0573d	1.0201837e-10
138	0x3de68fbc	0.11257884
139	0xbd519951	-0.051171605
140	0x3dc11e5e	0.0942962
141	0x39e69c4f	0.00043985478
142	0x37b72148	2.1830798e-05
143	0x3e005b01	0.12534715
144	0xbe27521c	-0.16339916
145	0x9b08ecb8	-1.1326144e-22
146	0xbd78aff9	-0.060714696
147	0x3d138a96	0.036020838
148	0xb7bfe401	-2.2875147e-05
149	0x3dcf8ce5	0.101342954
150	0x3e2661ec	0.16248292
151	0xbdc647d7	-0.09681671
152	0xbd836423	-0.06415584
153	0x3bac032e	0.0052494025
154	0x3db06f47	0.086149745
155	0xafdd6d6e	-4.027742e-10
156	0x3a1379ea	0.00056257716
157	0xbb06e3a4	-0.0020582462
158	0x3decac48	0.115562975
159	0x3dda412d	0.106569625
160	0x3d9c1e93	0.07623019
161	0x3e11e3c5	0.14247043
162	0x3a87fb4c	0.0010374575
163	0xbcba7dd8	-0.022765085
164	0xbe086635	-0.13320239
165	0x3e176af2	0.1478689
166	0x3dd13dfa	0.10216899
167	0x3dc2c244	0.095097095
168	0x3dce4d39	0.10073323
169	0x3e1286d4	0.14309245
170	0x3d07def3	0.033171605
171	0x3d67b0b0	0.056564987
172	0x3e32ec7b	0.17473023
173	0x3df8d3b3	0.121497534
174	0xbe6aff41	-0.22948934
175	0xbe10a9e9	-0.14127316
176	0xbdf7ca2a	-0.120991066
177	0x3e05bf9f	0.13061379
178	0x3cf45741	0.029826762
179	0xbe012be6	-0.12614402
180	0x81a69788	-6.1196206e-38
181	0x80d3b322	-1.944155e-38
182	0x00df031d	2.0480432e-38
183	0x80bae930	-1.7165054e-38
184	0x81202201	-2.9411755e-38
185	0x00de1fe0	2.0398915e-38
186	0x01a3c427	6.015821e-38
187	0x8152477b	-3.8622193e-38
188	0x015a1efc	4.0062507e-38
189	0x810b8beb	-2.5630654e-38
190	0x814635ce	-3.640546e-38
191	0x81a87ddd	-6.189406e-38
192	0x001a22de	2.400231e-39
193	0x80c8808b	-1.8413212e-38
194	0x01a06dea	5.8932436e-38
195	0x010a490e	2.539901e-38
196	0x015c1d04	4.0428436e-38
197	0x819db61e	-5.7934017e-38
198	0x803516c3	-4.875447e-39
199	0x0002fdd2	2.74725e-40
200	0x810b4b10	-2.5584123e-38
201	0x8022429c	-3.146302e-39
202	0x804514f6	-6.344169e-39
203	0x81a7ec61	-6.16853e-38
204	0x80d489a0	-1.9518496e-38
205	0x80f80367	-2.2776424e-38
206	0x81026f68	-2.395716e-38
207	0x8102f615	-2.4053784e-38
208	0x815312d2	-3.8768082e-38
209	0x81412730	-3.5476617e-38
210	0x816c1100	-4.335855e-38
211	0x8186b8b5	-4.948887e-38
212	0x80b8a90f	-1.6958378e-38
213	0x805e385b	-8.652753e-39
214	0x81b2e353	-6.571307e-38
215	0x809ed47a	-1.458623e-38
216	0x8008cecd	-8.0887e-40
217	0x8190def4	-5.321717e-38
218	0x81019b3e	-2.380494e-38
219	0x819f6b04	-5.8560935e-38
220	0x0045c976	6.40892e-39
221	0x8124f5de	-3.0298444e-38
222	0x00b4a630	1.6590006e-38
223	0x811eb266	-2.914801e-38
224	0x807a8a77	-1.1253602e-38
225	0x80a308e3	-1.4972374e-38
226	0x808e8bc4	-1.3090779e-38
227	0x81253d9a	-3.034991e-38
228	0x81a070c0	-5.8936506e-38
229	0x81571545	-3.9504523e-38
230	0x806e102d	-1.0107707e-38
231	0x015449a0	3.8991074e-38
232	0x812de03c	-3.1935962e-38
233	0x8187a804	-4.983226e-38
234	0x01a613b2	6.100703e-38
235	0x804b4024	-6.910672e-39
236	0x005c9706	8.503043e-39
237	0x81a6465a	-6.107972e-38
238	0x80dcbde5	-2.027193e-38
239	0x81a7d372	-6.164952e-38
240	0xbcdd4c37	-0.027013881
241	0x3e09a6f6	0.13442597
242	0x29db69d2	9.7439106e-14
243	0x3c2678d6	0.0101606455
244	0x3cc12af7	0.023580058
245	0x3e594d5a	0.21220914
246	0x3bea6ce6	0.007154095
247	0xbd42f371	-0.047595445
248	0x3e542f48	0.20721161
249	0x3e22f674	0.15914327
250	0xb893e001	-7.05123e-05
251	0xbdd51a2d	-0.10405383
252	0x3e48f851	0.19625975
253	0x3116f493	2.1966897e-09
254	0x3e36aae7	0.17838632
255	0xbcecf0d0	-0.028923422

linear4.bias f4 [30]
0	0x3db37869	0.08763201
1	0xbd3a2295	-0.045443136
2	0xbdef31bb	-0.11679407
3	0x807e41ca	-1.1594873e-38
4	0x3d98efd0	0.074676156
5	0x3d1fe1b8	0.03903362
6	0x3d94d57c	0.072672814
7	0x3cdffebf	0.027343152
8	0x3d2ee3c8	0.042697698
9	0xbd8c7ad4	-0.06859365
10	0x3d0cffe3	0.03442372
11	0x3c1eb388	0.009686358
12	0x8130f9c5	-3.2505295e-38
13	0x00a28b9e	1.4927436e-38
14	0x81076270	-2.486621e-38
15	0xbd12ec3f	-0.035869833
16	0x3ce0845f	0.02740687
17	0xba5fa7e4	-0.00085317926
18	0xbc2360ac	-0.009971779
19	0x3c8557e4	0.016277261
20	0x3de71168	0.11282617
21	0x3d68c81c	0.056831464
22	0x3b9ac312	0.004722961
23	0x0b04b9df	2.556211e-32
24	0xbd319972	-0.043359227
25	0x3d4684c0	0.048466444
26	0x01b03569	6.472883e-38
27	0x3e039091	0.12848116
28	0x3dcab7ba	0.09898324
29	0x3d6e46d8	0.05817303

linear5.weight f4 [90, 120]
0	0xbccbae08	-0.024863258
1	0x3b80f950	0.0039359704
2	0x3c58318e	0.0131954085
3	0x008e5047	1.3069439e-38
4	0xbcf28a1e	-0.029606875
5	0xbdaaf450	-0.0834738
6	0x3ba3e9e3	0.0050022467
7	0x3b89f322	0.004209892
8	0xbcaef44a	-0.02135672
9	0xbcf06580	-0.029345274
10	0xbcb489b8	-0.022038326
11	0x3cab46ad	0.020907724
12	0x01194cdd	2.8156809e-38
13	0x80f0c36c	-2.2110623e-38
14	0x80f7ac22	-2.2745117e-38
15	0x3b920ce9	0.0044571054
16	0x3c3f0698	0.011659287
17	0xbd244716	-0.040106855
18	0x3bb331cc	0.0054685827
19	0x3d806814	0.06269851
20	0x3d7280d0	0.059204876
21	0x3d3204d4	0.043461636
22	0xbd46087e	-0.048347943
23	0x879c842f	-2.3549962e-34
24	0x3c5f5290	0.013630524
25	0x3cd9f439	0.026605712
26	0x8065126c	-9.281994e-39
27	0x3ba3059d	0.0049750344
28	0xbcfc6745	-0.030810961
29	0xbce4ce25	-0.027930329
30	0x3cb7ec44	0.022451527
31	0x3d0c8a51	0.034311596
32	0x3cf12f06	0.029441368
33	0x00ff3d1f	2.3439978e-38
34	0xbd459dc2	-0.048246153
35	0xbd1b5777	-0.03792521
36	0xbc6a7393	-0.014309782
37	0x3cc4327c	0.023949854
38	0x3d87fb32	0.066397086
39	0x3c984328	0.01858671
40	0xbc81e58b	-0.015856525
41	0x3c0dcda1	0.008654983
42	0x01406f2a	3.5344587e-38
43	0x819b3fa4	-5.702933e-38
44	0x012d6a58	3.185138e-38
45	0xbd999811	-0.074997075
46	0x3c353c69	0.011061766
47	0xbd808951	-0.06276191
48	0x3d28b3c5	0.041187067
49	0xbc3d805c	-0.011566248
50	0x3b4110be	0.0029459442
51	0x3c5fbf9f	0.013656526
52	0xbd1e2058	-0.038605064
53	0x01916ba0	5.341902e-38
54	0xbcb2b2da	-0.021813799
55	0xbd722d4a	-0.059125222
56	0x8123a542	-3.0056938e-38
57	0x3d465f34	0.048430637
58	0xbc4ad5c0	-0.0123800635
59	0xbc21fb21	-0.009886534
60	0xbd9a6572	-0.075388804
61	0x3b19ade1	0.0023449587
62	0x3d6f1901	0.058373455
63	0x818f780c	-5.270216e-38
64	0xbd35ad02	-0.044354446
65	0xbd7f3e0c	-0.062315032
66	0x3d82a6c6	0.06379466
67	0x3d71f11b	0.059067827
68	0xbc7a5d6b	-0.015281062
69	0xbcd216bb	-0.025645604
70	0xbd46c513	-0.04852779
71	0x3d8fab01	0.07015038
72	0x815b93aa	-4.032989e-38
73	0x81675659	-4.248995e-38
74	0x80f47658	-2.2450315e-38
75	0xbcec9e16	-0.028883975
76	0xbc6993b9	-0.014256411
77	0xbccb8a05	-0.024846086
78	0x3d84f62c	0.06492266
79	0x3cf52acc	0.029927634
80	0x3df7eab6	0.121053144
81	0x3dd3fcd7	0.1035096
82	0xbd95f6a6	-0.07322435
83	0x80d91721	-1.99366e-38
84	0xbd4f27a9	-0.050574932
85	0x3da0dbe4	0.07854441
86	0x8178d1d6	-4.5700956e-38
87	0xbd1c79ee	-0.03820222
88	0x3db1b423	0.086769365
89	0xbcfe192c	-0.031017862
90	0xbc0abb6f	-0.008467539
91	0x3da4ff1a	0.08056469
92	0x3d41b785	0.04729416
93	0x019f1901	5.8443254e-38
94	0xbd719abd	-0.05898546
95	0x3915fbcf	0.00014303553
96	0x3d5a12c5	0.053240556
97	0x3d985ffc	0.074401826
98	0x3c260296	0.0101324525
99	0x3bb3ad12	0.005483278
100	0xbbc46df3	-0.0059945523
101	0x3db3baad	0.0877584
102	0x008f061e	1.313467e-38
103	0x802ccf74	-4.115182e-39
104	0x0128a854	3.0977496e-38
105	0xbd66c6cd	-0.056341935
106	0x3b11e50d	0.002226177
107	0xbd002341	-0.03128362
108	0x3d3b3b87	0.045711067
109	0x3daf8107	0.08569532
110	0x3dc83310	0.097753644
111	0x3d3abf21	0.04559243
112	0xbceb86fc	-0.028750889
113	0x843d5b3e	-2.225874e-36
114	0xbd06b742	-0.032889612
115	0x3d640b98	0.05567512
116	0x0119c9ad	2.8246357e-38
117	0xbd3c736f	-0.046008524
118	0x3c2c92f2	0.010533081
119	0xbd3dfba1	-0.04638255
120	0xbd01989a	-0.031639673
121	0xbd1a42c3	-0.037661325
122	0xbcf2ac91	-0.029623302
123	0x0112485e	2.6867886e-38
124	0xbc5d3dee	-0.013503535
125	0xbcee07b8	-0.029056415
126	0x3c9cd4fa	0.019144524
127	0x3ba10359	0.004913729
128	0xbd3bd1aa	-0.045854248
129	0xbcc1e87c	-0.023670428
130	0x3d01a458	0.03165087
131	0xbcb56678	-0.022143587
132	0x013d5422	3.477418e-38
133	0x001a6f4a	2.427646e-39
134	0x80dc79b2	-2.0247465e-38
135	0x3d1d3e40	0.038389444
136	0x3d730c6b	0.059338015
137	0x3c16873e	0.009187518
138	0xb8376ce8	-4.3732027e-05
139	0x3c413667	0.011792756
140	0x3cf03dd9	0.029326366
141	0x3d0b99e5	0.034082312
142	0x3c844500	0.016146183
143	0x894a4b68	-2.4350321e-33
144	0x3bbc79e6	0.005751836
145	0x3d217123	0.039414536
146	0x8109c204	-2.5302125e-38
147	0xbdd3d9ac	-0.10344252
148	0x3cc4ad48	0.024008408
149	0x3b1231d8	0.0022307541
150	0x3d5db8c5	0.054131288
151	0x3de404b9	0.11133713
152	0x3d5fe554	0.054662064
153	0x80366e7c	-4.998751e-39
154	0xbd42ee50	-0.047590554
155	0x3ce91a94	0.028455056
156	0x3da76f91	0.081755765
157	0x3dee7ca3	0.11644866
158	0x3cdc754b	0.026911398
159	0x3daa1753	0.0830523
160	0xbd2ac5c7	-0.04169252
161	0x3dfd2454	0.12360445
162	0x801e8702	-2.803497e-39
163	0x815a9b51	-4.015171e-38
164	0x00f20b6a	2.2228285e-38
165	0xbd0382e9	-0.032107268
166	0x3d7f3622	0.062307484
167	0xbbbfe76f	-0.0058564465
168	0x3dce7b35	0.100820936
169	0x3da988f4	0.08278075
170	0x3dbc7f3f	0.09203958
171	0x3de32ba4	0.11092308
172	0x3c4ea83f	0.012613355
173	0x80a5b48c	-1.5217625e-38
174	0x3d3828a2	0.044960625
175	0x3dc8cb66	0.0980442
176	0x01194c0d	2.8156226e-38
177	0x3d9d08c7	0.0766769
178	0x3d840b36	0.06447451
179	0xbc83ba09	-0.01607992
180	0x3d5fac97	0.054607954
181	0xbc1c2479	-0.00953018
182	0x3d00daa4	0.031458512
183	0x014d5c80	3.771892e-38
184	0x3d981e9d	0.07427714
185	0x3da6deeb	0.08147987
186	0xbce7a5dd	-0.028277332
187	0xbce0e2de	-0.027451929
188	0x3d48271c	0.048865423
189	0x3d0a4f79	0.033767197
190	0x3da904d4	0.08252874
191	0xbaaed0ed	-0.0013337411
192	0x0198d1fd	5.61373e-38
193	0x81530a22	-3.876185e-38
194	0x00c849ba	1.8393547e-38
195	0x3cbf5787	0.023357166
196	0x3c98f22f	0.01867017
197	0x3d71bd39	0.059018347
198	0x3d0e0bc5	0.034679193
199	0xbcfccbd2	-0.030858908
200	0x3c503de4	0.012710068
201	0x3c5fc5e6	0.0136580225
202	0x3d805933	0.062670134
203	0x037a0930	7.3478944e-37
204	0x3d5e397e	0.054254048
205	0xbc5c8d95	-0.01346149
206	0x00a11204	1.4791978e-38
207	0x3c439f87	0.01193989
208	0x3c80df37	0.015731437
209	0x3d0f491a	0.034981824
210	0x3da15730	0.07877958
211	0x3cf5df29	0.030013638
212	0xbd604aa6	-0.05475869
213	0x018f138a	5.255794e-38
214	0x3d99365f	0.074810736
215	0x3d926610	0.07148373
216	0xb84defcb	-4.9099133e-05
217	0x3ba52714	0.005040059
218	0x3da6f87f	0.081528656
219	0x3cba126c	0.022713862
220	0x3d11e1ec	0.035615847
221	0xbb937e2d	-0.0045011253
222	0x01419f9b	3.5563013e-38
223	0x8136095c	-3.3434836e-38
224	0x00bb7147	1.7213874e-38
225	0x3cc78934	0.024357416
226	0x3aaa3743	0.001298644
227	0x3d6b9084	0.057510868
228	0xbca5e10e	-0.020248916
229	0xbd1bcb89	-0.038035903
230	0xbb1abc42	-0.0023610746
231	0xbd46ab16	-0.048503004
232	0x3cb26937	0.021778686
233	0x04002a96	1.5065882e-36
234	0x3d9eb6c8	0.077497065
235	0xbd1c2839	-0.038124297
236	0x01179f02	2.7848402e-38
237	0x3dd72887	0.10505777
238	0x3b966d68	0.004590679
239	0x3d437257	0.047716465
240	0xb9577567	-0.00020547734
241	0xb94683b0	-0.00018931809
242	0xb767dbd7	-1.3819858e-05
243	0x80808f63	-1.1806381e-38
244	0xb80b0a0f	-3.314955e-05
245	0xb86ecedb	-5.693627e-05
246	0xb9402eef	-0.00018328031
247	0xb9890eb3	-0.00026141628
248	0xb9a9347b	-0.00032273293
249	0xb768499e	-1.3845418e-05
250	0xb86481d4	-5.4480348e-05
251	0xb978b35e	-0.00023717943
252	0x00f66760	2.2628616e-38
253	0x0179ed34	4.5904262e-38
254	0x00ced2ff	1.8993803e-38
255	0xb917b589	-0.0001446811

linear5.bias f4 [90]
0	0x3bdd8d64	0.00676124
1	0xba7db189	-0.0009677639
2	0xb48ffb32	-2.6818594e-07
3	0x01002b12	2.3540788e-38
4	0xbd2eb906	-0.04265692
5	0x3d27e8ba	0.04099343
6	0x3cc11596	0.023569863
7	0xbb8f2c07	-0.004369262
8	0x3ca4f127	0.020134522
9	0xbab731a8	-0.0013976591
10	0x3c9a3f77	0.01882909
11	0x3cf2b497	0.029627128
12	0x3d0ae2cc	0.033907697
13	0x3dd6c8c5	0.104875125
14	0x3c3a7926	0.011381423
15	0x3b44b765	0.0030016538
16	0x3d23873c	0.03992389
17	0x3d0f1589	0.034932647
18	0x3d0cd6a1	0.034384374
19	0xbc02b49c	-0.007977631
20	0x3c2e0f2b	0.0106237335
21	0x3c127bf4	0.008940686
22	0x3c0be399	0.00853815
23	0x3c64a150	0.0139544755
24	0xbcbac073	-0.022796845
25	0xbb3ff89b	-0.0029292468
26	0x3de98b14	0.1140348
27	0xbb859fe2	-0.0040778974
28	0xbbce5966	-0.006297278
29	0x3d106f12	0.035262175
30	0x3bb5a048	0.0055427887
31	0xbb36b2e3	-0.002787762
32	0x3c01e272	0.007927524
33	0xbcab8f59	-0.020942377
34	0x3cdbc0c8	0.026825324
35	0xbd3d02aa	-0.04614512
36	0x3c362e75	0.011119475
37	0x3c8497fc	0.016185753
38	0xbd1f96e3	-0.038962256
39	0x3c0e40c0	0.00868243
40	0xbc835622	-0.016032282
41	0x3d28465d	0.04108273
42	0xbba7bca4	-0.0051189233
43	0x3ac80035	0.0015258851
44	0x3c2fd8f1	0.010732875
45	0xbb809cea	-0.0039249556
46	0x3cbf20b5	0.023331026
47	0xbc26167f	-0.010137199
48	0x3d223fe4	0.039611712
49	0x3d0c6dcc	0.034284398
50	0x3bb58b92	0.0055403197
51	0x3c83bf3b	0.016082397
52	0xbd14fef2	-0.036375947
53	0xbd7fdfce	-0.062469296
54	0x3df4a4bb	0.11945482
55	0x3d2c1122	0.042008527
56	0x3e04b06b	0.12957923
57	0x3cffbf5e	0.03121918
58	0xbc33d8a6	-0.010976946
59	0x3d54377d	0.05181073
60	0xbc55f098	-0.01305785
61	0xbb986576	-0.004650767
62	0x3d9642a3	0.07336929
63	0x3bf7bb3e	0.007560163
64	0xbcd2c3c9	-0.025728123
65	0xb990834c	-0.00027563644
66	0x3cae756f	0.021296231
67	0x3ae02b52	0.0017102754
68	0x3c3452e2	0.011006089
69	0x3db15de6	0.08660488
70	0xbc0b1221	-0.008488209
71	0x3cb32952	0.021870289
72	0x3d023973	0.03179307
73	0x3ca9b1d1	0.020714672
74	0xb9bce386	-0.00036027672
75	0xbb31587a	-0.0027060793
76	0x3c505fd2	0.012718158
77	0xbb45fb86	-0.0030209734
78	0x3c7f070e	0.015565647
79	0xb7333f44	-1.0683962e-05
80	0xbb9b9eab	-0.0047491393
81	0x3c0f2cfc	0.008738752
82	0xbb887d13	-0.0041653006
83	0x3c05effd	0.008174893
84	0x818a2ff9	-5.076203e-38
85	0x3c422c04	0.011851314
86	0x3d70b3ba	0.05876515
87	0xb87fac34	-6.0957114e-05
88	0x3ca22594	0.01979331
89	0x3ba1f79a	0.0049428465
