HW1/results/Model 4 - Split image-16, lr=0.0001, wd=1e-05, bs=32.pkl (torch_old, 694999 bytes, 36 tensors)

linear1.weight f4 [36, 49]
-0.046418663 -0.11880465 -0.11158241 -0.05705188 -0.15216649 -0.32595462 0.03172704 -0.0017241358
0.2052725 -0.13320287 -0.09607038 -0.2891475 -0.07459769 0.14764489 -0.10675228 -0.082155645
-0.024563733 -0.25598115 -0.27598903 -0.16716774 0.17287223 -0.18365863 -0.07046704 -0.062446404
-0.14990482 -0.26112288 -0.1580498 0.1670389 0.0003627587 -0.17492707 0.023298329 -0.26302308
-0.37180987 0.05811217 -0.027298184 0.10689707 -0.10710889 0.08379575 -0.16848153 -0.104895346
0.08414887 0.23901524 -0.16439396 -0.13651937 -0.13186437 -0.132858 0.10717266 0.11000187
0.29386193 0.08670823 0.18315122 0.1428191 0.06840542 -0.020662213 -0.063180126 -0.24747233
0.22170177 0.04263353 0.017909104 0.018541133 -0.22727023 -0.060215022 -0.15595962 0.08931166
-0.14587316 -0.21533915 -0.21437494 -0.06326213 -0.17322282 -0.20394544 0.058503818 -0.17527369
-0.24493341 -0.15126523 -0.1330186 -0.034526955 -0.40945777 0.0949845 -0.21609527 -0.19723995
-0.1632086 -0.23542662 -0.2731891 -0.13116333 0.21932255 0.067758664 -0.11500566 0.007086049
0.16282013 -0.04421049 0.12405092 0.20917678 0.025171986 0.058023013 0.04966416 0.25290775
-0.0055877995 -0.075993896 -0.08361825 -0.15156111 0.13549915 -0.068815395 0.03246396 0.07152938
0.2852886 -0.22979805 0.11853454 -0.06053811 0.12897536 0.30291963 0.24175933 0.33189362
-0.06281488 0.08127747 0.06468173 0.19102643 0.29618895 0.28575003 0.23460585 0.03170599
0.08090475 0.05499389 0.18838419 0.18742739 0.25505385 0.023987694 0.11066429 0.21923822
0.16238031 0.12318366 0.021060972 0.05283951 -0.041734565 0.13511407 0.14600198 0.058059353
0.12660454 0.17078248 -0.11097918 0.012381487 0.061100427 0.09081698 -0.19817537 -0.028390672
0.09762308 -0.11004731 -0.24972174 0.16370352 0.22022618 0.1944758 0.043089934 0.14684796
0.015994037 -0.101281166 0.1841372 0.15484813 -0.0068981647 0.016689572 0.2370453 0.12702228
-0.07113488 0.050078858 0.18954776 -0.0004405673 -0.07909738 0.25717208 0.24218936 -0.0075832964
-0.1209127 -0.040761314 0.24826272 0.15838087 0.2312537 0.01256589 0.046490137 -0.2053764
-0.18596219 -0.12145806 0.07074719 0.09683132 0.1996851 -0.19280554 -0.19424649 -0.07565872
0.042628985 0.10419372 0.16855827 0.1205578 -0.15862702 -0.24105456 -0.21352357 -0.055848163
0.05517811 0.1391524 0.13368502 0.0018284081 -0.07968664 -0.18196064 -0.22958472 -0.25431255
-0.22414973 -0.22701913 -0.10508298 0.31977308 0.17922305 0.0043058847 0.06363275 0.16180825
0.09572504 0.027601061 0.1885101 0.29609075 0.29160205 0.087132476 0.07396425 0.07576936
0.12996952 0.15910152 0.14147091 0.22456282 0.24477975 0.21431822 0.1854229 0.36308035
-0.01806669 -0.06702256 0.0077676116 0.096683316 0.059122175 0.12479136 0.099425405 -0.17654036
-0.3558878 -0.23284118 -0.17734215 -0.23090474 -0.17847455 -0.10762325 -0.1685734 -0.2570425
-0.050289363 -0.27795807 -0.07672307 -0.15175349 0.043122325 0.028968578 0.20061293 0.16862799
-0.11240916 -0.060654335 -0.13767947 -0.17719865 0.042608395 0.11396228 0.2279855 0.09479724
00000000: 7f21 3ebd da4f f3bd 5285 e4bd 3baf 69bd
00000010: 88d1 1bbe 86e3 a6be 36f4 013d 66fc e1ba
00000020: f432 523e 5566 08be 8cc0 c4bd 240b 94be
00000030: acc6 98bd 3930 173e f0a0 dabd 3841 a8bd
00000040: e239 c9bc f60f 83be 6f4e 8dbe 052e 2bbe
00000050: 6b05 313e 0211 3cbe 0651 90bd cdc7 7fbd
00000060: a680 19be e6b1 85be cfd7 21be 3f0c 2b3e
00000070: a630 be39 1520 33be 23dc be3c f6aa 86be
00000080: dd5d bebe 0707 6e3d 71a0 dfbc daec da3d
00000090: e85b dbbd 1b9d ab3d 6c86 2cbe 5fd3 d6bd
000000a0: 3e56 ac3d 69c0 743e e456 28be bccb 0bbe
000000b0: 7407 07be ed0b 08be 577d db3d a948 e13d
000000c0: 1275 963e 1694 b13d fe8b 3b3e 2c3f 123e
000000d0: 2418 8c3d cd43 a9bc 9564 81bd 6369 7dbe
000000e0: ca05 633e 7fa0 2e3d 1db6 923c 93e3 973c
000000f0: 87b9 68be 07a4 76bd e1b3 1fbe 08e9 b63d
00000100: c65f 15be de81 5cbe 1b85 5bbe 938f 81bd
00000110: 5361 31be 13d7 50be b3a1 6f3d f27a 33be
00000120: d3cf 7abe 46e5 1abe 0736 08be 236c 0dbd
00000130: 73a4 d1be 3c87 c23d 1448 5dbe 45f9 49be
00000140: 2820 27be ad13 71be 71df 8bbe ae4f 06be
00000150: 1796 603e 0ec5 8a3d 1688 ebbd 1632 e83b
00000160: 52ba 263e 0f16 35bd 690e fe3d 7032 563e
00000170: 7b35 ce3c 8aa9 6d3d a56c 4b3d 207d 813e
00000180: dc19 b7bb b0a2 9bbd 0c40 abbd d632 1bbe
00000190: 4ac0 0a3e 16ef 8cbd eef8 043d ff7d 923d
000001a0: 5911 923e 2e50 6bbe 3dc2 f23d cff6 77bd
000001b0: 1e12 043e 4818 9b3e c28f 773e f6ed a93e
000001c0: 16a5 80bd cd74 a63d db77 843d 6f9c 433e
000001d0: 14a6 973e d44d 923e 843c 703e 24de 013d
000001e0: 64b1 a53d 4641 613d c9e7 403e f7ec 3f3e
000001f0: 6b96 823e d781 c43c f6a3 e23d fc7f 603e
00000200: 0647 263e b747 fc3d 0f88 ac3c 3e6e 583d
00000210: ddf1 2abd 585b 0a3e 8b81 153e a5cf 6d3d
00000220: 9fa4 013e 9ae1 2e3e 0d49 e3bd b8db 4a3c
00000230: 7144 7a3d 41fe b93d 7cee 4abe 8e93 e8bc
00000240: 9cee c73d 7c60 e1bd 0eb7 7fbe e5a1 273e
00000250: f982 613e aa24 473e 127f 303d 505f 163e
00000260: ed05 833c 806c cfbd 768e 3c3e 8290 1e3e
00000270: 000a e2bb 92b8 883c 01bc 723e 2112 023e
00000280: 2aaf 91bd 7d1f 4d3d cf18 423e f1fb e6b9
00000290: cffd a1bd 0fac 833e 7d00 783e 4d7d f8bb
000002a0: 14a1 f7bd 56f5 26bd 9538 7e3e 982e 223e
000002b0: c5cd 6c3e 2ae1 4d3c 716c 3e3d 314e 52be
000002c0: df6c 3ebe 01bf f8bd e7e3 903d 804f c63d
000002d0: 407a 4c3e d16e 45be 8de8 46be f6f2 9abd
000002e0: bb9b 2e3d 8463 d53d 8a9a 2c3e 02e7 f63d
000002f0: 1f6f 22be 02d7 76be eca5 5abe 0bc1 64bd
00000300: 7102 623d f77d 0e3e bae4 083e 32a7 ef3a
00000310: c032 a3bd e453 3abe 4218 6bbe 4135 82be
00000320: 8287 65be b477 68be bf35 d7bd 4cb9 a33e
00000330: 3f86 373e 6118 8d3b e351 823d 10b1 253e
00000340: 7d0b c43d 9f1b e23c cb08 413e 3599 973e
00000350: dd4c 953e 8372 b23d 927a 973d f72c 9b3d
00000360: bb16 053e 82eb 223e c0dd 103e ccf3 653e
00000370: 8ba7 7a3e 3c76 5b3e 80df 3d3e abe5 b93e
00000380: 9800 94bc 2043 89bd 7387 fe3b e701 c63d
00000390: 182a 723d 9d92 ff3d 8c9f cb3d ffc6 34be
000003a0: ed36 b6be eb6d 6ebe 2e99 35be 4b72 6cbe
000003b0: 08c2 36be 9469 dcbd 819e 2cbe 139b 83be
000003c0: 38fc 4dbd 8550 8ebe fc20 9dbd 4465 1bbe
000003d0: 09a1 303d 834f ed3c 7a6d 4d3e d1ac 2c3e
000003e0: c636 e6bd ae70 78bd d9fb 0cbe 9073 35be
000003f0: 2486 2e3d 0e65 e93d 0875 693e 0e25 c23d

linear1.bias f4 [36]
-0.19484703 0.0078116558 0.43586656 0.3397232 0.06649952 0.35896206 0.10598649 0.048932258
0.20344357 0.13491164 0.30830392 0.2263922 0.07575166 -0.10869158 0.17093328 0.021247659
0.014269681 0.2581762 0.19384985 0.22887723 0.23558013 0.37737268 -0.02219244 -0.1608629
0.21757655 0.011936779 -0.05178855 -0.15746345 0.3818591 0.12645423 0.38782123 0.2637795
-0.03622401 0.09824119 0.3488665 0.29928073
00000000: fb85 47be ebf8 ff3b e729 df3e 33f0 ad3e
00000010: e630 883d e0c9 b73e 720f d93d 316d 483d
00000020: 8353 503e 4726 0a3e 03da 9d3e 5bd3 673e
00000030: b023 9b3d b199 debd 2209 2f3e 920f ae3c
00000040: 61cb 693c ac2f 843e 9380 463e cb5e 6a3e
00000050: eb3b 713e fe36 c13e eccc b5bc 3eb9 24be
00000060: 63cc 5e3e 7b92 433c 3b20 54bd 193e 21be
00000070: 0983 c33e 387d 013e 8190 c63e 1b0e 873e
00000080: a15f 14bd ad32 c93d a19e b23e 533b 993e

linear2.weight f4 [18, 36]
0.1313368 0.13083467 0.05126348 0.12744868 -0.09811104 -0.0076242606 0.007889404 0.087232895
0.095942646 -0.007983618 0.19975862 -0.29452196 -0.070083834 7.46269e-05 -0.20924474 0.075204924
-0.025837319 0.057723194 -0.105819084 -0.003165084 0.31447303 0.26561108 0.15832894 -0.32440683
0.16378205 -0.21115065 -0.19432941 0.27953792 -0.24847679 -0.2839795 0.3638171 -0.08886729
0.26037082 0.1839744 -0.07636135 -0.041507214 -0.023312736 -0.06610559 -0.008268418 -0.10782898
0.13973944 0.14521188 -0.027037475 0.19875872 -0.25386202 -0.13096896 0.01519253 0.266277
-0.09589863 -0.18116198 0.1433423 -0.10530898 0.020323634 -0.13651495 0.13888007 0.24165142
0.19331196 0.14775844 -0.112987794 -0.15076895 0.3275355 0.22816253 0.22162211 0.19586745
0.049679033 0.30979434 0.13946594 -0.08696748 0.0058501973 0.07388718 0.39521912 -0.030514855
0.03761918 0.20502657 -0.07393247 0.27746546 0.3115281 0.28647387 -0.09481084 -0.1270944
0.18152954 -0.0015666157 0.11039359 -0.25892136 0.15421438 -0.01096227 0.2050783 0.08731925
-0.06635991 -0.01992377 0.02800231 0.019412963 0.16325004 -0.094522245 -0.49181446 0.09693343
0.1452215 0.114990935 0.011289782 0.26480472 -0.055934492 -0.33148703 0.18060355 -0.0014230337
0.119887315 0.24044636 0.122161254 0.19603887 0.08009354 -0.16406593 0.24239403 0.28947702
-0.27188763 -0.07603606 -0.07063498 0.15973446 0.10315757 0.08237636 0.36318392 0.103622116
0.11357835 0.31797096 -0.048114236 0.04533279 0.40795025 -0.01635442 -0.21465252 0.00034995523
-0.12650208 0.41993096 -0.03020952 0.03239564 -0.21921554 -0.39110428 -0.2133871 0.096744224
-0.001599682 -0.16973205 -0.029398773 0.37095514 0.075988546 -0.05230873 0.017223503 0.073649175
-0.2510637 -0.12959346 0.28752932 0.31201366 0.19485411 0.18083037 0.31144145 0.06011349
-0.11750939 -0.2596314 0.28587225 -0.18469845 0.07966048 -0.27620298 0.14355363 0.021251416
0.20187975 -0.21555753 0.25829133 -0.21537544 0.13076878 0.19706208 -0.39630342 -0.18262249
0.058647342 0.27976534 0.06527393 0.02967784 -0.119604245 -0.22267102 0.1503449 -0.036903784
0.14186475 -0.23032229 0.23798873 -0.09041718 -0.1311553 0.024406653 -0.036027 -0.1366157
-0.3617686 -0.029520707 -0.14453356 0.2772914 -0.037606224 0.080986336 0.09803662 -0.18283768
-0.049390584 0.56921816 -0.04406899 -0.3183262 0.30863467 0.42837796 -0.12433503 -0.043048654
0.2647921 -0.013484809 0.2348595 0.19825298 -0.08469267 -0.15934311 -0.2653004 0.035380743
0.2302088 0.16463439 0.1203062 0.1775334 0.3811801 -0.08981735 0.04731195 -0.05665308
-0.2122654 0.12858844 -0.049678877 0.03234889 0.38583353 0.09425468 0.2353288 -0.21927464
-0.1428113 0.19019859 0.051645134 0.17873156 0.09992018 -0.25011313 0.33852285 0.29784238
-0.069484785 -0.1284036 0.23617414 0.1217946 -0.10110014 0.12304393 -0.060747568 0.101722285
-0.15112819 0.33950362 0.29944366 -0.16698307 0.17944807 0.12820673 -0.11436615 -0.14435206
-0.12437992 -0.06408437 0.22233965 0.00023821655 -0.059166748 0.0050123534 0.19870012 0.17442867
00000000: 277d 063e 86f9 053e a8f9 513d e881 023e
00000010: 71ee c8bd efd4 f9bb 8f42 013c 29a7 b23d
00000020: 947d c43d b9cd 02bc 868d 4c3e 95cb 96be
00000030: 1d88 8fbd 0381 9c38 4144 56be 0a05 9a3d
00000040: c9a8 d3bc 286f 6c3d adb7 d8bd 4c6d 4fbb
00000050: 9c02 a13e 2dfe 873e fb20 223e a718 a6be
00000060: 7bb6 273e e037 58be 4afe 46be 981f 8f3e
00000070: b370 7ebe c365 91be 3c46 ba3e 0e00 b6bd
00000080: 534f 853e c963 3c3e 5763 9cbd 7803 2abd
00000090: 5afa bebc 5e62 87bd 4278 07bc 71d5 dcbd
000000a0: db17 0f3e 6cb2 143e b27d ddbc 6887 4b3e
000000b0: 34fa 81be ba1c 06be 17ea 783c 7555 883e
000000c0: 8066 c4bd 8782 39be 53c8 123e 3cac d7bd
000000d0: c07d a63c 93ca 0bbe 9436 0e3e 7873 773e
000000e0: 92f3 453e fd4d 173e 2566 e7bd 2d63 1abe
000000f0: bcb2 a73e 70a3 693e e8f0 623e 7a91 483e
00000100: 3e7c 4b3d 5d9d 9e3e 29d0 0e3e 021c b2bd
00000110: 03b3 bf3b 2952 973d 295a ca3e 4afa f9bc
00000120: 9216 1a3d 7cf2 513e e869 97bd f40f 8e3e
00000130: 9c80 9f3e b4ac 923e 302c c2bd 0925 02be
00000140: e1e2 393e e656 cdba 0916 e23d 5791 84be
00000150: 60ea 1d3e 189b 33bc 0c00 523e 6fd4 b23d
00000160: b4e7 87bd 2d37 a3bc 1a65 e53c ef07 9f3c
00000170: 052b 273e e194 c1bd 1bcf fbbe 0985 c63d
00000180: f2b4 143e 5e80 eb3d c7f8 383c 7c94 873e
00000190: 911b 65bd abb8 a9be 23f0 383e 1685 baba
000001a0: 7b87 f53d 9237 763e ae2f fa3d 6abe 483e
000001b0: 1508 a43d e600 28be 2436 783e 5536 943e
000001c0: db34 8bbe cbb8 9bbd 13a9 90bd 6e91 233e
000001d0: 4744 d33d f0b4 a83d 3ef3 b93e d537 d43d
000001e0: c49b e83d 17cd a23e 6f13 45bd e0ae 393d
000001f0: dbde d03e b4f9 85bc dfcd 5bbe 327a b739
00000200: c389 01be 3101 d73e f579 f7bc 4ab1 043d
00000210: 0a7a 60be d23e c8be 2682 5abe d621 c63d
00000220: 6cac d1ba 3dce 2dbe b2d5 f0bc d5ed bd3e
00000230: e29f 9b3d ae41 56bd 4e18 8d3c 61d5 963d
00000240: 6c8b 80be 26b4 04be 0b37 933e 41c0 9f3e
00000250: d687 473e 992b 393e 4175 9f3e 9039 763d
00000260: c3a8 f0bd 68ee 84be d95d 923e 9721 3dbe
00000270: 0925 a33d 7a6a 8dbe b9ff 123e 7317 ae3c
00000280: 91b9 4e3e 1dbb 5cbe c33e 843e 618b 5cbe
00000290: 40e8 053e a4ca 493e 48e8 cabe 6401 3bbe
000002a0: 3238 703d 673d 8f3e 57ae 853d f11e f33c
000002b0: 12f3 f4bd df03 64be 03f4 193e 6c28 17bd
000002c0: fe44 113e 9bd9 6bbe 51b3 733e a42c b9bd
000002d0: 934d 06be 76f0 c73c 0c91 13bd fce4 0bbe
000002e0: bc39 b9be 69d5 f1bc 9b00 14be 23f9 8d3e
000002f0: fc08 1abd 2adc a53d 6cc7 c83d cd39 3bbe
00000300: c84d 4abd 48b8 113f af81 34bd a7fb a2be
00000310: 5d05 9e3e 5b54 db3e 5da3 febd c953 30bd
00000320: d592 873e 63ef 5cbc 027f 703e d402 4b3e
00000330: 5a73 adbd d72a 23be 74d5 87be 66eb 103d
00000340: dbbb 6b3e eb95 283e 1963 f63d 51cb 353e
00000350: 0a2a c33e 29f2 b7bd 2dca 413d 0f0d 68bd
00000360: 1a5c 59be b0ac 033e 147c 4bbd 4580 043d
00000370: f98b c53e 9908 c13d 08fa 703e 8889 60be
00000380: 203d 12be 6bc3 423e d989 533d 6805 373e
00000390: f4a2 cc3d d40e 80be de52 ad3e cc7e 983e
000003a0: 0a4e 8ebd 3c7c 03be a2d7 713e 726f f93d
000003b0: 970d cfbd 75fe fb3d 71d2 78bd c653 d03d
000003c0: 59c1 1abe 6bd3 ad3e ae50 993e 9cfd 2abe
000003d0: 3cc1 373e a048 033e cd38 eabd 07d1 13be
000003e0: e6ba febd ab3e 83bd 01ad 633e c5c9 7939
000003f0: d558 72bd ab3e a43b 0b78 4b3e 6e9d 323e

linear2.bias f4 [18]
-0.009020985 0.24980627 0.118770264 0.030225545 0.23231363 0.041787468 -0.014728349 -0.08088717
0.0138318725 0.22723107 0.08990825 0.13679475 0.17285827 0.21351163 -0.013585149 -0.03446474
0.2390941 0.06254738
00000000: c1cc 13bc 37cd 7f3e d33d f33d 909b f73c
00000010: a0e3 6d3e 5629 2b3d 2c4f 71bc 2ca8 a5bd
00000020: 149f 623c 43af 683e d121 b83d ec13 0c3e
00000030: c201 313e cba2 5a3e 3f94 5ebc e62a 0dbd
00000040: 15d5 743e d718 803d

linear3.weight f4 [144, 288]
0.029725187 0.0016779162 -0.012758837 0.01266063 2.8058252e-16 0.0011649537 0.03334182 -0.009236087
0.019265188 0.048183918 0.026146974 0.021785386 0.0039760796 0.021054454 0.006040124 0.048257466
0.0015477022 0.029109234 -0.04107933 0.027328847 0.034005225 -0.01766963 0.024690043 -0.031895697
-0.012194571 0.021294313 -0.013457782 -0.0072340644 -0.007814982 0.0041774823 -0.049627613 -0.011243828
0.021601606 -0.0018844791 0.08726167 0.025367234 -0.053834252 0.059664503 0.023953449 0.033051137
0.05606892 -0.038740363 -0.060559124 -0.15640943 0.0021286337 -0.10882171 -0.04208704 0.047636844
-0.04832661 0.044163637 0.026612286 0.022052765 0.020591224 -0.030801166 0.050823662 -0.13468651
-0.10466249 0.084499724 -0.015872719 0.008294598 -0.017123362 -0.027553057 0.03370751 0.040285476
-0.0011067104 0.03256686 0.036837976 -0.02872208 -0.008577301 0.018776618 -0.009280761 0.037809238
-0.109303884 -0.07961636 -0.054491 -0.05469654 0.012678115 -0.046754345 0.09287435 0.06276253
0.058237538 -0.067693286 -0.0290267 -0.08599202 -0.023136452 -0.08690187 -0.0643442 -0.0032610619
-0.031514473 -0.06604553 0.024691666 0.010495281 0.0009982889 -0.008846337 0.09848024 -0.2077625
0.03979996 -0.07856078 0.045285527 0.034653313 0.022653554 -0.041370213 -0.08444031 -0.015629083
0.09996644 -0.083274245 0.0039341464 0.028722154 0.031358838 0.021688776 -0.0048418627 0.003472617
-0.031292666 -0.0627874 -0.012598203 -0.09966179 -0.034840103 -0.06089896 0.07584991 0.06709306
-0.04578313 0.042245023 0.116522536 -0.036627382 -0.009581091 -0.02091547 -0.0893103 0.018403247
-0.01954302 -0.0053350995 -0.016584761 -0.049201705 0.06462199 0.065939195 0.023709744 0.03681794
-0.015877865 0.18696886 -0.03514498 0.041125707 0.015892068 -0.021781577 0.06382522 0.020544961
0.09745111 0.0605436 0.14231913 -0.055585116 0.054596633 -0.007377985 -0.014803349 0.012379188
0.068890974 0.05180458 0.036649097 0.15189521 0.08616709 -0.009842484 0.056020003 -0.014173501
0.087995 -0.033981245 -0.071353815 0.1298481 0.06287079 -0.14326945 0.028041033 -0.055772174
0.16282189 0.0763892 -0.09581271 -0.055110946 0.02196303 0.14819913 -0.0603313 0.008055243
0.017649956 -0.07554216 0.046795193 0.07791647 0.021411706 -0.053011224 0.11626675 0.031949665
0.049480014 0.08236598 0.014157832 0.01050635 0.023143193 0.006263367 -0.14991584 -0.102920495
0.029899072 0.022166092 -0.011830353 0.04108151 -0.06564574 0.05182249 -0.021848982 -0.038227376
0.008924039 0.02563939 -0.17125559 -0.06441404 0.028273758 -0.013965255 0.033773236 -0.1243012
-0.025905676 -0.13694513 -0.03644234 0.011102759 0.093743786 0.04681996 -0.026425175 -0.02816219
-0.012578335 -0.055328965 -0.17431745 0.0016544902 0.017761579 0.00067205325 0.04403697 0.094772875
-0.102538794 0.016485121 0.061041903 -0.06103486 0.0073740683 -0.010039368 -0.13930245 0.008680578
-0.04216028 0.053799786 0.11343911 -0.060571603 -0.003270722 0.10315402 -0.044136763 -0.015143567
-0.0044265124 0.01250587 -0.040471327 0.012655925 0.021588959 -0.086067595 -0.057609223 -0.050694827
-0.08461351 0.04873793 0.014912159 -0.0062892865 -0.01544403 -0.03188801 0.0011101522 -0.09304801
00000000: 3c82 f33c 86ed db3a 710a 51bc 886e 4f3c
00000010: acbe a125 5cb1 983a 6f91 083d f552 17bc
00000020: 07d2 9d3c 805c 453d 2e32 d63c 4477 b23c
00000030: c649 823b 647a ac3c 3cec c53b 9fa9 453d
00000040: 45dc ca3a 7d76 ee3c cd42 28bd bfe0 df3c
00000050: 1049 0b3d e6bf 90bc c642 ca3c 10a5 02bd
00000060: bdcb 47bc 6971 ae3c 077e 5cbc bb0b edbb
00000070: 690a 00bc 43e3 883b 5346 4bbd 0838 38bc
00000080: daf5 b03c a000 f7ba 3fb6 b23d f2ce cf3c
00000090: 4e81 5cbd c462 743d 063a c43c a160 073d
000000a0: 86a8 653d 37ae 1ebd d80c 78bd cb29 20be
000000b0: 8c80 0b3b ebdd debd 7663 2cbd da1e 433d
000000c0: 20f2 45bd eee4 343d 0202 da3c 00a8 b43c
000000d0: edae a83c ba52 fcbc 792c 503d 43eb 09be
000000e0: 4a59 d6bd 310e ad3d 8107 82bc 11e6 073c
000000f0: 4b46 8cbc f3b6 e1bc e310 0a3d 6202 253d
00000100: 0a0f 91ba d464 053d 6be3 163d 914a ebbc
00000110: cf87 0cbc 6cd1 993c 550e 18bc dcdd 1a3d
00000120: b7da dfbd e70d a3bd f431 5fbd 7b09 60bd
00000130: deb7 4f3c 7c81 3fbd e834 be3d a489 803d
00000140: 7c8a 6e3d c7a2 8abd 67c9 edbc 961c b0bd
00000150: a888 bdbc 9cf9 b1bd e4c6 83bd 8ab7 55bb
00000160: 5215 01bd e142 87bd 2d46 ca3c 66f4 2b3c
00000170: 04d9 823a 3af0 10bc 02b0 c93d b1bf 54be
00000180: 4805 233d 79e4 a0bd 517d 393d a2f0 0d3d
00000190: f293 b93c d073 29bd 0bef acbd 9008 80bc
000001a0: 34bb cc3d b08b aabd 03ea 803b b94a eb3c
000001b0: 2072 003d a9ac b13c 7da8 9ebb d894 633b
000001c0: bd2c 00bd ae96 80bd b168 4ebc 7b1b ccbd
000001d0: 7fb4 0ebd 3071 79bd 3357 9b3d 1668 893d
000001e0: 1787 3bbd 1e09 2d3d 5ea3 ee3d 9806 16bd
000001f0: 02fa 1cbc eb56 abbc 52e8 b6bd 68c2 963c
00000200: af18 a0bc 0fd2 aebb c4dc 87bc ba87 49bd
00000210: 8958 843d 210b 873d f03a c23c 69ce 163d
00000220: 4c12 82bc c474 3f3e 2ff4 0fbd 6e73 283d
00000230: 1530 823c 476f b2bc ccb6 823d e84d a83c
00000240: 7394 c73d 91fc 773d 1bbc 113e 38ad 63bd
00000250: b8a0 5f3d 06c3 f1bb bf89 72bc 14d2 4a3c
00000260: b616 8d3d 0a31 543d 5d1d 163d 6b8a 1b3e
00000270: 5f78 b03d 5f42 21bc 3b75 653d f937 68bc
00000280: b936 b43d eb2f 0bbd f321 92bd e6f6 043e
00000290: 67c2 803d 3ab5 12be 4fb6 e53c 5d71 64bd
000002a0: c8ba 263e f171 9c3d 7439 c4bd 04bc 61bd
000002b0: d0eb b33c 83c1 173e f41d 77bd 23fa 033c
000002c0: a496 903c d9b5 9abd 51ac 3f3d ac92 9f3d
000002d0: 9a67 af3c 4c22 59bd 431d ee3d a7dd 023d
000002e0: 8eab 4a3d 7faf a83d 40f6 673c d322 2c3c
000002f0: cb96 bd3c ee3c cd3b 8a83 19be fbc7 d2bd
00000300: e6ee f43c aa95 b53c 19d4 41bc 1645 283d
00000310: 4671 86bd d243 543d a3fc b2bc 4f94 1cbd
00000320: 2236 123c b309 d23c a05d 2fbe 82eb 83bd
00000330: 5e9e e73c 86ce 64bc ce55 0a3d a191 febd
00000340: 2438 d4bc 583b 0cbe 9044 15bd 59e8 353c
00000350: befc bf3d 49c6 3f3d 9c79 d8bc 65b4 e6bc
00000360: 5c15 4ebc a0a0 62bd 4680 32be 7bdb d83a
00000370: bb80 913c bb2c 303a 1c60 343d 4818 c23d
00000380: dcff d1bd ce0b 873c 1307 7a3d b0ff 79bd
00000390: 2ba2 f13b 297c 24bc 4da5 0ebe fc38 0e3c
000003a0: 42b0 2cbd 2a5d 5c3d c452 e83d ee19 78bd
000003b0: 9c59 56bb 6a42 d33d c0c8 34bd b91c 78bc
000003c0: 470c 91bb 6ce5 4c3c 43c5 25bd cc5a 4f3c
000003d0: 54db b03c 3544 b0bd a6f7 6bbd 61a5 4fbd
000003e0: d949 adbd 6ca1 473d 2152 743c 5c16 cebb
000003f0: f508 7dbc 019d 02bd 8782 913a f48f bebd

linear3.bias f4 [144]
0.05085937 -2.9586491e-37 0.049066443 -0.036847897 0.036643125 0.008389 0.038818013 0.003498123
-0.05560055 -2.7420492e-37 0.046850283 0.020131707 0.008665617 0.043885242 0.015191213 -0.043362565
0.035485175 -0.007528648 -0.025154576 -0.0012869249 -0.023141365 -0.010471297 -0.019926459 0.06428622
0.004400929 -0.017941073 -0.030873759 -0.025226038 0.022556525 -0.008666731 0.021835834 -0.0016056058
0.03974428 -0.026882866 -0.027271653 0.0062165116 0.013323731 0.030375985 0.03160094 0.05319009
0.049364 0.048216395 -0.009697617 -0.053270724 0.04108974 0.018402522 0.033576332 0.06555451
0.011827156 -0.11515471 -0.004838657 0.0016118622 -0.019922411 0.033712037 0.065612696 -0.003238903
-3.024804e-37 0.0690088 0.018996298 -0.010832001 0.056395903 -0.030997949 -0.060579203 -0.030966215
0.029679526 0.015684843 -0.023737604 -0.04310568 -0.0013249333 0.05210276 0.006876594 0.010723137
0.0791081 0.048766192 0.05477077 -0.03201589 0.0042827222 -0.033258874 0.04480273 -0.002710396
-0.025744855 -0.020366224 -0.016015656 -0.03455621 0.029320374 -0.029620389 0.021114534 0.084233135
-0.00019192386 -0.0453182 -0.015378245 -0.0031272685 0.0014233041 -0.008372393 -0.0026240863 0.01078441
0.012167523 -0.017148834 -0.008623672 0.05013983 0.011200874 -0.009964479 0.07520081 0.032262225
0.038075466 0.061020833 -0.008805888 -0.016805539 -0.04204701 0.05145627 0.004364608 0.036345486
0.023784019 -0.028704073 -0.022667719 -0.01978578 0.013476969 -0.014875805 0.014711783 0.0013800177
0.038391028 0.0038714516 0.009128263 0.035009675 0.021201773 -1.8803473e-37 -0.030912021 -0.04691378
0.054537665 0.07084549 0.01282364 0.06365217 -0.011071845 -0.024978586 -0.027425747 -0.045786873
0.0006753284 -0.025504421 -0.0031103601 0.042954817 -0.0074271406 0.0461294 0.02304637 0.0933804
00000000: ea51 503d f05a c982 e5f9 483d d2ed 16bd
00000010: 1a17 163d 0472 093c a3ff 1e3d c440 653b
00000020: 67bd 63bd 3c9d ba82 15e6 3f3d 40eb a43c
00000030: 3bfa 0d3c 03c1 333d 91e4 783c f29c 31bd
00000040: e758 113d e0b2 f6bb f810 cebc 09ae a8ba
00000050: f692 bdbc ce8f 2bbc d03c a3bc 7ea8 833d
00000060: ab35 903b 28f9 92bc f7ea fcbc d6a6 cebc
00000070: 76c8 b83c e8fe 0dbc 10e1 b23c 3173 d2ba
00000080: e6ca 223d 7539 dcbc cd68 dfbc e1b3 cb3b
00000090: c74b 5a3c 0fd7 f83c fd6f 013d dadd 593d
000000a0: e831 4a3d 8e7e 453d c1e2 1ebc 6732 5abd
000000b0: b74d 283d e3c0 963c 5687 093d 7141 863d
000000c0: b0c6 413c 3cd6 ebbd 998d 9ebb 1f45 d33a
000000d0: 5334 a3bc a215 0a3d f35f 863d c643 54bb
000000e0: 85db cd82 7c54 8d3d 209e 9b3c b578 31bc
000000f0: 64ff 663d 69ef fdbc e621 78bd dcac fdbc
00000100: 7a22 f33c 807d 803c 5d75 c2bc 958f 30bd
00000110: 62a9 adba b469 553d 0d55 e13b 19b0 2f3c
00000120: 6d03 a23d 0fbf 473d 5157 603d 1823 03bd
00000130: 1456 8c3b 753a 08bd 1183 373d e6a0 31bb
00000140: e0e6 d2bc 11d7 a6bc 4433 83bc d08a 0dbd
00000150: 4831 f03c 75a6 f2bc 63f8 ac3c 6c82 ac3d
00000160: 2b3f 49b9 949f 39bd 09f5 7bbc dcf2 4cbb
00000170: 298e ba3a 5d2c 09bc ddf8 2bbb 18b1 303c
00000180: 4a5a 473c b67b 8cbc 4d4a 0dbc 6c5f 4d3d
00000190: df83 373c 0e42 23bc e202 9a3d 6525 043d
000001a0: 05f5 1b3d fbf0 793d 9246 10bc c5ab 89bc
000001b0: 7c39 2cbd cfc3 523d fc04 8f3b 01df 143d
000001c0: b4d6 c23c ce24 ebbc a7b1 b9bc ca15 a2bc
000001d0: 81ce 5c3c a6b9 73bc b109 713c b6e1 b43a
000001e0: e93f 1d3d 2eb8 7d3b b68e 153c 4e66 0f3d
000001f0: 57af ad3c 8af0 7f82 353b fdbc aa28 40bd
00000200: e362 5f3d 7117 913d 3f1a 523c 125c 823d
00000210: af66 35bc e49f ccbc f6ab e0bc 048b 3bbd
00000220: 8608 313a a6ee d0bc 2fd7 4bbb 64f1 2f3d
00000230: 5f5f f3bb 2ff2 3c3d becb bc3c 393e bf3d

linear4.weight f4 [72, 144]
0.10401558 1.5693176e-37 -0.07291161 0.22314842 -0.064656444 0.052867524 -0.10000028 0.05685034
-0.13466379 -2.804778e-37 -0.07722831 0.14513569 -0.19567484 -0.104945235 -0.13545348 0.0060698534
-0.11998584 0.06604798 -0.009211711 -0.0033814255 -0.021703886 -0.04715163 0.22157855 -0.20883872
-0.014809961 -0.015557347 0.14359696 -0.1637301 0.09459837 0.043233987 0.05513758 -0.15432855
-0.05513525 0.051230267 -0.12976912 -0.11548707 0.0986125 0.11407522 -0.13433895 0.12715982
-0.10871084 -0.0679792 0.17499833 0.18275431 -0.14598712 -0.0081655765 0.09927036 0.09678118
0.068074755 0.065434836 0.100723095 -0.021527566 0.06389317 0.005300917 -0.03220354 0.08000894
-2.782721e-37 0.23078862 0.009626231 0.03634777 0.11311372 0.01145376 -0.17623678 -0.020765318
-0.005413096 0.041934907 -0.024857739 0.1669177 0.113606066 0.09466921 0.11225414 -0.25931382
0.26085055 0.015405804 0.20805193 -0.072611965 0.046430904 -0.043973215 0.12216482 -0.12964918
0.10409055 0.11573803 -0.03498054 -0.053214327 0.19470018 0.23629104 -0.003393177 -0.042601205
-0.13941619 -0.048051223 -0.022341672 0.04163822 -0.14951697 0.2738055 -0.02387877 0.1306707
0.25299904 0.13040403 0.08723614 0.10787722 -0.49365777 -0.020296987 0.008713409 0.13352586
-0.015967606 -0.084984645 0.26320323 -0.13325465 -0.019908477 0.09340476 -0.17578302 0.049597673
0.17723414 -0.020984858 0.05480609 -0.1003901 -0.07385372 -0.059837773 -0.050455812 0.023503939
0.014414563 -0.023977555 0.1469383 0.08784564 0.13612767 4.6742442e-37 0.0059267688 0.005702113
0.25651136 0.0071379207 0.31610796 0.008553033 0.0357228 -0.055615872 0.040071547 -0.084315725
0.16778316 -0.102298 -0.08534624 0.048423562 -0.036399536 -0.017642435 0.1115975 0.026779134
-0.100297265 -8.464596e-38 0.039404634 0.21702063 0.16537698 -0.07416256 0.15862097 -0.062985234
-0.047973864 -2.8971888e-37 0.023563305 0.17699344 0.05400783 -0.033736292 0.026692716 -0.015968017
0.023377137 0.034807686 -0.084365055 0.03733946 0.06745434 0.03773882 -0.114456266 0.09908102
-0.03761987 -0.07840984 0.024673384 0.09167923 0.08035485 -0.0021119893 -0.078765854 -0.06789299
-0.117897145 -0.047483746 -0.093121246 -0.091140516 -0.028418245 0.021622771 -0.06466927 0.10639608
-0.0046521276 -0.032011032 0.010991703 -0.032380134 -0.049855854 0.03721827 -0.032341596 0.102972426
0.13344136 0.18469845 -0.015101417 0.049453486 -0.07503594 0.040038288 0.06391974 0.0046808245
-2.8634657e-37 0.028183188 -0.038431678 -0.021902002 0.018261246 -0.09546513 0.16297092 -0.013951184
0.09106135 0.06802146 0.19414252 -0.09642153 -0.0787396 -0.013804498 -0.017176509 -0.15596864
-0.016342051 0.098179124 0.014149657 0.106174245 -0.08867625 -0.11404339 0.07562851 0.018168202
0.083195664 -0.030576874 -0.081771016 -0.10825719 -0.12014545 -0.13415591 -0.018484203 -0.105812535
-0.0038583803 0.08797373 0.022773137 -0.017225467 0.08021273 -0.07157478 -0.03241464 0.041686352
-0.14147013 -0.11766511 -0.0071102125 0.106165834 0.014641285 0.0106114 0.03848668 0.19073918
0.017732494 -0.04746618 -0.04627785 0.09732361 0.28724635 -0.09311339 0.0867636 -0.041599903
00000000: 1f06 d53d bd9a 5502 af52 95bd 0581 643e
00000010: 996a 84bd 9e8b 583d f2cc ccbd e7db 683d
00000020: 4ee5 09be 20e2 be82 e029 9ebd 739e 143e
00000030: fc5e 48be 87ed d6bd 51b4 0abe 9fe5 c63b
00000040: 23bb f5bd 2a44 873d b7ec 16bc e89a 5dbb
00000050: 59cc b1bc 1122 41bd 7de5 623e d1d9 55be
00000060: 7ba5 72bc 3ee4 7ebc 150b 133e dda8 27be
00000070: cabc c13d 1f16 313d f1d7 613d 4e08 1ebe
00000080: 80d5 61bd d4d6 513d 32e2 04be 7c84 ecbd
00000090: 5af5 c93d 45a0 e93d 2690 09be 2f36 023e
000000a0: caa3 debd ae38 8bbd c332 333e f223 3b3e
000000b0: a67d 15be e9c8 05bc 424e cb3d 3635 c63d
000000c0: c76a 8b3d b302 863d e947 ce3d 945a b0bc
000000d0: 6cda 823d 51b3 ad3b dce7 03bd badb a33d
000000e0: d661 bd82 da53 6c3e 57b7 1d3c 66e1 143d
000000f0: 2ba8 e73d 8da8 3b3c 6a77 34be 071c aabc
00000100: 5760 b1bb f0c3 2b3d 75a2 cbbc 79ec 2a3e
00000110: 4caa e83d eee1 c13d 80e5 e53d c8c4 84be
00000120: 348e 853e a068 7c3c 910b 553e 95b5 94bd
00000130: 552e 3e3d 421d 34bd 8d31 fa3d c1c2 04be
00000140: 6d2d d53d 0f08 ed3d c147 0fbd 44f7 59bd
00000150: 7c5f 473e 47f6 713e 1060 5ebb 9a7e 2ebd
00000160: 1ec3 0ebe 5cd1 44bd e205 b7bc d78c 2a3d
00000170: fa1a 19be 3c30 8c3e 699d c3bc 8ace 053e
00000180: 1789 813e a288 053e dda8 b23d bbee dc3d
00000190: b6c0 fcbe de45 a6bc b0c2 0e3c 01bb 083e
000001a0: 7fce 82bc 6e0c aebd 93c2 863e e873 08be
000001b0: 1a17 a3bc ff4a bf3d 7700 34be ee26 4b3d
000001c0: de7c 353e 70e8 abbc 5a7c 603d 5399 cdbd
000001d0: 9f40 97bd 7418 75bd c1aa 4ebd 558b c03c
000001e0: 0f2b 6c3c 946c c4bc fe76 163e 6ae8 b33d
000001f0: 0d65 0b3e 690e 1f03 5735 c23b cad8 ba3b
00000200: 7555 833e 38e5 e93b e7d8 a13e 0522 0c3c
00000210: 1252 123d 78cd 63bd 1022 243d b9ad acbd
00000220: 59cf 2b3e 9d81 d1bd 02ca aebd c957 463d
00000230: ae17 15bd de86 90bc 3b8d e43d ea5f db3c
00000240: a768 cdbd a06d e681 c166 213d a83a 5e3e
00000250: 9558 293e 8ae2 97bd 896d 223e 67fe 80bd
00000260: 3e80 44bd 262c c582 d507 c13c c53d 353e
00000270: 5037 5d3d 112f 0abd afaa da3c 5ccf 82bc
00000280: 6981 bf3c 8192 0e3d 96c7 acbd 43f1 183d
00000290: 8025 8a3d 0594 1a3d 0c68 eabd fdea ca3d
000002a0: 4b17 1abd 5795 a0bd d61f ca3c 52c2 bb3d
000002b0: 1591 a43d 4d69 0abb fe4f a1bd 7b0b 8bbd
000002c0: 0f74 f1bd 517e 42bd 5ab6 bebd e1a7 babd
000002d0: 61cd e8bc 3d22 b13c 5271 84bd 30e6 d93d
000002e0: e070 98bb 001e 03bd 8b16 343c 08a1 04bd
000002f0: a735 4cbd 2f72 183d 9f78 04bd 35e3 d23d
00000300: daa4 083e 9721 3d3e ef6b 77bc bd8f 4a3d
00000310: 71ac 99bd 30ff 233d 5ae8 823d 9a61 993b
00000320: 9ce0 c282 6ee0 e63c 896a 1dbd d46b b3bc
00000330: 9c98 953c 3983 c3bd d9e1 263e 8293 64bc
00000340: 607e ba3d d64e 8b3d 4ccd 463e a778 c5bd
00000350: 3a42 a1bd 432c 62bc c0b5 8cbc 3eb6 1fbe
00000360: c4df 85bc 2312 c93d f7d3 673c e271 d93d
00000370: e59b b5bd 958f e9bd 1fe3 9a3d 7bd5 943c
00000380: 7d62 aa3d 5a7c fabc 9077 a7bd f2b5 ddbd
00000390: d10e f6bd 2b60 09be 2f6c 97bc 3eb4 d8bd
000003a0: e1dc 7cbb 922b b43d bb8e ba3c 6c1c 8dbc
000003b0: 9246 a43d cc95 92bd 37c5 04bd 4fbf 2a3d
000003c0: 8cdd 10be 68fa f0bd c9fc e8bb 796d d93d
000003d0: 00e2 6f3c 70db 2d3c 35a4 1d3d 2251 433e
000003e0: bc43 913c e66b 42bd d88d 3dbd 9a51 c73d
000003f0: f411 933e 3cb2 bebd 1db1 b13d a964 2abd

linear4.bias f4 [72]
-0.022506466 -0.0496876 0.0037403726 0.07135671 -0.029460859 -0.018728226 -0.07988536 0.023087827
0.0205326 0.077237085 0.051731426 0.0076121017 0.04313019 -0.015062157 0.064436615 -0.037973434
0.05159066 0.09114908 0.06366174 -0.057660844 -0.015641151 0.02142489 0.031941216 -0.054298725
-0.027150631 -0.039568007 -0.04053784 0.044715848 0.017575365 0.014110037 0.06000013 0.05169928
0.0055733346 2.1639604e-37 -0.010985309 -2.7845724e-37 0.080865115 0.09832037 -0.0039613196 -0.009701267
-0.019425228 -2.6496877e-37 -0.031130446 0.0069115274 0.010811902 0.023388518 0.043546446 0.05481728
0.038001806 -0.00037988747 0.033366796 -0.008815566 0.020043964 0.07923732 -0.027219748 -0.103077814
1.5342133e-37 0.043347504 0.025769884 -0.017763434 -0.010503094 -2.9466112e-37 -2.4664445e-37 0.04391646
0.030181998 0.09857897 -2.7695083e-37 1.0810182e-38 -2.6937272e-37 0.09853419 0.043170907 0.07036332
00000000: 7b5f b8bc 3a85 4bbd 0a21 753b 7723 923d
00000010: e657 f1bc f06b 99bc f09a a3bd af22 bd3c
00000020: fc33 a83c 7a2e 9e3d 55e4 533d f06e f93b
00000030: 48a9 303d 44c7 76bc 58f7 833d 088a 1bbd
00000040: ba50 533d 5eac ba3d 1661 823d c72d 6cbd
00000050: df21 80bc 4083 af3c cbd4 023d 5768 5ebd
00000060: 006b debc 1012 22bd 020b 26bd f727 373d
00000070: 36fa 8f3c c92d 673c b2c2 753d a0c2 533d
00000080: 85a0 b63b 8245 9302 bafb 33bc 1882 bd82
00000090: 9c9c a53d 315c c93d f5cd 81bb 10f2 1ebc
000000a0: a821 9fbc 1254 b482 4705 ffbc 187a e23b
000000b0: 6724 313c 4799 bf3c c25d 323d 1688 603d
000000c0: c8a7 1b3d a22b c7b9 9fab 083d 2a6f 10bc
000000d0: 3d33 a43c 2d47 a23d f3fb debc 761a d3bd
000000e0: 88d3 5002 278d 313d 5d1b d33c 9f84 91bc
000000f0: 2b15 2cbc 3589 c882 86db a782 bfe1 333d
00000100: 3d40 f73c c5e3 c93d a47b bc82 64b6 7500
00000110: 5953 b782 4bcc c93d fad3 303d a51a 903d

linear5.weight f4 [36, 72]
-0.17149591 -0.14961438 0.15990406 0.14982489 0.19826883 -0.0027662546 0.17022304 0.07252269
0.014849653 0.034886397 0.0951716 0.04049162 0.0072401813 -0.11784995 0.029310137 0.033348694
0.25792453 0.14157863 0.092308655 -0.040812835 0.26492468 -0.11497135 0.08510901 -0.05639293
-0.03885016 -0.061742194 0.08081323 0.11768012 0.069452226 0.02551525 0.12812136 0.08859591
-0.03325334 2.6770305e-37 0.16764994 2.9883826e-37 -0.089302994 0.09962151 -0.16851856 0.06262667
-0.0442929 2.2949511e-37 0.26002583 0.0020235085 -0.24804607 0.026064163 -0.0938589 0.0709917
0.086180225 0.058506325 0.05223179 0.055678405 0.033951677 0.16384652 -0.024770273 -0.39548114
-2.7497604e-37 0.06473108 0.108137116 -0.052922696 0.16278356 -2.7078642e-37 5.8650946e-37 -0.21765535
0.14435112 0.23435302 -3.0974857e-37 3.0746708e-37 2.7999304e-37 -0.08241808 -0.0005984427 0.11211901
-5.498855e-37 -3.5079776e-37 -1.7900335e-37 -2.0087813e-37 -5.522713e-37 -1.9865623e-37 1.0241189e-37 -1.9765943e-37
-5.6038917e-37 -4.1719045e-37 -1.5818817e-37 -2.7864044e-37 -6.6447277e-37 -1.9290402e-37 -5.0592265e-37 -3.6569262e-37
-1.5520876e-37 -1.435787e-37 -3.818137e-37 -6.462044e-37 8.313183e-38 -2.325156e-37 -5.5988806e-37 -3.0793236e-37
-6.8940243e-37 -5.68294e-37 -4.268095e-37 -3.7717493e-37 -2.256709e-37 -6.3511344e-37 -1.6157073e-37 -3.0589381e-37
-2.4941956e-37 1.4833361e-37 -2.764324e-37 1.7793852e-37 1.3309961e-37 -3.854917e-37 -7.3439833e-38 -4.339386e-37
-6.5801658e-37 -1.475381e-37 -2.0524094e-37 -9.2743313e-38 -1.7095624e-37 -6.1273177e-37 -4.574066e-37 -5.6154123e-37
-5.616931e-37 1.3781504e-37 7.812203e-38 -5.78369e-37 2.337305e-37 -7.6102025e-38 -4.3656676e-37 1.8238276e-37
1.1101348e-37 -5.7481366e-37 -3.6792995e-37 -1.8203489e-37 -4.0329455e-37 8.421647e-39 1.3737442e-37 -5.2481466e-37
-6.5837235e-37 -3.816338e-37 -7.8713777e-38 1.6324028e-37 -1.7056903e-37 -4.50593e-37 -1.7972849e-37 -4.723479e-37
0.25779527 0.011318062 0.016683163 0.08982181 -0.09894414 -0.076179095 0.189331 0.05064309
0.09831802 -0.061441775 -0.12643266 0.3595462 0.12468185 0.077694036 0.13230291 -0.25619254
-0.09853019 0.15080273 0.16560972 -0.04402769 -0.16173582 -0.24878891 -0.18507689 0.11852796
0.295293 -0.09241232 -0.19390897 0.032113697 0.023993498 0.1622395 0.21980071 0.15527757
0.08792126 -2.7655145e-37 -0.1641175 2.9344862e-37 0.23011416 -0.030301068 -0.06672697 0.02735814
0.14106774 2.758069e-37 0.03272675 0.13868602 -0.32039675 -0.04308421 0.19038382 -0.07825411
0.17556049 0.12024311 0.22594452 -0.024731081 0.22710972 0.04128197 0.14004827 0.14393094
-2.865108e-37 0.08017751 0.06811835 0.008286511 -0.030732282 3.0374135e-37 2.4008814e-37 -0.04508199
-0.12529477 0.09388304 2.990675e-37 -2.9015923e-37 2.883535e-37 0.16742535 0.17159428 -0.043202754
0.17038271 -0.16921933 -0.028639527 -0.104243174 0.16699399 0.22950023 -0.15146448 0.10785826
0.21220616 0.21135105 0.14848071 -0.20835042 -0.061578065 -0.0136680575 0.08989542 0.035783425
-0.055977855 -0.025687937 -0.076248325 -0.0570838 0.27615523 -0.073403254 0.17618832 -0.25436094
-0.109415725 0.0012311047 0.05952556 -0.08761369 -0.11110272 -0.021481507 0.14690122 0.15060405
0.06291235 2.7735506e-37 -0.07604967 -2.8190352e-37 -0.115601875 0.10230795 0.040807232 0.17829432
00000000: a09c 2fbe 8334 19be e4bd 233e b26b 193e
00000010: fc06 4b3e 0d4a 35bb f34e 2e3e c786 943d
00000020: f54b 733c 0ae5 0e3d 54e9 c23d 8ada 253d
00000030: 0b3f ed3b 515b f1bd d01b f03c a498 083d
00000040: af0e 843e fdf9 103e 520c bd3d 5c2b 27bd
00000050: 35a4 873e 1976 ebbd a24d ae3d 46fc 66bd
00000060: 5821 1fbd 62e5 7cbd 6881 a53d 4602 f13d
00000070: f83c 8e3d 5c05 d13c 3f32 033e c671 b53d
00000080: a734 08bd 7330 b602 6dac 2b3e f860 cb02
00000090: 7de4 b6bd 5d06 cc3d 2190 2cbe 6942 803d
000000a0: 796c 35bd b02f 9c02 1b22 853e d79c 043b
000000b0: caff 7dbe 8384 d53c 1839 c0bd 1964 913d
000000c0: 427f b03d 54a4 6f3d 00f1 553d 0a0f 643d
000000d0: ea10 0b3d 62c7 273e 07eb cabc 817c cabe
000000e0: 9523 bb82 ba91 843d fe76 dd3d 78c5 58bd
000000f0: bcb0 263e a649 b882 2e94 4703 0be1 5ebe
00000100: c8d0 133e 3dfa 6f3e d0cd d282 5240 d102
00000110: ab8d be02 cfca a8bd cfe0 1cba a79e e53d
00000120: c81d 3b83 97bd ee82 90a5 7382 e8b5 8882
00000130: 9eed 3b83 cc32 8782 5665 0b02 2185 8682
00000140: c8b0 3e83 6af6 0d83 8850 5782 03a2 bd82
00000150: be1b 6283 9f48 8382 1428 2c83 a4e0 f882
00000160: 5c42 5382 e06d 4382 aaec 0183 58e4 5b83
00000170: 6e4e e201 ee3d 9e82 2185 3e83 6291 d182
00000180: 6c97 6a83 6461 4183 5a3c 1183 9258 0083
00000190: 6a95 9982 2f1e 5883 2feb 5b82 382e d082
000001a0: 04bf a982 b8e6 4902 5121 bc82 8632 7202
000001b0: 722a 3502 102d 0383 18ec c781 62a9 1383
000001c0: 54e9 5f83 86d1 4882 04ae 8b82 a878 fc81
000001d0: 8eb1 6882 7780 5083 bca5 1b83 2415 3f83
000001e0: 5f22 3f83 8895 3b02 1cab d401 0ccf 4483
000001f0: 9911 9f02 5f2b cf81 548e 1483 1e3f 7802
00000200: 8d1a 1702 5599 4383 7066 fa82 e7c5 7782
00000210: e93b 0983 20b4 5b00 00fc 3a02 ce95 3283
00000220: 5208 6083 fedc 0183 7f47 d681 f030 5e02
00000230: a22a 6882 3054 1983 3da2 7482 4ebb 2083
00000240: befd 833e 656f 393c 21ab 883c 7ff4 b73d
00000250: 3aa3 cabd c903 9cbd fcdf 413e 216f 4f3d
00000260: f55a c93d 5faa 7bbd 9077 01be 7116 b83e
00000270: 3359 ff3d 0d1e 9f3d 6a7a 073e ab2b 83be
00000280: 32ca c9bd 086c 1a3e 9895 293e 6156 34bd
00000290: 139e 25be 85c2 7ebe cc84 3dbe c9be f23d
000002a0: a530 973e ac42 bdbd 1390 46be a789 033d
000002b0: 038e c43c 1d22 263e 7013 613e 1501 1f3e
000002c0: 1010 b43d 0f36 bc82 6b0e 28be f6b5 c702
000002d0: 0ca3 6b3e f239 f8bc 26a8 88bd 2e1e e03c
000002e0: 1074 103e 57b4 bb02 7c0c 063d b503 0e3e
000002f0: 0b0b a4be 1279 30bd faf3 423e b143 a0bd
00000300: 21c6 333e 0542 f63d 005e 673e d698 cabc
00000310: 738f 683e 4817 293d d068 0f3e a262 133e
00000320: 39fd c282 1b34 a43d a281 8b3d 25c4 073c
00000330: 44c2 fbbc 35b7 ce02 4165 a302 e5a7 38bd
00000340: 464d 00be c045 c03d e888 cb02 de78 c582
00000350: 443e c402 8d71 2b3e 69b6 2f3e 5ff5 30bd
00000360: ce78 2e3e d547 2dbe 719d eabc 727d d5bd
00000370: 7900 2b3e 1c02 6b3e 8119 1bbe cbe4 dc3d
00000380: 924c 593e 696c 583e 540b 183e d059 55be
00000390: 4839 7cbd fdef 5fbc 171b b83d a491 123d
000003a0: 0949 65bd 826f d2bc 1528 9cbd b4d0 69bd
000003b0: 3864 8d3e 7254 96bd b66a 343e 993b 82be
000003c0: 5a15 e0bd 055d a13a 13d1 733d ce6e b3bd
000003d0: d389 e3bd fcf9 afbc 466d 163e f337 1a3e
000003e0: 31d8 803d 11c2 bc02 eebf 9bbd 85da bf82
000003f0: adc0 ecbd d586 d13d 7c25 273d c992 363e

linear5.bias f4 [36]
0.007953252 3.7645755e-37 0.09110417 0.08999943 -0.036483087 0.084146395 0.09740227 0.0079617845
0.108750425 0.054165184 -2.6421884e-37 0.13340718 -0.011668789 -3.0998522e-37 0.01914075 -2.8573682e-37
0.08448532 0.10702107 0.04791268 -0.053947307 8.4247667e-38 0.13327366 0.12023541 0.12348558
0.052004263 0.016424548 0.115763776 -0.06502248 0.035579532 0.053964574 -0.07962045 0.08705807
0.06490675 0.0545127 0.026775943 -0.009389126
00000000: 5b4e 023c 141a 0003 d394 ba3d 9f51 b83d
00000010: 4a6f 15bd f254 ac3d d77a c73d 2572 023c
00000020: 8bb8 de3d 50dc 5d3d 6ad1 b382 e49b 083e
00000030: 732e 3fbc 0bf7 d282 10cd 9c3c 6076 c282
00000040: a406 ad3d dd2d db3d 1640 443d daf7 5cbd
00000050: 0e58 e501 e478 083e fc3d f63d 02e6 fc3d
00000060: 6c02 553d c68c 863c 8f15 ed3d 822a 85bd
00000070: d8bb 113d f509 5d3d 0c10 a3bd 804b b23d
00000080: d5ed 843d b548 5f3d 3959 db3c d9d4 19bc

linear6.weight f4 [10, 36]
0.052984077 6.5461445e-37 -0.2542964 -0.10734401 -0.020151475 0.23508513 0.0798079 0.061905727
0.0883791 -0.1769773 2.5508533e-37 0.21386185 -0.14497751 -2.8457042e-37 0.17538804 -2.6402369e-37
-0.05177111 0.00953023 -0.16421391 0.11962436 1.3223194e-37 0.24633484 0.1881272 -0.5156794
0.039953556 -0.025478816 -0.20342475 0.12615581 -0.4333547 -0.45174462 -0.28632835 0.31003588
0.13803789 -0.11668097 -0.21275088 -0.25211903 -0.27938995 1.5068342e-38 -0.031451397 0.18909875
-0.31450033 -0.16367191 0.054076627 -0.01032789 -0.011238549 -0.3339914 -2.8387067e-37 -0.38660842
0.3246177 -2.936338e-37 0.0033142718 2.760506e-37 -0.036592614 0.35684323 0.05639838 0.09874808
-1.1690134e-37 0.053420782 -0.14758769 0.21978934 0.0066350265 0.18061078 -0.15121947 -0.14441207
0.11258753 0.17043488 -0.051014394 -0.34234333 0.0233348 -0.44053367 -0.30141503 -0.27379888
0.010078944 -7.9294155e-38 0.24993153 -0.09282507 -0.0412205 0.074557014 -0.37332973 0.15920293
-0.041566286 -0.078845315 -2.4242692e-37 -0.121221244 -0.13946508 -2.8836559e-37 0.111036755 -3.057234e-37
-0.008177567 -0.06361828 0.29918975 -0.09621701 2.5158798e-37 0.09029372 -0.1798155 -0.40654516
0.049500752 0.08776604 -0.14465795 0.16761136 -0.063044354 0.0023260412 -0.21209368 -0.21998726
-0.075912416 -0.3255653 -0.24669844 0.088904396 0.10189915 1.8902884e-37 -0.17924923 0.21611667
0.11930756 -0.23294003 -0.12106539 -0.12113373 -0.02932192 -0.15640615 -2.2278545e-37 -0.032547083
-0.38030124 -2.8435043e-37 -0.0033021045 2.8842955e-37 0.22575763 -0.14446677 0.14788237 -0.13495412
-1.2326791e-37 0.12843639 -0.07827849 0.27756035 0.12687877 -0.12481597 -0.08874038 -0.34490177
-0.49733123 0.06999665 0.039968066 -0.2922294 -0.33517936 -0.04304408 0.05779319 -0.049475987
-0.22760774 -2.1098098e-37 -0.08198314 -0.021633795 -0.2705447 0.0037323178 0.08367182 -0.018758297
-0.027230008 0.23022626 -2.7539055e-37 -0.46120086 0.21305594 3.0922204e-37 0.080264844 -2.82133e-37
-0.18446688 0.22118302 -0.1832725 -0.27389628 3.87802e-37 -0.13140906 -0.01800925 0.089379475
0.11427013 -0.2778479 0.10011133 0.21742713 0.20227677 -0.16568166 -0.013477985 -0.27358675
0.28849047 0.13605149 0.06882417 0.0647698 -0.07364939 -1.9199553e-37 0.03702322 -0.121388264
-0.0010525567 -0.33599576 -0.13422255 -0.06517942 0.17003177 -0.24758726 2.1611632e-37 0.23463152
-0.15558133 2.9983904e-37 -0.23706426 -3.0762084e-37 0.1959471 -0.41430956 -0.20795083 -0.13724501
5.2013952e-37 -0.023651034 0.043845408 0.09015932 -0.058490917 -0.34552634 0.10972049 -0.029442318
0.22343004 0.1444306 -0.017241921 0.3083843 0.12589997 -0.28111482 -0.09607295 0.10698303
-0.20954959 -5.1795516e-37 -0.2015188 0.24191007 -0.029199608 0.025984807 0.23561855 -0.038423564
0.13995676 -0.18608381 2.8380881e-37 0.15721776 -0.0056089126 3.1049272e-37 0.0013784163 2.9695046e-37
-0.35269523 -0.33689037 0.12814553 -0.10323905 3.1744908e-37 -0.37866202 0.10726792 -0.3765916
-0.09912854 -0.31950417 0.30177855 -0.1540905 0.055273086 0.13775592 -0.29206368 -0.043870594
-0.27761492 0.19618517 -0.5654102 -0.011141434 -0.16980413 -1.9516303e-37 -0.0046945508 -0.3578749
00000000: d505 593d f6c0 5e03 2333 82be 2dd7 dbbd
00000010: b514 a5bc 28ba 703e 5372 a33d dc90 7d3d
00000020: 1a00 b53d 8a39 35be 229a ad02 9afe 5a3e
00000030: fc74 14be 29ab c182 ec98 333e 6aaf b382
00000040: f20d 54bd af24 1c3c b127 28be 9efd f43d
00000050: 1bfc 3302 333f 7c3e 6ba4 403e 9103 04bf
00000060: 57a6 233d f3b8 d0bc 944e 50be fd2e 013e
00000070: abe0 ddbe 124b e7be a199 92be 06bd 9e3e
00000080: ce59 0d3e 6ff6 eebd 5edb 59be bf15 81be
00000090: 330c 8fbe 6814 a400 2ed3 00bd 1aa3 413e
000000a0: 3006 a1be 9c99 27be 747f 5d3d 4f36 29bc
000000b0: e421 38bc ec00 abbe 3f31 c182 8af1 c5be
000000c0: 4b34 a63e 39d6 c782 4134 593b ccde bb02
000000d0: 23e2 15bd 28b4 b63e fd01 673d 6f3c ca3d
000000e0: 2c1e 1f82 c0cf 5a3d 3a21 17be 7510 613e
000000f0: a36a d93b 08f2 383e 47d9 1abe c2e0 13be
00000100: 4a94 e63d 7b86 2e3e 78f4 50bd a047 afbe
00000110: 9f28 bf3c a18d e1be 1253 9abe 5e2f 8cbe
00000120: 2822 253c f6db d781 0dee 7f3e 121b bebd
00000130: d4d6 28bd 59b1 983d 1325 bfbe 1806 233e
00000140: 6941 2abd a779 a1bd bafc a482 d842 f8bd
00000150: efcf 0ebe 5f40 c482 3d67 e33d 8710 d082
00000160: 34fb 05bc 4d4a 82bd 662f 993e 6c0d c5bd
00000170: cf38 ab02 eaeb b83d 8e21 38be b026 d0be
00000180: 4dc1 4a3d aebe b33d 3721 14be 50a2 2b3e
00000190: 661d 81bd 7f70 183b 162f 59be 5744 61be
000001a0: f877 9bbd 7fb0 a6be 849e 7cbe 8213 b63d
000001b0: 80b0 d03d 78a5 8002 1c8d 37be b04d 5d3e
000001c0: 8657 f43d d587 6ebe 22f1 f7bd f614 f8bd
000001d0: 8634 f0bc ef28 20be b39e 9782 1750 05bd
000001e0: d8b6 c2be d584 c182 1f68 58bb 844b c402
000001f0: 022d 673e 19ef 13be 7a6e 173e 6a31 0abe
00000200: 99c8 2782 d484 033e 7950 a0bd 641c 8e3e
00000210: 82ec 013e 849f ffbd 84bd b5bd f796 b0be
00000220: 33a2 febe 675a 8f3d 8eb5 233d 189f 95be
00000230: a19c abbe fd4e 30bd 8db8 6c3d 55a7 4abd
00000240: 0112 69be 1296 8f82 c7e6 a7bd 5b39 b1bc
00000250: d684 8abe e799 743b 225c ab3d 00ab 99bc
00000260: 7711 dfbc 6fc0 6b3e cd6b bb82 8522 ecbe
00000270: 562b 5a3e 1472 d202 e561 a43d 8002 c082
00000280: e3e4 3cbe cd7d 623e c9ab 3bbe 223c 8cbe
00000290: 52f6 0303 1990 06be 2288 93bc 960c b73d
000002a0: 7506 ea3d 1442 8ebe 2b07 cd3d 38a5 5e3e
000002b0: a421 4f3e 74a8 29be c4d2 5cbc 9013 8cbe
000002c0: 06b5 933e 1551 0b3e b0f3 8c3d 07a6 843d
000002d0: 7ed5 96bd 57aa 8282 a9a5 173d 699a f8bd
000002e0: f1f5 89ba a307 acbe a371 09be ca7c 85bd
000002f0: cf1c 2e3e 8487 7dbe c614 9302 3f43 703e
00000300: b650 1fbe 540f cc02 f9c0 72be 1c5b d182
00000310: 5ba6 483e 6220 d4be 10f1 54be f589 0cbe
00000320: 8bfe 3003 d0bf c1bc 3e97 333d 73a5 b83d
00000330: 2c94 6fbd d4e8 b0be 23b5 e03d 0431 f1bc
00000340: d8ca 643e 9de5 133e ee3e 8dbc 8ce4 9d3e
00000350: eceb 003e 48ee 8fbe e5c1 c4bd eb19 db3d
00000360: 2b94 56be 4240 3083 f25a 4ebe 46b7 773e
00000370: 0434 efbc 17de d43c fd45 713e 0762 1dbd
00000380: d350 0f3e c18c 3ebe 7826 c102 b1fd 203e
00000390: f8ca b7bb 764f d302 faab b43a 1118 ca02
000003a0: 7894 b4be e57c acbe 9538 033e ff6e d3bd
000003b0: 6e0b d802 fddf c1be 49af db3d 9dd0 c0be
000003c0: e703 cbbd 0d96 a3be b882 9a3e e6c9 1dbe
000003d0: 0866 623d e30f 0d3e 5f89 95be a7b1 33bd
000003e0: 8b23 8ebe c4e4 483e b9be 10bf 908a 36bc
000003f0: 22e1 2dbe 32d2 8482 bfd4 99bb 613b b7be

linear6.bias f4 [10]
0.012067884 -0.16246891 0.068055734 -0.050055597 0.108892806 -0.071245894 -0.10899269 -0.085531615
0.06613496 0.11879622
00000000: 60b8 453c 405e 26be ce60 8b3d 1907 4dbd
00000010: 3103 df3d 5ee9 91bd 8f37 dfbd 332b afbd
00000020: c471 873d 6f4b f33d
