HW1/results/Model 3 - Split image-4, FC [52, 26, 10, concat, 10], lr=0.0001, wd=1e-05, bs=32.pkl (torch_old, 783249 bytes, 24 tensors)

linear1.weight f4 [210, 196]
000000 1b 95 55 3c 01 e4 d4 bc bc f6 3a 3d 91 1b a8 3c
       0.013036038 -0.025987627 0.04564546 0.020520957
000010 12 d8 03 3d 85 42 bf bd b2 09 78 bd 7b 07 53 3b
       0.032188483 -0.093388595 -0.06055612 0.0032200504
000020 2f c4 b2 bc 6a 09 64 be b1 f4 32 bd ed dd 5d be
       -0.021822063 -0.22269216 -0.043690387 -0.21666689
000030 d2 55 f3 bd 54 6f 1d be da 95 75 bd 73 43 3f 3c
       -0.11881603 -0.153745 -0.059957363 0.011673796
000040 6b 08 53 bd b6 37 c1 bd 42 89 f1 39 50 da 72 ba
       -0.0515217 -0.09434454 0.00046069367 -0.00092640985
000050 57 a0 e9 bd f7 55 92 3b 72 3b f4 3c 31 59 dc bc
       -0.114075355 0.004465814 0.029813502 -0.026897999
000060 f4 b4 89 bd fc bf e2 bd 68 ea 1e 3c ad a5 dc bd
       -0.06723967 -0.11071774 0.0096994415 -0.10773788
000070 00 60 32 bd 81 49 cc 3c 5f 3c 36 bd ea 75 76 bd
       -0.043548584 0.024937393 -0.044491168 -0.060171045
000080 2b 03 29 bd d5 ae d9 bd 25 7b a1 bc 4a ab ae bd
       -0.041262787 -0.1062905 -0.01971204 -0.085287645
000090 eb e0 48 3c f5 be 15 be d2 4b 2b be 03 ca 96 bc
       0.012260656 -0.14623626 -0.16728142 -0.018406874
0000a0 fe c7 39 bd 49 83 bb 3c 35 9f 02 bd f1 7d 21 bb
       -0.045356743 0.02288975 -0.031890113 -0.0024641717
0000b0 c4 3a 1f 3d 06 bb 29 3d 71 60 6f bc e2 09 04 be
       0.038874403 0.041438125 -0.014610396 -0.12894395
0000c0 84 e8 f7 bd f7 55 2f be ed 43 02 be a2 66 b0 bc
       -0.12104896 -0.17122637 -0.12721224 -0.021533314
0000d0 da 02 9e bd 6b 58 0f be c1 a5 26 bd 81 4e 12 3c
       -0.07715388 -0.13998573 -0.04068542 0.00892985
0000e0 cf 01 0c 3e a3 25 4e 3c e5 e6 19 3d ae b3 14 3e
       0.13672565 0.0125822155 0.037573714 0.14521667
0000f0 de b8 16 3d 30 3b 3a 3d 77 66 f0 bd 70 e7 6a be
       0.036797397 0.0454666 -0.117382936 -0.22939849
000100 ac 9b aa bd 52 12 4a bd cf d6 a2 bb ae b3 68 be
       -0.08330473 -0.049333878 -0.004969455 -0.22724792
000110 60 96 8a bd 74 2b 9d 3d 57 1e 56 3d 1c 8c 01 3d
       -0.06766963 0.07674304 0.052275028 0.03162776
000120 ef 63 c8 3d 9d ce cc 3c 69 96 31 3e f3 88 97 3b
       0.09784686 0.025000865 0.17342533 0.00462448
000130 33 b7 8b bc 45 6f 3b bd 38 e2 a8 3d de 3d 40 be
       -0.01705513 -0.04576041 0.08246273 -0.187736
000140 a2 01 df bd 71 c3 6f bd f3 78 1c bc 08 b1 94 3d
       -0.10888983 -0.058535997 -0.009550321 0.072603285
000150 16 1b db bb 20 f9 b5 bd 2e 07 92 3d 8e 73 c3 bc
       -0.0066865785 -0.088854074 0.07130276 -0.023858812
000160 1e 09 24 3d f6 46 9b 3c bf 84 87 bc 4a cb 85 bb
       0.040047757 0.018954735 -0.01654279 -0.004083072
000170 d5 5b 81 3d 79 67 e4 bc 55 cf 95 bd 70 24 01 3d
       0.06316344 -0.02788137 -0.07314936 0.03152889
000180 5d 6b 4c 3d 87 c0 48 3d cf fc 31 3d ce c1 92 bd
       0.049907077 0.049011733 0.043453988 -0.071658716
000190 c2 41 98 bd 9b 4f 68 3d 5d 55 65 39 eb f5 6f bd
       -0.07434417 0.056716543 0.00021870942 -0.058584135
0001a0 b3 e4 70 bd 2d 92 d8 bd 23 45 d7 bd 2f bf 17 bd
       -0.058811855 -0.10574756 -0.10511234 -0.03704756
0001b0 f7 19 13 bc 09 fa a6 bc e9 1d 47 3c 18 c3 47 3d
       -0.0089783585 -0.020382898 0.012153127 0.04877004
0001c0 ee 8b fa 3c 8c 8d 3c bd e9 f0 b0 bd 22 11 57 bd
       0.030584302 -0.046033427 -0.086397 -0.052506573
0001d0 46 42 95 3d df 41 88 bd eb d2 80 bb b9 b7 ac bd
       0.07288031 -0.06653189 -0.0039313934 -0.0843348
0001e0 87 6a f0 bc 2c e2 4c 3d 87 8b 7a 3d 68 4f 9d 3b
       -0.029347671 0.05002038 0.06116822 0.0048007257
0001f0 69 6a e1 3c 51 03 8a 3d f7 72 08 be 1f 46 4e be
       0.02751656 0.06738914 -0.13325106 -0.20143937
000200 66 2b a0 bd 71 0b cc 3d 8e 46 e5 3d b9 00 08 3d
       -0.078207776 0.0996312 0.11195098 0.033203814
000210 08 78 70 bc 1a 46 5b 3d df d9 2f 3d 0b 61 44 3c
       -0.014677055 0.05353365 0.042932387 0.0119860275
000220 6e d7 b0 3d 33 75 b3 3d 60 e8 37 bc 1c 6b 9d 3d
       0.0863484 0.08762588 -0.011224836 0.07686445
000230 16 64 2a be c7 da 69 be 91 ba 87 3c c6 29 f6 3c
       -0.16639742 -0.22837363 0.016568454 0.030049216
000240 02 b5 db 3d 1f ef a5 bb dc a4 48 bd 72 2b 3e bb
       0.10727884 -0.005063906 -0.048985347 -0.0029017595
000250 fc 8f f0 3c bb 42 09 bd c5 cb 57 3c 95 a1 4f 3d
       0.029365532 -0.033510905 0.013171141 0.050691206
000260 96 4f 1c bd af 60 96 3d 46 c1 ba bd 60 ae 35 be
       -0.038161837 0.0734266 -0.09118895 -0.177423
000270 e5 fa 2c 3b 8a 2a 54 3d 0c d5 8f 3d c6 80 b6 3d
       0.0026394662 0.05179838 0.07023057 0.0891128
000280 88 ed b1 bd e4 06 59 3d 2f 6f 4d 3d 78 7b 95 3d
       -0.086878836 0.052985087 0.05015486 0.072989404
000290 c9 ee 88 bd be 2d 8f bb 1a 3f 94 3d 8b ea dc 3c
       -0.0668617 -0.0043694666 0.07238598 0.026967308
0002a0 cd c0 cf bd bb b1 c2 bd b8 e8 73 3c dd 3e f9 3d
       -0.10144196 -0.09506556 0.014887027 0.12170193
0002b0 48 21 b1 3d 75 99 d8 3c 34 b1 a1 bc e1 55 0c bc
       0.08648926 0.026440362 -0.019737817 -0.008565397
0002c0 06 85 13 3d 69 eb 0c 3d 97 90 f6 bd 14 0a 21 3b
       0.036015533 0.034404192 -0.12039297 0.0024572657
0002d0 84 39 e2 bd 3e e8 40 bd 72 16 20 3d 79 fc ac bc
       -0.110461265 -0.047096483 0.039083906 -0.021116482
0002e0 39 9c 86 3d 86 e6 24 3d ec 68 18 3b f0 f5 ec 3b
       0.06572766 0.040258907 0.0023255898 0.0072314665
0002f0 3b a5 a0 bd 04 e8 b0 bc 5a c4 a4 bd 4c 74 d2 bd
       -0.07844015 -0.021595009 -0.080452636 -0.10276088
000300 45 da a9 bd e9 97 18 bd e1 c6 21 bc b7 4a a1 bd
       -0.08293585 -0.037254248 -0.009874077 -0.07875579
000310 1b 35 f7 bd c4 2a 52 3b 1f d3 54 3d af a2 1b bd
       -0.12070676 0.0032068947 0.051959153 -0.037996944
000320 54 7f c0 bc ac 22 73 3c 71 d5 e6 3c 69 de 55 3d
       -0.023498215 0.014839809 0.028177949 0.05221406
000330 d8 29 24 3e f9 26 a0 3d 3b b2 20 3d 76 2a e1 bd
       0.16031587 0.078199334 0.039232474 -0.10994427
000340 58 b6 86 bd e2 58 60 bd 55 a5 3e 3d c9 ba 8c bc
       -0.06577748 -0.054772265 0.04654439 -0.01717891
000350 dc 38 1e bd b3 50 c7 3d 56 fb 8e 3a 70 69 e7 3d
       -0.038628444 0.09732189 0.0010908644 0.112994075
000360 d6 fa d2 3d cb 94 57 3d 8a 87 e5 3c 41 39 a8 bc
       0.103017494 0.052632134 0.028018732 -0.020535113
000370 5c f6 f0 bd b8 06 27 be b1 02 3c 3d d1 6e e5 bb
       -0.11765739 -0.16311157 0.045901004 -0.0070017357
000380 b7 34 f8 3b 24 4f e4 bc c2 55 c0 3c 79 0b 8b 3d
       0.0075746435 -0.027869768 0.023478393 0.067892976
000390 95 d0 c5 3d 2a cb dd 3d 1f e0 be 3d 8d 0e e6 3c
       0.096589245 0.10829766 0.093200915 0.02808311
0003a0 ab dd 07 3d 22 b5 91 bb 2c 7a 13 bd 1f 5f 20 be
       0.033170383 -0.0044466415 -0.036005184 -0.15661286
0003b0 8e 9a fa bc 11 7e 2e be f7 95 32 3c a7 54 1d 3d
       -0.030591276 -0.17040278 0.010900012 0.03841081
0003c0 d6 2f 68 bc 18 72 85 3d aa cb 70 3d a6 3c f3 3c
       -0.014171561 0.06515902 0.05878798 0.029692005
0003d0 7f 13 0c bd ca 4a 8e bd bd b1 33 3d 49 fb 50 bd
       -0.03419828 -0.06947859 0.043870676 -0.051020894
0003e0 5c b6 ca bb 63 71 26 3d 6f fb ee bc a2 95 34 be
       -0.0061862897 0.040635478 -0.029172627 -0.17635205
0003f0 60 5c 6e bd bd ce 24 3d 0b 06 26 3c f1 3b 78 3d
       -0.058193564 0.040236223 0.010133277 0.06060404

linear1.bias f4 [210]
000000 4f 30 e3 bd 4e 36 5b 3d 01 ac 01 bc a4 98 7f 3c
       -0.110931985 0.053518586 -0.007914544 0.015600357
000010 67 c8 f1 3c 2c b0 9c bc 8b c0 5d 3b 53 87 07 3e
       0.029514505 -0.019126974 0.0033836688 0.13235216
000020 7f 2c 74 bd db 41 1f 3d d5 dc 0a 3d 54 07 0c 3e
       -0.059612747 0.038881164 0.033902008 0.1367467
000030 58 11 99 3d b9 31 f8 3d 7e a0 c4 3c 12 3c d3 3c
       0.07474011 0.12118859 0.02400231 0.02578548
000040 2a d4 d9 3c 17 c9 19 3c 07 ab 01 be e5 6e 2c 3b
       0.026590426 0.009386322 -0.12662898 0.0026311215
000050 5d 9b 93 bc d5 0c 09 be 55 0d 1d bc 28 bd ec bc
       -0.018018419 -0.13383801 -0.009585698 -0.02889879
000060 9d 5e 45 3c 3a 7e 02 bd ee f4 07 bc 03 80 04 bd
       0.012046483 -0.03185866 -0.008298142 -0.032348644
000070 28 3f d8 3c 36 b9 67 bd e5 c5 85 3c 4c 0d 5d bd
       0.026397303 -0.056573115 0.016329715 -0.05396776
000080 85 01 77 3c 6f 9b 97 3c 44 f3 64 3d e1 33 a8 bc
       0.015076046 0.018506734 0.05589606 -0.02053255
000090 ca 9f ba 3c 5b bc aa 3a 5c 27 02 3d 1e 44 7c 3d
       0.022781271 0.0013026105 0.031775817 0.0615884
0000a0 fa b9 73 bd 22 a7 d2 bc f0 fd 29 3d f2 7a 87 3d
       -0.059503533 -0.02571446 0.04150194 0.06615247
0000b0 ce 8d ab 3d 82 c7 8a 3d ea dc ec bd 31 f1 b3 3c
       0.083766565 0.06776334 -0.115655735 0.021965595
0000c0 3c eb ef 3d 99 59 97 3c 55 40 07 3d a7 f7 8a 3d
       0.11714789 0.01847534 0.033020336 0.06785517
0000d0 b8 ab 28 3c 87 60 29 bd b7 51 b4 bb e1 c3 dc bd
       0.010294847 -0.04135182 -0.005502905 -0.107795484
0000e0 dd 38 89 3d 32 b9 8b bc e2 43 a0 3c ea 90 01 bd
       0.06700299 -0.017056081 0.019563619 -0.03163234
0000f0 b3 59 e6 3b 89 83 73 3d 3f ef 0e 3d 46 4a 52 3d
       0.007029736 0.059451614 0.03489613 0.051340364
000100 29 da 9b bc ad d3 12 bd 58 34 93 bd 5b e2 a3 3d
       -0.019024925 -0.0358464 -0.07187718 0.08002158
000110 26 e6 92 3b 19 65 43 bd 67 46 b0 3d fc 42 9e 3d
       0.0044830022 -0.047703836 0.08607178 0.0772762
000120 e3 4a a9 3d 4a a2 ce bd fe 60 82 3d 3a c6 c0 b7
       0.08266237 -0.10089548 0.06366156 -2.298049e-05
000130 6e 64 6e 3d dc 0e 84 b9 67 3c db 3d e2 b9 14 3d
       0.058201246 -0.00025188073 0.1070488 0.036310084
000140 51 cf f7 3d 66 7e ed bd 26 1c 18 3d 2d c9 d2 bc
       0.12100089 -0.11596374 0.03713622 -0.025730694
000150 bc 11 45 3d d2 3e 00 3d 7b 58 33 3c c9 9e d5 bc
       0.048112616 0.03130991 0.010946388 -0.026076691
000160 43 a9 95 3d 55 0e a7 3d a7 9f d3 bd 35 dc 44 bd
       0.07307675 0.081570305 -0.10333186 -0.04806157
000170 44 c3 de 3c 23 95 4d 3d 3a 77 b6 3d 3d 11 3f be
       0.02719272 0.050191056 0.089094594 -0.1865892
000180 01 f7 fa bc bb d1 76 bd 65 ec 93 3c 13 a7 34 bc
       -0.030635359 -0.06025861 0.018057058 -0.011026162
000190 d6 ca 5c bd f6 4f 20 bd d0 62 a3 3d 1e cb 34 bd
       -0.053904377 -0.039138757 0.07977831 -0.04413902
0001a0 aa 84 6c bd 01 fb a7 ba 79 6d be bd 15 eb 96 bb
       -0.057743706 -0.0012815894 -0.09298224 -0.0046056607
0001b0 e4 cb 75 bd f7 e2 bf 3d e8 d4 b2 bd 18 ae 63 3c
       -0.0600089 0.09369462 -0.08732015 0.013896488
0001c0 af 30 f5 bd dc d3 9b bc 0d 79 8a 3d 10 22 19 bd
       -0.11972176 -0.01902192 0.0676137 -0.037386
0001d0 26 93 c3 3b 74 4a 03 bd 02 bd 3f bd 05 d8 7d bd
       0.005968469 -0.032053426 -0.04681111 -0.06197359
0001e0 f7 0c a9 bd a7 50 c2 bd a1 95 3d bd 42 1d a0 3d
       -0.08254426 -0.094880395 -0.046285275 0.078180805
0001f0 45 dc d0 bd 51 44 be bc 83 77 5e 3d 61 3e 00 bd
       -0.10198263 -0.023225935 0.054313194 -0.03130949
000200 b8 7b 5b bd d7 b2 82 bc fe 6b 7d 3c 92 08 91 bc
       -0.053584784 -0.015954418 0.015467642 -0.017704282
000210 42 bb f5 3d 2b 0e 8a bd 3a 38 8a 3c 91 d0 ab bd
       0.11998607 -0.067409836 0.016872514 -0.0838939
000220 16 47 5f 3d b6 c4 ba 3d d5 fc 8d bd 6c 80 00 bd
       0.054511152 0.09119551 -0.069329895 -0.031372473
000230 ed 9c 9e bb 63 97 7d bd fb 23 24 3d 38 1b b4 3d
       -0.0048404844 -0.06191195 0.040073376 0.08794254
000240 4b 57 90 bd 09 c6 26 bd 25 a6 9e 3d 6d 62 4d 3d
       -0.070479 -0.040716205 0.07746533 0.050142694
000250 c5 33 4f 3d 3d 76 b3 bd fc 29 44 bc 27 59 75 3d
       0.05058648 -0.087627865 -0.0119729005 0.059899475
000260 90 5e ff 3c 62 64 2c bd 36 cc fc bc 04 24 21 3d
       0.03117302 -0.04208792 -0.030859094 0.039340988
000270 d3 09 45 bd fb 63 b7 3c 4e d8 cc bd 76 28 47 bc
       -0.048105072 0.022386542 -0.10002194 -0.012155643
000280 08 5a 0f bd 15 b6 9c bc 0c 81 d7 bd 25 4a 27 3d
       -0.03499797 -0.019129792 -0.105226606 0.040842194
000290 ef 15 7d 3d 6c 94 ff bb b7 b5 01 bd d7 36 fc bd
       0.061788496 -0.0077996757 -0.031667437 -0.12315147
0002a0 03 20 1a 3d db 5e 86 3c d2 50 fe 3a 5b 5c 08 be
       0.037628185 0.016402652 0.0019402748 -0.13316481
0002b0 72 39 8e 3b 75 77 e0 3d f7 bc a6 3d 0b 97 0c bc
       0.004340344 0.109602846 0.08141511 -0.008580933
0002c0 a3 5f 35 3d 27 c6 98 3d 4b b0 2e 3d 41 90 dc bc
       0.04428066 0.074596696 0.042648595 -0.026924254
0002d0 ff 13 04 3d ea 4e 8c 3d 50 63 d9 bb 98 5d 19 3c
       0.032245632 0.06850989 -0.0066341534 0.009360693
0002e0 32 f4 2f bd 6a c7 be 3d e6 dd 79 3c 31 80 ba 3c
       -0.042957492 0.09315379 0.015250659 0.022766205
0002f0 65 10 a1 bd 01 64 3c bd 56 e8 89 3c 76 70 61 bd
       -0.07864455 -0.04599381 0.01683442 -0.05503889
000300 a7 35 ba 3c 19 c9 e0 3d 34 e1 24 bc 53 8f 8f 3d
       0.022730662 0.10975856 -0.010063458 0.07009759
000310 ef 88 d3 3b 22 eb 43 3c db f5 cc 3d 1e 50 22 3d
       0.0064555327 0.0119579155 0.10007831 0.039627187
000320 71 5f 10 3d 3e 24 b1 3c 1a 08 82 bd 51 82 7e 3c
       0.03524727 0.021623727 -0.063492015 0.015534
000330 e3 6c 95 3d 4c 82 00 3d 59 5c ab bb e7 af 5a 3c
       0.07296159 0.03137426 -0.0052295146 0.013347602
000340 29 f0 8d bc f5 6e c5 bc
       -0.017326431 -0.02410076

linear2.weight f4 [105, 210]
000000 ee 31 4b 3e 99 a6 11 3e e2 9f 26 3e d7 34 01 be
       0.19843265 0.14223708 0.16271928 -0.12617813
000010 7b 38 f8 3d 33 a5 12 3d 91 f6 49 bd 0f 1a 6c 3d
       0.12120148 0.035802078 -0.04930741 0.05764204
000020 a9 59 0f 3d 69 81 02 bd 8a 8d ca 3c e3 d3 09 3d
       0.034997616 -0.031861696 0.024725694 0.033649337
000030 dd 30 49 be e8 95 60 bd 46 bd 5a 3c 40 7f 61 3d
       -0.19647546 -0.05483046 0.01335079 0.055052996
000040 1c 36 8d 3d 69 c9 9c bc 2b b0 f0 bd dc 94 e4 bb
       0.06895086 -0.019139009 -0.117523514 -0.0069757532
000050 f0 7c 59 be 10 ae 45 3e fa 2d 8e 3c a7 c2 14 3e
       -0.21239066 0.19304681 0.017355908 0.14527379
000060 d6 4c 98 be 42 52 0a 3e 7b 67 ea 3d 3b 97 5e 3e
       -0.2974612 0.13507941 0.114455186 0.21737377
000070 81 62 49 bd 93 a8 21 3e e4 86 87 bd b5 e1 96 bd
       -0.049166206 0.15786962 -0.06617525 -0.07367269
000080 a8 45 f8 3d 5b 35 5f 3b 62 8c 4e bd a2 ad 14 3d
       0.12122661 0.0034058902 -0.05042685 0.0362984
000090 e6 2c e6 bd 1b e3 f1 bd fe a6 00 bc a9 18 a7 bd
       -0.112390324 -0.11810895 -0.007852314 -0.081590004
0000a0 4b 10 19 be c8 5e 4c 3d 9a a5 87 3d 05 45 01 3e
       -0.14947622 0.049895078 0.06623383 0.12623985
0000b0 b5 22 24 bd 75 b2 d2 3d 9f cd 50 be 14 f6 b1 3d
       -0.04007216 0.10287944 -0.20390938 0.08689514
0000c0 dc 25 92 3c 3b f3 cc 3d cf f2 af 3d 6b 94 a4 3c
       0.017840318 0.1000733 0.08591234 0.020090302
0000d0 24 a2 c1 bb 66 c8 e5 bc f5 31 16 be 48 89 34 3d
       -0.0059092212 -0.028049659 -0.14667495 0.044076234
0000e0 e6 79 9b 3c 2e 6c 06 3d b0 15 ea 3d 96 47 5b bc
       0.018979024 0.032818012 0.11429918 -0.013383767
0000f0 d2 66 b5 3d e2 e0 0a 3e 1d c2 a0 bd d0 fa 58 3d
       0.08857502 0.13562348 -0.07849524 0.05297357
000100 48 e9 42 bc e7 a6 07 3d f7 0f aa bd 53 46 29 3e
       -0.011896439 0.033118155 -0.08303826 0.16530733
000110 b8 ed fd 3d 9a c6 f8 3d 61 94 5b be 8d 37 83 3d
       0.12398857 0.12147255 -0.21443321 0.0640708
000120 22 7e 20 3d 73 aa 7c bc 0d a1 ae 3d fa be 79 bd
       0.03918279 -0.015421498 0.08526812 -0.060973145
000130 c0 19 d4 3d 6e 94 0f 3e 59 61 af bd 59 f0 4b be
       0.10356474 0.14021465 -0.085634895 -0.19915904
000140 61 92 e3 3d a5 4b c1 3d c4 07 33 3e 9a 05 81 3d
       0.11111904 0.09438256 0.17483431 0.062998965
000150 c6 38 8f 3d 3a 3f f3 3c 5b e0 ed 3d 66 72 72 bd
       0.069932505 0.029693235 0.11615058 -0.05919113
000160 9f 8c 4f bd 1f 7b 1d 3d 50 fc 00 3e ce 2e 1b be
       -0.050671216 0.038447496 0.1259625 -0.15154573
000170 b5 c2 07 3d 03 f7 98 3d fa b9 b8 3d eb 5c 1c be
       0.03314467 0.07468989 0.09019847 -0.1526982
000180 9f f5 5b be e5 80 12 3e 08 37 19 be b3 d3 69 be
       -0.21480416 0.14306982 -0.14962399 -0.22834663
000190 ab fc 6c 3c cc c8 c6 3d 27 0c 3e 3e 17 c2 ea bd
       0.014464538 0.09706268 0.18559323 -0.11462801
0001a0 0b 2f b9 3d 22 90 f7 3d 9f c6 a5 3d 2d 12 92 bd
       0.09042176 0.12088038 0.080945246 -0.07132373
0001b0 b9 c0 9c 3d 3e f3 fc 3b cc 57 59 be 48 99 73 3d
       0.076539464 0.0077194264 -0.21224898 0.059472352
0001c0 8e be fd 3d 3d 3d af bd 8c 57 03 3e 38 1d 15 3e
       0.12389861 -0.08556602 0.12826365 0.14561927
0001d0 55 e9 b4 bc 95 a5 8b bd 8f c3 97 3d 64 05 22 3e
       -0.022083918 -0.06818692 0.07410347 0.15822369
0001e0 b9 95 00 3e a8 70 07 3d 5f 27 fb 3d c7 fe a9 3d
       0.12557115 0.03306642 0.12263369 0.08300548
0001f0 06 8b 39 3e c7 b0 de 3b 77 26 53 3e a8 69 ed 3c
       0.1811944 0.006795976 0.20620142 0.028981045
000200 b5 f5 38 bd bc 9b f7 bc 1c f0 07 3d 73 2d 57 3d
       -0.0451562 -0.030225627 0.03318797 0.052533578
000210 64 04 f5 3d 04 08 cb bd f7 30 bc bd 6b 65 e3 bd
       0.11963728 -0.09913638 -0.09189027 -0.11103328
000220 50 53 87 3d 20 ec 03 3e 6e 32 f3 3d 28 60 d8 3d
       0.066076875 0.12883043 0.11874853 0.10565215
000230 2a 27 75 3c a6 15 f2 bd 1f 91 dc bd a0 9b 2c bd
       0.014962951 -0.11820535 -0.10769867 -0.042140603
000240 c3 1e 0b 3e 21 aa 58 3e 8e 27 66 3e 7e 6f 02 3e
       0.13585953 0.21158649 0.22476026 0.12737843
000250 3d 75 bd 3d 01 29 0c be ef 43 0b bd 36 04 08 bd
       0.09250877 -0.13687517 -0.034000333 -0.03320714
000260 34 22 88 3d 70 89 a0 bd 00 a6 3d 3d 8b fa 0f 3c
       0.06647149 -0.07838714 0.046300888 0.008787761
000270 65 e1 6c 3c e9 3f bc bd 76 8d 44 be 1c 34 eb 3d
       0.014458035 -0.091918774 -0.19194588 0.114845484
000280 f9 05 8e 3d e6 e4 f7 bb b8 38 8c 3d 20 7c a2 bd
       0.06934733 -0.0075651286 0.06846756 -0.07933831
000290 af eb d1 3c 2d 2a 71 be 5c 71 2f 3c 5d ce d4 3c
       0.025625078 -0.23551245 0.010708179 0.025977308
0002a0 78 64 9e bd 60 34 ca 3d 6b 44 b3 bd 44 d8 1c 3d
       -0.07734007 0.09873271 -0.08753284 0.038292184
0002b0 af 0b 61 bd 93 65 ab 3c 27 a3 1e 3e 06 73 75 3d
       -0.054942783 0.020922458 0.15491925 0.059924148
0002c0 ea de 0a be 4a b7 26 3e 13 05 21 3d 8a dd 68 3d
       -0.13561597 0.16280857 0.03931148 0.0568519
0002d0 a6 ad 5d be 98 58 00 bd 7b e2 54 be bd 19 18 3e
       -0.21648273 -0.03133449 -0.2078952 0.14853568
0002e0 9d 82 6a 3d d1 3d ed 3d 4b e8 de 3c b6 e2 d0 3d
       0.05725347 0.11584056 0.027210375 0.10199492
0002f0 53 86 59 3e 26 03 31 bd f5 7e 9b 3d 36 20 86 3d
       0.21242647 -0.043215893 0.075925745 0.065491125
000300 e9 ac 95 3b 60 f8 d8 3d 44 d7 ab 3d 63 98 24 3e
       0.0045677316 0.10594249 0.08390668 0.16073756
000310 9f 4a fc 3d 38 8a df 3d 2c c7 f3 3d 91 d0 0e bd
       0.1231892 0.10915035 0.119032234 -0.034866873
000320 7e c3 2c 3d 9f d3 12 3d a0 28 9e bd f1 7c f8 3c
       0.042178623 0.03584635 -0.07722592 0.030333014
000330 4d f6 28 bd 90 7d 45 be 98 c8 35 3c ca 3f 6d be
       -0.041250516 -0.1928618 0.011095189 -0.23168865
000340 94 bc df 3d 56 45 a7 3d 07 4c 11 3e 53 50 44 bb
       0.1092464 0.08167522 0.14189158 -0.0029955104
000350 2a 6c 15 3e 3f 0f 19 3d d0 98 65 bc 28 c2 15 3e
       0.14592043 0.037368055 -0.014013484 0.14624846
000360 d5 26 62 3e 17 c5 8c bd d7 e4 b6 bd 6c 59 db bd
       0.22085126 -0.068735294 -0.089303665 -0.10710415
000370 bb 73 aa 3d ab 0f 25 be 5f 3e 68 3c 98 e6 39 3c
       0.08322855 -0.16119258 0.014175027 0.011346482
000380 9e d4 31 bc f3 60 5c bd 8f e0 e2 3d cf 83 47 3d
       -0.010853915 -0.053803395 0.110779874 0.048709687
000390 0f 4c 0b 3b 28 5a df 3c 74 a2 82 bc d6 5f 02 bc
       0.0021255051 0.02726467 -0.015946604 -0.007957419
0003a0 39 ba 77 3d 1c 7d b1 bd ea 47 3e 3d d3 6a 02 3e
       0.06048033 -0.08666441 0.0464553 0.12736063
0003b0 05 fb 02 bd af 40 c5 3d 6e 90 cc 3d 68 f6 82 3c
       -0.031977672 0.09631478 0.09988485 0.015986636
0003c0 95 a4 62 3d d3 c9 2a 3e 79 c9 2a 3e 79 9f 58 bd
       0.05533274 0.16678552 0.16678418 -0.05288646
0003d0 51 27 0a 3e 46 d5 d1 3c fe d0 ea 3b ff 5e 5e 3d
       0.1349156 0.025614392 0.007166027 0.054289814
0003e0 36 92 a9 bd 0e 0f a6 3d a5 1b b3 3d d7 fb fa bc
       -0.08279841 0.0810834 0.08745507 -0.030637665
0003f0 8a 6f 9f 3d 7f 2a d1 3d 22 a1 8f bd f4 03 a1 3d
       0.07784946 0.102131836 -0.070131555 0.07862082

linear2.bias f4 [105]
000000 28 0c a0 bb dd 74 7a 3c 17 5d 52 3d 73 16 66 3d
       -0.0048842616 0.015286651 0.05135831 0.056173753
000010 3c ba 14 3d 77 2b 95 3b a4 15 85 3b f8 f7 05 3d
       0.03631042 0.0045523006 0.0040614177 0.032707185
000020 f8 e0 87 3d 94 7a c1 3d e5 53 8c 3d 00 f9 2a 3d
       0.06634706 0.09447208 0.06851939 0.04174137
000030 36 24 64 3d e6 06 9d 3d 1d 6b 1d bc 70 e3 c6 3b
       0.055698596 0.076673314 -0.009608057 0.006069593
000040 4e 73 42 bd 9e 48 90 bd 89 1a 7c bd ff 57 8e bc
       -0.047473244 -0.07045101 -0.061548743 -0.017375944
000050 56 43 b9 3d 21 34 44 3d 4a 20 4c 3b ec c8 1b 3c
       0.090460464 0.047901276 0.0031147175 0.009508353
000060 7a d0 a7 3d 89 ea 13 3d 84 51 c9 3d a8 f3 3f 3d
       0.081940606 0.036112342 0.09830001 0.046863228
000070 9b 73 92 3d 04 c4 13 bd 8d 8e fd 3b b0 e4 b4 3c
       0.07150956 -0.036075607 0.0077379406 0.022081703
000080 08 e2 db 3c ed 00 ab 3c 53 ad 05 3d 29 e4 64 3d
       0.026841179 0.020874465 0.032635998 0.055881653
000090 6b 29 31 3c 2b 3d ca 3d 43 8d 49 bd e4 89 45 3d
       0.0108130975 0.09874948 -0.049206983 0.048227206
0000a0 f9 4c 8e bd f0 ae 74 bd 56 64 c3 bc b9 45 d8 3d
       -0.06948275 -0.059737146 -0.023851555 0.105601735
0000b0 9f 3c 65 3d 77 59 af 3c c9 e3 83 bb ec 5e 4d bd
       0.055966016 0.021404965 -0.004024957 -0.050139353
0000c0 59 78 d4 3d e8 b5 35 3d 0a 2a 70 3d ff f6 ed 3d
       0.10374517 0.044362932 0.05863384 0.116193764
0000d0 32 1d bd bb cd 05 44 bb df 8b ea 3c b3 e2 5a bd
       -0.0057713026 -0.0029910684 0.028631149 -0.053438853
0000e0 47 3e 1f bd 34 8e c2 3d 6a cb 3e 3d 25 95 e6 3d
       -0.03887775 0.09499779 0.04658071 0.11258916
0000f0 d9 de d6 bc 17 2e a9 3d 9b 8f d2 bc f7 2b 27 bc
       -0.026229309 0.08260744 -0.025703242 -0.010203353
000100 b3 bc 0e bd 19 09 86 3d 68 a1 11 bd 3a 06 95 3d
       -0.034847926 0.06544704 -0.03555432 0.07276578
000110 e1 0e 03 3e 33 66 a0 bc 60 42 66 bd 30 36 ce 3c
       0.12798645 -0.019579982 -0.056215644 0.025172323
000120 80 07 b7 3d 64 3d 2a 3d b2 93 39 3d 86 7a 1a bc
       0.089369774 0.041562453 0.04530687 -0.009428626
000130 8b 02 af 3c 47 a2 07 bc 05 39 0f bd be 8f c4 bc
       0.021363517 -0.008278436 -0.034966487 -0.023994323
000140 7c 93 6a 3d d5 45 ee 3d e8 e5 46 3d b0 f6 17 3c
       0.05726956 0.11634413 0.0485591 0.0092751235
000150 39 69 0a bc ec 6e 8d 3d 3b b8 52 3d 24 fb d7 3d
       -0.008447939 0.06905922 0.051445227 0.10545948
000160 d5 5e d4 3b 99 7e b8 3d a3 a9 20 bd 23 55 6b 3d
       0.0064810314 0.090085216 -0.03922428 0.05745424
000170 3a a6 a8 bb b7 c0 91 bc 2e 2c 57 3d bd 09 17 bd
       -0.005146769 -0.017792089 0.052532367 -0.03687452
000180 64 a3 d3 3b 69 9d 2b 3d 65 3c ad 3c e9 0c 99 3d
       0.0064586867 0.041898165 0.021146962 0.074731655
000190 a5 68 4b 3c 87 d9 78 3d 4e 90 1a 3d 57 0d 36 3c
       0.012415086 0.060754325 0.037735276 0.011111579
0001a0 de 91 56 3c
       0.013096301

linear3.weight f4 [10, 105]
000000 c8 cd 25 3d e1 55 d7 bd ec 39 06 be 52 67 91 bd
       0.04047945 -0.10514427 -0.13108033 -0.07099785
000010 b3 7d 3a 3e 32 c7 16 3c d7 cf 02 be a7 77 5e bd
       0.18212013 0.009202765 -0.12774597 -0.054313328
000020 55 57 83 be 6b e5 7b 3c 8f 75 12 be 8c 3d a5 3e
       -0.25652567 0.015374522 -0.14302658 0.3227352
000030 a5 20 2d be 52 d1 6e 3d 1e 59 31 3e b1 99 8d 3e
       -0.16906984 0.058305092 0.17319152 0.2765632
000040 4e 39 bf 3d 75 ea 29 3d 03 2c 3b 3e b4 d2 b4 3d
       0.09337102 0.04148336 0.18278508 0.08829251
000050 08 c4 91 3e a3 c8 ed 3d 9f 10 68 be b7 2d 50 3e
       0.28469872 0.11610534 -0.2266259 0.20329939
000060 cb 21 64 3e a9 c8 2c bb 31 30 7b 3d 34 62 2f 3e
       0.22278516 -0.002636472 0.061325256 0.17127305
000070 f5 38 88 3e ff 9f 37 3e cb 0c b2 bd b7 65 14 be
       0.26605955 0.17932127 -0.08693846 -0.14491926
000080 02 4a f4 3d e6 8c 0a 3e 5a 97 ad bd 3c b4 8d bd
       0.11928178 0.13530311 -0.08476134 -0.069191426
000090 31 eb 8b be 17 53 3d 3e 74 0b c2 3d ac 2c 2f 3e
       -0.27327874 0.18488728 0.09474841 0.17106885
0000a0 aa ff 30 be 73 a4 7b 3e 86 c2 8c 3e 9f 18 3e 3e
       -0.17285028 0.24574451 0.2749216 0.1856408
0000b0 59 0c 2f be ca dc 39 3e b6 f3 5c 3e a2 f6 b8 3c
       -0.17094554 0.1815063 0.21577343 0.022578541
0000c0 4e 9e a5 3e 9d 70 53 3e 43 f3 73 3e d0 b5 30 be
       0.3234734 0.20648427 0.23823266 -0.17256856
0000d0 4e fd 19 3e 3f 45 05 3e f7 fd 0a be 00 89 88 be
       0.15038034 0.13014697 -0.13573442 -0.26667023
0000e0 86 9a 59 be 95 2f 9c bd 6f d5 fe bd 87 cf b3 3d
       -0.21250352 -0.07626263 -0.12443053 0.08779817
0000f0 f2 07 69 3a 79 4d 8c 3e fe cd 86 be 07 66 b1 be
       0.00088894286 0.27402857 -0.26329035 -0.34648153
000100 c5 ec 15 3d ec cc 87 be 0d fe 84 3e 12 2a ca 3e
       0.036602754 -0.2652353 0.25975075 0.39485222
000110 db dd 04 3e 14 46 30 be 87 41 3a be d9 1a 5d 3e
       0.12975256 -0.17214233 -0.18189059 0.21592273
000120 5b b3 66 3d 45 e9 02 bd 4d f5 26 bd 66 63 08 bd
       0.05632339 -0.031960744 -0.04076128 -0.03329792
000130 27 e4 34 3d 98 7c 1b 3e b2 41 93 bd 55 d0 1d be
       0.044162896 0.15184247 -0.07190265 -0.15411504
000140 cd a3 59 3e e5 e7 84 3e 4f 65 14 3e 7b b1 87 3d
       0.21253891 0.2595817 0.14491771 0.066256486
000150 13 7d 1f 3e 5b 89 d7 3d 54 e7 30 3d f5 ee ea bd
       0.15575056 0.10524245 0.04318936 -0.11471359
000160 2d 55 86 be ad de 91 3e 5a e3 36 3d b1 db 5d 3e
       -0.2623686 0.284902 0.044650413 0.21665837
000170 4d bb 2d 3e 32 d5 3f be e6 2f bc 3e f8 fd 51 3e
       0.16965981 -0.18733671 0.36755294 0.20507038
000180 c3 1b cc bc b0 09 fb bb 76 52 aa 3d ed 68 12 be
       -0.024915582 -0.007661067 0.083165094 -0.14297839
000190 23 ae 3d bc 08 16 d2 bd 6d 4b 6c be df c0 4e 3e
       -0.011577162 -0.102581084 -0.23075648 0.20190762
0001a0 f0 b9 26 be 2b 98 0a 3e d2 b1 84 3d d1 0c 14 3e
       -0.16281867 0.1353461 0.06479229 0.14458014
0001b0 e0 ce 8f bd f5 94 07 3e 01 b9 a9 3d 8d 0c e8 bd
       -0.0702188 0.13240416 0.0828724 -0.11330519
0001c0 0e d7 9b 3c f8 92 33 bd 1f 1f a3 3e a7 c1 f6 3c
       0.019023445 -0.043841332 0.3185968 0.030121638
0001d0 d8 74 33 be 15 3f e2 bc 7f 1f e6 3d dc 37 0f be
       -0.17525041 -0.02761797 0.11236476 -0.13986152
0001e0 13 36 90 3d 9d cc 11 3e bd 25 b8 bd d7 49 2b 3e
       0.07041564 0.1423821 -0.08991573 0.16727386
0001f0 e1 36 a8 3d 09 75 32 3e 4c 95 a7 3d 7e 11 76 3d
       0.08213592 0.17427458 0.08182773 0.060075276
000200 d7 9d 0c be b7 61 0c bd 5b 62 a4 3d 48 7b ca bd
       -0.13732086 -0.034272876 0.08026572 -0.09886795
000210 99 02 68 be 2c d1 fc bd 93 8a 08 3d 47 f2 2b 3e
       -0.22657241 -0.12344584 0.03333528 0.1679164
000220 d2 90 34 3e 71 b0 50 3e 48 d4 49 3e d8 f9 12 3e
       0.1763337 0.20379807 0.19709885 0.1435312
000230 41 74 6d 3e e1 db a6 3d f1 68 b2 3d bd 0b 73 3e
       0.23188879 0.08147407 0.08711422 0.23734947
000240 71 14 73 3e 9b af e2 bd 62 b9 23 be dc 4e 88 3e
       0.23738267 -0.1106865 -0.15988687 0.26622665
000250 f8 d6 78 be 2b 6e a4 be 52 44 d7 3d 04 e4 75 3e
       -0.24300754 -0.321153 0.10511078 0.24012762
000260 0c 2a 5e 3e c8 41 95 3e 13 b3 1f 3e ad 5e 51 3e
       0.21695727 0.2915175 0.15595655 0.20446272
000270 07 54 c4 be 6d b5 8b 3e f3 ec 74 3e 84 98 1d 3c
       -0.38345358 0.27286854 0.23918514 0.009618882
000280 8c 8f 17 be 50 fa d5 3d 60 2a 6a bd 5b b9 35 be
       -0.14800853 0.10448134 -0.05716932 -0.17746489
000290 50 e2 01 3d 2f 0f 04 be 0a 66 01 be 8b 75 28 be
       0.03170997 -0.12896417 -0.12636581 -0.16451089
0002a0 61 ec 2d 3d 3b 7a 89 3e e1 9b a6 bd af e6 88 be
       0.042461757 0.26851067 -0.081352 -0.26738498
0002b0 79 00 9b 3e 86 09 28 3e 77 fc 6f bd 9e a6 ad be
       0.30273798 0.16409883 -0.05859038 -0.3391618
0002c0 d3 2a e2 3c 99 9c 8b be c1 1a 0f 3e 75 b8 2c 3e
       0.02760831 -0.27267912 0.1397505 0.1686724
0002d0 70 c4 b5 bc 07 ed 94 3e 33 02 1f be 9c 9d 6c 3c
       -0.022188395 0.29087088 -0.15528183 0.014441874
0002e0 1f 4d b9 bc 49 ed c7 bd da 22 ae bd 9b 8e a6 3d
       -0.022619782 -0.097620554 -0.08502741 0.081326686
0002f0 85 4a a8 3d d2 ba 42 3e 8d 8e 76 3d 29 b7 f5 3d
       0.082173385 0.19016579 0.06019454 0.11997826
000300 de 52 7f bd ce bd 49 be 09 e0 23 be e8 cd 1e 3e
       -0.062334888 -0.19701311 -0.16003431 0.15508235
000310 1c 47 08 3d 16 64 ae 3d 6c d0 9d 3e bb 6a 7f 3e
       0.03327094 0.08515184 0.30823076 0.24943058
000320 5e d9 08 be d3 7f 60 3e 2f 80 80 3e 83 c7 a1 bd
       -0.13364169 0.21923761 0.25097796 -0.07899382
000330 66 61 86 3e c1 72 8b be b6 ac 11 bd a1 7e 5b 3e
       0.26246184 -0.27235988 -0.0355651 0.21435024
000340 0d 02 44 3e 8c 1d d0 3c 16 41 95 3e fe a9 49 be
       0.19141407 0.025404714 0.2915122 -0.19693753
000350 e9 1d 8a be fa d1 53 be 16 4f 18 3d 4d 70 87 bd
       -0.26975945 -0.20685568 0.037184797 -0.066132165
000360 84 6d 4b bc 97 56 9f 3e e6 78 4a bd c9 cf 81 3e
       -0.012416247 0.3112075 -0.049431704 0.2535384
000370 12 27 6e 3c 9a 13 05 3e 69 a3 87 3e 18 55 02 be
       0.014535682 0.12995759 0.2649186 -0.12727773
000380 88 7f 73 bd db e0 04 be 56 24 2e 3d 77 43 b0 3d
       -0.059447795 -0.129764 0.04251512 0.08606618
000390 20 7e 5b 3e 5f d7 23 3e 9b c1 0d be 6b 34 4f bd
       0.21434832 0.16000126 -0.13843386 -0.0505871
0003a0 83 db 90 be ba 05 a3 be 45 60 91 3e 05 cf e7 3c
       -0.28292474 -0.31840307 0.2839376 0.028296957
0003b0 60 76 91 bd 4a 44 a5 be 01 88 19 3e 71 d7 aa 3d
       -0.07102656 -0.32278663 0.14993288 0.083418734
0003c0 fe 05 00 be 47 8e 20 be a2 a3 76 3e f2 a3 78 3e
       -0.12502286 -0.15679274 0.24085858 0.2428129
0003d0 db 5a e4 3d f7 8e a4 bd ed 0d 83 be cb 3f 59 bd
       0.11150142 -0.08035081 -0.25596562 -0.053039353
0003e0 0d d8 52 3d bd 47 80 3e 08 63 86 3d b1 30 ad 3d
       0.051475573 0.25054732 0.065618575 0.08456553
0003f0 f7 b6 06 3e 22 ea 95 bd 60 1c 8f be 1c d3 30 3e
       0.13155733 -0.07320048 -0.27951336 0.17268032

linear3.bias f4 [10]
000000 f9 78 f2 3b 43 44 57 bd c1 da fd 3d 30 a2 12 3d
       0.007399675 -0.052555334 0.123952396 0.035799205
000010 31 16 2a 3c b3 31 ec ba 23 47 0d 3d fb 85 12 bd
       0.010381267 -0.0018020183 0.03449167 -0.035772305
000020 b6 90 a9 3c fd af a6 3d
       0.020698886 0.08139036

linear4.weight f4 [10, 40]
000000 d9 91 b4 bd f0 c6 81 bd 5c d3 d8 bc 68 3a 8f bd
       -0.08816881 -0.063367724 -0.026467972 -0.06993562
000010 55 18 09 be 5c f0 06 be e3 e8 1e bd 7b ce 30 3e
       -0.13388188 -0.13177627 -0.038796317 0.17266266
000020 15 29 9b 3d de 08 50 be 9b 41 48 3e f5 8d 26 be
       0.07576195 -0.20315883 0.19556277 -0.1626509
000030 06 48 42 3e e6 ef 0e 3d da d5 5b 3e 9d 17 5d be
       0.18972787 0.034896754 0.21468297 -0.21591039
000040 6f 24 c8 be 95 0d 05 3e ed a8 86 be a2 27 23 bc
       -0.39090297 0.12993462 -0.26300755 -0.00995818
000050 40 3c 8e bc dd 88 82 3e 15 b6 8f 3e 24 b0 bc bd
       -0.017362714 0.25495043 0.28068605 -0.09213284
000060 7e d6 8a bc a2 92 d8 3d df 17 2a be 21 49 2e 3e
       -0.016947981 0.10574843 -0.16610669 0.17020084
000070 8c e3 4b be a2 73 78 3e 93 da 66 3d eb f2 af be
       -0.19911021 0.2426286 0.056360792 -0.3436502
000080 d2 13 50 be 5d e5 80 be 97 ce 39 3e 89 30 62 be
       -0.20320061 -0.2517499 0.18145214 -0.22088827
000090 27 94 63 be 63 6e 95 bd 25 63 05 be f0 05 52 3d
       -0.22224484 -0.07296445 -0.13026102 0.051275194
0000a0 cd 5b 1c 3c c9 d9 53 3e 6a 76 da 3d 35 dd 87 3d
       0.009543371 0.20688547 0.10667117 0.06633989
0000b0 b6 30 80 bd 3d 4b 3f 3e a5 77 4b be 2c ef ae 3d
       -0.06259291 0.18681045 -0.1986986 0.08541712
0000c0 00 84 e5 3d 8d 17 30 be a2 63 c6 3d 10 fd 22 be
       0.112068176 -0.17196484 0.09686972 -0.15916848
0000d0 70 06 95 3e 55 d8 4f 3e c5 b1 86 be d0 33 8f 3d
       0.29106474 0.20297368 -0.26307502 0.06992304
0000e0 b6 30 3e be 18 a7 32 3e 62 21 13 3d 6f c4 37 be
       -0.18573269 0.17446554 0.03592051 -0.17946027
0000f0 57 0b 26 be 55 0c 43 be 47 01 a0 3d 6c d2 17 3e
       -0.16215263 -0.19047673 0.07812744 0.14826363
000100 45 64 12 3d 28 1f 67 be e6 71 ba 3e 4f b7 2f 3d
       0.035740156 -0.22570479 0.36415023 0.042899426
000110 77 9f 34 3e 6d 47 ea bd 3e 01 1e 3e 97 9b d6 3d
       0.17638956 -0.11439405 0.15430161 0.10478895
000120 2d d9 2c bc 5d 8a e0 bd de 24 9a be ca d2 25 3e
       -0.010549826 -0.10963891 -0.30106252 0.16193691
000130 61 56 36 3d 37 c8 d7 bc 9c 17 92 be 30 88 62 be
       0.04451597 -0.026340587 -0.28533638 -0.22122264
000140 02 9e cf bc 04 ef d4 bd df 0b 66 be 3f aa 7c 3e
       -0.025343899 -0.10397151 -0.22465466 0.24674319
000150 12 bc 84 be 2b 8e 98 3e 94 b1 9b bd 6b bc 97 bd
       -0.25924736 0.29795966 -0.0760223 -0.07408985
000160 ec 6e 9b be 0c 0c 47 be 11 6e c2 bc b9 22 30 3e
       -0.30358064 -0.1943819 -0.023734124 0.17200746
000170 48 67 ec 3d 1a c6 0d 3e 21 9a 5a 3e 3c 7a e9 bd
       0.11543137 0.13845101 0.21347858 -0.114002675
000180 18 19 a0 be 30 fb 4d bd dc 9a 88 be 15 24 87 be
       -0.31269145 -0.05028838 -0.26680648 -0.26394716
000190 72 6c 4e 3e b4 73 ff 3d 3d cc 35 bd 70 2e 93 3e
       0.20158556 0.124732405 -0.04438423 0.28746367
0001a0 b2 db bf 3c 26 75 c0 3c e3 8f a3 be 80 d0 4a 3e
       0.023420189 0.02349336 -0.31945714 0.19806099
0001b0 9a 18 93 3d 9d 68 59 bd 57 06 8d bd 10 ab 3b be
       0.07182427 -0.053078283 -0.06885975 -0.18326974
0001c0 c6 49 8a be a8 0f 0b 3d ca 97 a4 bd 4b 84 88 3d
       -0.2700941 0.033950478 -0.08036764 0.06665858
0001d0 d6 f5 b5 3e 09 4f 7c be 12 59 5c be 2c 3c 06 3d
       0.3553912 -0.24639525 -0.21518353 0.032772228
0001e0 e8 48 e2 bd f0 fb ec 3d fb 4e 90 be 19 f4 1d 3e
       -0.11049062 0.11571491 -0.28185257 0.15425147
0001f0 30 fe b3 be 84 98 54 3e b3 20 2a 3e 4d 7f 89 3d
       -0.35154867 0.20761305 0.16614036 0.06713734
000200 35 68 a0 be 5a 63 14 be b6 80 1f be ed cb 3d 3e
       -0.31329504 -0.14491025 -0.15576443 0.18534823
000210 25 30 60 bd a7 03 34 3e 9d 10 03 be b5 11 12 3e
       -0.054733414 0.17579518 -0.12799306 0.14264567
000220 1b 88 e5 bd d4 50 63 be 0d 18 bf be f0 08 6b bd
       -0.11207601 -0.22198802 -0.37323037 -0.05738157
000230 b2 92 59 3e 4b 70 5d 3e 46 8b 16 be cd b9 2a be
       0.21247366 0.21624868 -0.14701566 -0.1667244
000240 8d 89 68 3e f6 3f 9f 3d 8e 35 07 3e de 4b 73 be
       0.22708721 0.077758715 0.13204023 -0.2375941
000250 6d 93 1f be c8 03 b2 be 61 da 87 bd 0d 9f 61 3c
       -0.15583582 -0.3476851 -0.06633449 0.013770831
000260 aa 81 c7 3d ae 3c 3d 3c 62 e2 63 3e 46 a2 3c be
       0.09741528 0.011550112 0.22254327 -0.18421277
000270 da 41 56 be 71 33 3c be 13 83 b9 bd fd 41 41 3e
       -0.20923558 -0.18378998 -0.090582035 0.18872829
000280 d9 0c c1 bc 19 1f c2 bb e8 89 1a 3e 88 aa 1b 3c
       -0.023565697 -0.0059241173 0.1509167 0.009501107
000290 04 35 1f 3e 13 3c 98 be 5c e3 c9 3d c2 d1 bd 3d
       0.15547568 -0.29733333 0.098578185 0.09268524
0002a0 d1 05 bb 3d b9 76 ce 3e 11 82 a7 be 8b 7a 24 be
       0.09131969 0.40324953 -0.3271642 -0.16062371
0002b0 a0 46 a7 3d 91 9c d5 bd cf f9 55 be 58 4c 50 bc
       0.081677675 -0.10430253 -0.20896076 -0.012713514
0002c0 a1 c7 c0 bd e6 c1 38 3e 23 52 46 3e 16 cd 24 be
       -0.09413076 0.18042716 0.1936727 -0.16093859
0002d0 41 56 32 be a9 9b b4 be 6c 36 1d be 66 84 07 be
       -0.17415716 -0.3527501 -0.15352792 -0.132341
0002e0 fc aa 50 3e 3c 6c 03 3e 43 16 e1 bc 7c 58 eb bd
       0.20377725 0.12834257 -0.027476436 -0.114914864
0002f0 d9 08 12 3e a4 1e 54 3e 80 ac 40 bc c9 06 c8 bd
       0.14261188 0.20714813 -0.011759877 -0.09766919
000300 e6 e2 3b 3e 2d 64 b6 3d d8 8b 67 be 6e 37 c3 bd
       0.18348274 0.08905826 -0.2261194 -0.09532057
000310 0c d2 09 bd 25 f0 ca bc 70 06 3f 3e 24 b1 cc be
       -0.033647582 -0.024772713 0.186548 -0.39978898
000320 2a ef a4 bd 66 3f 3a 3d 23 aa 37 3d ba 7f 5f bd
       -0.080534294 0.045470618 0.04483999 -0.05456517
000330 cb e0 37 3e 28 e2 cb 3d 27 74 9c be 19 5b 14 bc
       0.17956845 0.09955245 -0.30557367 -0.0090549225
000340 de 44 4b be ed 79 4c 3e 7b bf 07 3e b3 67 38 be
       -0.1985049 0.19968386 0.13256638 -0.18008308
000350 50 aa e4 3c 7f 02 66 3e 1a bb 57 be 19 3a ad be
       0.027913243 0.2246189 -0.21067467 -0.33833387
000360 f0 67 c3 3e 25 0e 5e be 10 2b 8e 3d 75 fd b4 3d
       0.38165236 -0.21685083 0.06941807 0.088374056
000370 09 3d aa 3d 4c e0 08 3e 76 ed 56 be 78 e6 e2 3d
       0.08312423 0.13366812 -0.20989022 0.11079115
000380 c9 f4 9d 3c 86 10 fa bc 6b 47 63 3e fd 99 e1 bd
       0.019281762 -0.030525457 0.22195213 -0.11015699
000390 0a 08 b4 bd 21 ae ee 3c 0e 2a 17 be c7 6c 15 3e
       -0.08790596 0.029135766 -0.14762136 0.14592277
0003a0 36 2a 1b be 3a 83 36 be 00 f2 70 3e f3 cf 14 3e
       -0.15152821 -0.17823496 0.23529816 0.14532451
0003b0 b3 e1 05 be c1 f6 07 be 80 b0 a9 3d ff ea 39 bc
       -0.13074379 -0.13277723 0.08285618 -0.011347531
0003c0 1a 79 3d be 4c f3 8b bc 05 ff 6d 3e 31 ca 0a 3e
       -0.18503228 -0.017083786 0.23241813 0.13553692
0003d0 83 24 ae bc fa 19 94 be 5e 95 ba bd cc 75 4b 3e
       -0.021257645 -0.2892607 -0.09110521 0.19869155
0003e0 55 db 07 3e 67 17 3f 3e f0 7b 38 bd cd 78 8d be
       0.13267262 0.18661271 -0.04504007 -0.27631226
0003f0 1e 4f c8 be 6e bd 1f 3e 32 8c 2e be 60 9a 30 be
       -0.39122862 0.15599605 -0.17045668 -0.1724639

linear4.bias f4 [10]
000000 97 8a 07 bd b0 b1 6a bd ab 72 02 3e dd d2 a6 3d
       -0.033091154 -0.057298362 0.12739055 0.08145688
000010 45 50 f6 3d e1 b4 bb 3d a1 c7 d8 3d 71 dd 63 bc
       0.12027029 0.09165359 0.10584951 -0.013907776
000020 cd 5b 89 3d 02 2d 88 3d
       0.06706963 0.066492096

exp_avg f4 [210, 196]
000000 c6 f1 22 b9 9b 7a 2b b9 b5 cb ec b8 92 30 8e b8
       -0.00015539592 -0.00016353505 -0.000112913 -6.7801346e-05
000010 34 5d 36 b8 f5 f1 75 b7 2d 50 47 b7 ba 99 ce b6
       -4.3478984e-05 -1.4659473e-05 -1.1879992e-05 -6.1571745e-06
000020 de 13 ca 37 65 0d c0 37 ae 9a cb 37 82 9a a9 37
       2.4089528e-05 2.289442e-05 2.4271514e-05 2.0218318e-05
000030 36 a8 85 38 9e 2d db 38 91 c0 41 b9 a2 c6 0a b9
       6.373266e-05 0.000104512306 -0.00018477651 -0.00013234702
000040 fc 3d a3 b8 53 6d 41 b8 54 eb c4 b7 e8 ea 42 b7
       -7.783991e-05 -4.6116602e-05 -2.3474604e-05 -1.16179945e-05
000050 9f 96 51 b7 c9 dd df b6 d0 c9 c9 37 76 d7 dd 37
       -1.249244e-05 -6.671737e-06 2.4055043e-05 2.6445585e-05
000060 aa 51 f4 36 f7 37 22 b8 87 66 9e 38 66 0f c1 38
       7.2812736e-06 -3.867593e-05 7.553124e-05 9.205825e-05
000070 86 54 4f b9 30 7e 0d b9 8e 44 d0 b8 4a ae e8 b8
       -0.00019772546 -0.00013493816 -9.930982e-05 -0.00011095086
000080 73 9f c4 b8 48 23 8f b8 06 d4 0c b8 d0 5b 1b b8
       -9.375708e-05 -6.825343e-05 -3.3576063e-05 -3.7040387e-05
000090 e3 a6 d1 b6 23 33 b5 b7 dc 8c 22 b8 06 dd 0c b6
       -6.2481136e-06 -2.1600694e-05 -3.8754995e-05 -2.0990278e-06
0000a0 51 87 d7 38 81 ae de 38 dc 99 22 b9 ee e8 ea b8
       0.000102772035 0.00010618289 -0.00015506841 -0.00011201376
0000b0 12 ae e9 b8 d4 8c ee b8 41 ef c1 b8 75 d2 cc b8
       -0.00011142729 -0.00011374956 -9.247522e-05 -9.766679e-05
0000c0 44 02 79 b8 e2 0e 35 b8 a5 e7 1c b8 af 17 15 b8
       -5.9368336e-05 -4.3167624e-05 -3.7409034e-05 -3.5546425e-05
0000d0 fa ff 22 b8 8d 6a b3 37 d7 33 ce 38 f0 45 d5 38
       -3.8862207e-05 2.138808e-05 9.8325014e-05 0.00010169658
0000e0 e2 29 85 b8 9c c4 51 b8 c5 70 39 b8 a4 34 98 b8
       -6.3497355e-05 -5.001259e-05 -4.4212462e-05 -7.25773e-05
0000f0 2c 25 8a b8 1d 0d aa b8 4e 79 93 b8 03 64 2e b8
       -6.5872766e-05 -8.108674e-05 -7.032101e-05 -4.1577976e-05
000100 67 90 22 b8 54 86 1f b8 92 7c 45 b8 53 32 4c 38
       -3.8758295e-05 -3.8033657e-05 -4.7084475e-05 4.868426e-05
000110 6c 9f c1 38 5e 79 96 37 b5 70 bd b5 9b 27 d0 b7
       9.232652e-05 1.793791e-05 -1.4114399e-06 -2.4813975e-05
000120 39 06 43 b8 73 2e 01 b8 70 97 63 b8 df e8 84 b8
       -4.649742e-05 -3.0799256e-05 -5.4262055e-05 -6.337626e-05
000130 5c d0 28 b8 2c 82 00 b8 a0 60 00 37 43 30 26 b8
       -4.024837e-05 -3.063881e-05 7.651892e-06 -3.962243e-05
000140 8d 39 3e b8 07 6b 8f 38 a3 ef 69 38 ea 1a e8 b8
       -4.535313e-05 6.838707e-05 5.5774708e-05 -0.00011067635
000150 49 6c 26 39 87 a5 2c 39 9b db 05 39 22 7a 7e b7
       0.00015871333 0.00016464862 0.00012765678 -1.5168016e-05
000160 dd c9 ab b7 74 8c e3 b7 fb 6d b7 b7 1a 64 74 b7
       -2.0478788e-05 -2.7125912e-05 -2.1866514e-05 -1.456684e-05
000170 1c 9f f7 37 17 01 e7 37 4c 42 4f 38 c0 be a5 38
       2.9518786e-05 2.7537853e-05 4.941439e-05 7.903343e-05
000180 7b 46 ab b7 81 47 14 b9 9a 4e 0a 39 6c 14 33 39
       -2.0417609e-05 -0.00014141017 0.00013189987 0.00017078378
000190 ca 06 0a 39 d3 c5 4b b6 30 c2 b6 b6 0a cc 8e b7
       0.00013163235 -3.0364506e-06 -5.446629e-06 -1.7022732e-05
0001a0 54 27 a4 b7 c3 9a ef 37 b5 6c 97 37 77 1b 7b 38
       -1.9568637e-05 2.8563087e-05 1.8051223e-05 5.9868642e-05
0001b0 8e 81 d4 38 c8 eb 5b 38 d0 08 a8 b8 42 ff 17 b9
       0.00010133079 5.2433257e-05 -8.012506e-05 -0.00014495573
0001c0 8e ee a4 37 0e 95 7d 38 d4 c5 c1 37 6a 20 0c 36
       1.966141e-05 6.045872e-05 2.3099514e-05 2.0880493e-06
0001d0 93 0b 31 b5 1b 5d 8f 37 3c 41 42 38 d9 e1 49 38
       -6.595448e-07 1.7090284e-05 4.631396e-05 4.813247e-05
0001e0 0f f9 90 37 8c b1 d9 37 c5 5f bc 38 cb fa ac 38
       1.7282115e-05 2.5951093e-05 8.982377e-05 8.248313e-05
0001f0 77 5d 89 38 2f ff c3 b8 4b 38 bc b7 66 ff 52 36
       6.550078e-05 -9.345856e-05 -2.243756e-05 3.14411e-06
000200 55 d9 f6 b7 c0 45 ab b4 0b 9f 27 b7 26 e9 0b 39
       -2.9426688e-05 -3.1901982e-07 -9.991006e-06 0.00013342928
000210 ae a2 8b 38 34 6c 42 38 74 4f ef b7 3c 6d 2e b8
       6.658338e-05 4.6353976e-05 -2.8528018e-05 -4.1586565e-05
000220 28 82 04 38 c6 15 e2 38 bf 5f a1 38 ae 3d 6b 38
       3.159247e-05 0.000107805754 7.694912e-05 5.608581e-05
000230 d5 19 97 b7 63 bc c2 b6 da bc ab b6 f8 3b 5a 38
       -1.8012632e-05 -5.8035816e-06 -5.1181823e-06 5.20311e-05
000240 97 71 21 39 41 ad 4c 39 a1 85 52 39 53 a5 e9 38
       0.00015396472 0.00019519498 0.00020076941 0.000111411
000250 be 31 03 b8 7f f9 d9 b8 76 9d 10 38 c8 5f dc 38
       -3.127916e-05 -0.000103938386 3.4478922e-05 0.00010508258
000260 40 13 98 38 ac 09 74 38 fd ca 01 39 46 da 81 38
       7.2515104e-05 5.818314e-05 0.00012378018 6.191856e-05
000270 fd 9d e1 38 73 1a ca 38 1c 3b 97 38 4d ec 10 39
       0.00010758264 9.637037e-05 7.211251e-05 0.00013820939
000280 af c4 34 39 6d 67 b9 38 08 cf de 37 46 32 9c b8
       0.00017239408 8.840752e-05 2.6560869e-05 -7.448024e-05
000290 a7 06 39 b8 73 da a6 37 4a 09 a7 37 82 f9 77 38
       -4.4113633e-05 1.9890465e-05 1.9912277e-05 5.912176e-05
0002a0 51 25 4f 39 47 dd 9f 38 0f 52 35 38 8f 7f 6d 38
       0.0001975496 7.622927e-05 4.3230186e-05 5.6624e-05
0002b0 1d 9b 2b 38 4e 30 69 38 88 74 c3 b7 b5 27 bb b8
       4.0914038e-05 5.5596516e-05 -2.3300076e-05 -8.924251e-05
0002c0 e6 d8 f7 b6 66 85 a3 37 b5 81 10 38 b6 77 12 38
       -7.386424e-06 1.9493233e-05 3.4453074e-05 3.4920602e-05
0002d0 a7 42 5b b8 00 44 4f b8 44 22 90 38 4d a6 46 38
       -5.2275744e-05 -4.9415976e-05 6.8728375e-05 4.736176e-05
0002e0 25 4a 8b 38 6c ef 6a 38 f9 01 83 38 f9 15 6c 38
       6.641847e-05 5.6012927e-05 6.246934e-05 5.628725e-05
0002f0 f6 d3 71 b8 eb d2 41 b9 b5 4c d8 b8 c2 9b 8a 37
       -5.765628e-05 -0.00018484487 -0.000103139704 1.6523412e-05
000300 37 a5 d4 31 00 b0 99 b8 c8 60 17 b9 b6 66 01 b9
       6.188795e-09 -7.328391e-05 -0.00014436536 -0.00012340661
000310 21 0f fb b8 a9 51 08 b9 4e 6b ea b8 b4 01 c6 b8
       -0.00011971431 -0.00013000391 -0.000111779766 -9.441693e-05
000320 8b 0c 91 b8 a3 11 98 35 ef 98 26 39 43 0e 34 39
       -6.916475e-05 1.1330015e-06 0.00015887966 0.0001717145
000330 0b 5b 2c 39 59 d7 6d 39 e7 00 6b 39 88 9b 32 39
       0.00016437114 0.00022682305 0.00022411683 0.00017033343
000340 42 b8 32 39 ae 9f 33 39 82 a6 0c b9 91 8c f1 b8
       0.00017044044 0.00017130256 -0.0001341347 -0.00011517958
000350 aa 21 9a b8 13 8b 98 b8 f6 6b 4f b8 54 9a a4 38
       -7.349563e-05 -7.2738294e-05 -4.9453192e-05 7.848875e-05
000360 15 e3 50 39 1a 61 33 39 0b 4c 28 39 da 1c 57 39
       0.0001992102 0.00017106943 0.00016050057 0.00020514746
000370 57 43 80 39 ff 16 33 39 b2 08 2c 39 9b ed fd 38
       0.00024464235 0.00017079337 0.00016406437 0.000121082376
000380 0a 7b 07 b9 0d f1 88 b8 0c 20 89 b8 99 be ad b8
       -0.00012920439 -6.5298846e-05 -6.538638e-05 -8.2847844e-05
000390 b9 74 51 b8 6f da c0 36 cd bd 17 39 ce 16 2f 39
       -4.993819e-05 5.747475e-06 0.00014471188 0.00016697796
0003a0 22 ef 2e 39 9f fd 64 39 f2 00 81 39 8a 7a da 38
       0.00016683017 0.00021838256 0.00024605502 0.00010417875
0003b0 4a 5a 06 38 43 75 83 b7 de 8a 8b b8 01 e9 15 b8
       3.2032178e-05 -1.5671021e-05 -6.6539025e-05 -3.574137e-05
0003c0 0b 30 90 b8 3b ec a7 b8 9d 94 53 b8 dd 3d 13 b7
       -6.875404e-05 -8.007182e-05 -5.0444727e-05 -8.776286e-06
0003d0 5d fe 5a b7 4c 2b 00 b5 0d cf 91 36 e5 0d b2 38
       -1.3053036e-05 -4.774672e-07 4.3454406e-06 8.4902895e-05
0003e0 14 11 a7 38 0b b8 1a b7 69 c8 7c b7 dc ae 8a b7
       7.9663616e-05 -9.221966e-06 -1.5067032e-05 -1.6532307e-05
0003f0 2d a5 97 b7 ce 52 e7 b7 c1 f6 6d b8 3a ea 64 b8
       -1.8077519e-05 -2.7575905e-05 -5.673501e-05 -5.4577577e-05
