HW1/saved models/Model 7 - Split image-16, lr=0.001, wd=0.0001, bs=32.pkl (torch_old, 720302 bytes, 12 tensors)

linear1.weight f4 [285, 49]
00000000: 8561 1a9e 7ca5 bb1e da76 50a2 12fc 58a7
00000010: 26a9 6e29 ec35 6da5 1a03 82a3 444b 161f
00000020: 4126 23a1 0aa4 bea3 485c a3a7 2f89 0229
00000030: 84cf 92a5 9681 47a3 6589 229f faf6 71a1
00000040: a287 3f22 dea9 d527 c1dd 4727 5504 c1a7
00000050: be15 1ca6 fdb6 62a0 073f 32a0 deb5 2f9d
00000060: 9696 94a5 e893 91a4 5cfc 34a7 a754 57a7
00000070: ff79 0d1e fc62 331f 24a3 75a2 da09 22a6
00000080: 6994 ed26 02c7 2ba9 c541 3e29 7352 a79d
00000090: f653 00a0 62ca 51a4 e712 97a8 15b6 2daa
000000a0: 70d5 e6a7 39f9 faa7 a22a bfa0 f1d0 3ea4
000000b0: ae5a b027 18a0 922b 034c 20a9 bf71 0fa9
000000c0: d308 42a6 2f8f 4280 c62d 0800 0688 1980
000000d0: baaf 3380 b33d 1000 57a8 0900 f1c5 2280
000000e0: 4a5c 3980 5399 1100 1de4 1000 eb97 1e80
000000f0: 3854 0e80 bef0 3880 01ab 1a80 0adf 2d80
00000100: 0250 0d00 1b19 0380 0c24 0380 fc52 1400
00000110: ef7f 2e00 915f 3180 a288 1580 c76d 0600
00000120: 90f9 0300 5ba7 2580 de3d 0e80 293b 1880
00000130: 9192 2b80 ae3b 0e80 6321 1500 4e32 0c00
00000140: fbee 1c80 32cf 8481 b228 0000 62ba 2780
00000150: a7cc 2f80 3978 1400 e292 2680 7a5d 2280
00000160: 61c2 2a00 d287 3000 cb40 0400 0afb 0d80
00000170: 8ff6 4300 751d 0c00 01bd 3080 10ff 4480
00000180: 5cda 2780 f60e 3c80 a885 bd3d de85 4fbe
00000190: 220c 5b3d f7e7 56bd 94b8 2bbd 2a16 843e
000001a0: 878e 26bc d7fd 1f3e 0d4e 0cbe 13a9 b5bd
000001b0: b4ae 0bbe 9d27 89bc cd9f 993d 6199 993d
000001c0: 1067 413e 5e4c 87bc 6bd7 97bd 5070 8cbe
000001d0: e0e5 88be 0d95 16be 983a cf3d a8c3 093e
000001e0: d447 603e 0739 003e 72f1 54be c0ff 88bd
000001f0: b1e5 80be 91b8 d9bc f5cf 0ebe de9e a23e
00000200: 88ca bc3e a50e 2a3e a681 b5bc 78e3 dcbd
00000210: d325 acbe 9021 34be a7dc 853c 92e3 3d3e
00000220: 3634 b63e 9797 c93d 3b20 1c3e 2007 52be
00000230: efc5 bfbc f976 8cbe 4a4c e1be a5d6 aebd
00000240: 4f98 1c3e 31b3 573e 7794 9b3e 3f7c 903a
00000250: ce07 453c 935b 763b 4ab3 b8bc 5e3a 8b3b
00000260: 11fe 83bb 5465 553c 8b14 babc f238 83bc
00000270: 3fd5 d1bc 8181 e2bc 335c 223a 6267 4dbb
00000280: d3d7 883b 180c 30bd 767b 55bd 4ba1 77bc
00000290: c045 cb3a 801d ca3c 283a b4bc 389a 17bd
000002a0: 9cff 683c e882 043c ea55 b93b f173 963c
000002b0: c175 f53c 47f5 cbbc 171c 0fbc 5ddc 8a3d
000002c0: a435 4e3c 9672 833c da59 863c a8de 21bc
000002d0: 91a3 36bc c80f 36bb 5c98 fd3b 7d1a 54bd
000002e0: 8fd5 40bd 53b6 4abc 5a08 08bb 5a81 553b
000002f0: 7599 4339 a654 353c 148e 42bd c844 15bd
00000300: 75bd cfba 06ff 24bc 4a18 29bc f78d 0e3c
00000310: 15f9 11a9 67a3 02a9 0515 1aaa 5be9 2fa8
00000320: 086a 90a8 7676 b3a7 81df 92a5 beb5 1128
00000330: d128 0fa9 57c6 4fab 0399 5faa 85cb 6eaa
00000340: a1b9 93aa c52c 77a9 1e44 6e28 adbb 8da9
00000350: 91fd 72a9 327e acaa 0dbd 9b2b 3f9a c9ab
00000360: 24a9 7729 8e3c 2ea5 63c9 b6a6 4f93 c028
00000370: 8a27 732a ca7b b5a9 4e96 6f27 29ca b6a9
00000380: 8c25 07a4 7bcf 2ba5 a020 8228 443b 4d28
00000390: 80d0 9fa7 5a71 30a6 5a3b b425 2b3d e922
000003a0: 781e 19a4 1574 ab26 1bbc 9625 6d84 05a6
000003b0: 03a1 4ca6 3b01 90a2 1400 c3a2 e9c4 aca4
000003c0: e1be 1725 7e6f 8b25 838c 0ca4 4001 40a4
000003d0: e4ac 81a1 5050 2f3b 089a bb3c ac12 dbbb
000003e0: 6319 a9bb 8a7d 0f3c 372d cbbc ac8e dabc
000003f0: 99dd 46bb 065b a9bb 58b4 00bd f5ea 14bc
-8.172859e-21 1.9867838e-20 -2.8252176e-18 -3.011267e-15 5.299333e-14 -2.0574743e-16 -1.4095942e-17 3.1825994e-20
-5.5277177e-19 -2.0669315e-17 -4.534164e-15 2.8984786e-14 -2.546758e-16 -1.08152525e-17 -3.4418484e-20 -8.1980847e-19
2.595713e-18 5.9303546e-15 2.773701e-15 -5.3572958e-15 -5.415284e-16 -1.920349e-19 -1.509804e-19 -2.325508e-21
-2.5775948e-16 -6.313429e-17 -2.5116822e-15 -2.9883134e-15 7.489706e-21 3.7986602e-20 -3.3290057e-18 -5.621839e-16
1.6485405e-15 -3.814224e-14 4.224552e-14 -4.4289782e-21 -1.0869802e-19 -4.5491076e-17 -1.6772565e-14 -1.5428659e-13
-6.4069233e-15 -6.9659147e-15 -3.238487e-19 -4.1376663e-17 4.894813e-15 1.0418359e-12 -3.5593066e-14 -3.1851038e-14
-6.731923e-16 -6.112507e-39 7.51104e-40 -2.344683e-39 -4.746649e-39 1.491501e-39 8.86908e-40 -3.193415e-39
-5.26773e-39 1.616206e-39 1.5512e-39 -2.809563e-39 -1.315909e-39 -5.22915e-39 -2.449068e-39 -4.212609e-39
1.222563e-39 -2.84513e-40 -2.88438e-40 1.866479e-39 4.270327e-39 -4.534222e-39 -1.97756e-39 5.90394e-40
3.65033e-40 -3.457949e-39 -1.307891e-39 -2.225275e-39 -4.001504e-39 -1.307106e-39 1.940522e-39 1.120072e-39
-2.657124e-39 -4.878645e-38 1.4599e-41 -3.648446e-39 -4.389684e-39 1.879838e-39 -3.54244e-39 -3.15594e-39
3.926821e-39 4.456827e-39 3.90585e-40 -1.283917e-39 6.241427e-39 1.112593e-39 -4.475906e-39 -6.336313e-39
-3.659917e-39 -5.515497e-39 0.092540085 -0.2026591 0.053478368 -0.052467313 -0.041924074 0.2579816
-0.010165817 0.15624176 -0.13701649 -0.08870139 -0.13640863 -0.016742522 0.07501183 0.07499958
0.18886971 -0.016515907 -0.074141346 -0.27429438 -0.2673788 -0.14705296 0.10118598 0.13453543
0.219024 0.12521754 -0.20795229 -0.066894054 -0.2517524 -0.026577266 -0.13946517 0.3176183
0.3687327 0.16607149 -0.022156548 -0.10785574 -0.33622608 -0.17590928 0.016340567 0.18543842
0.3558671 0.098433666 0.1524667 -0.2051053 -0.023409812 -0.2743452 -0.44003516 -0.08537034
0.15292476 0.2106445 0.30386707 0.0011023356 0.012025787 0.0037591204 -0.02254643 0.0042489013
-0.00402809 0.013024647 -0.022714874 -0.016018365 -0.025614379 -0.027649643 0.00061935483 -0.0031342139
0.004176119 -0.042980283 -0.052119695 -0.015114139 0.0015508458 0.02467227 -0.022000387 -0.03701231
0.014221098 0.008087851 0.0056559937 0.018365832 0.029963376 -0.02489723 -0.0087347245 0.06780312
0.012586031 0.01604585 0.016400266 -0.009879746 -0.011147396 -0.0027780402 0.00773911 -0.051783074
-0.047078665 -0.012372571 -0.002075693 0.003257832 0.00018653816 0.011067545 -0.047498778 -0.036442548
-0.0015849309 -0.010070568 -0.010320732 0.008700839 -3.2412512e-14 -2.9007528e-14 -1.368524e-13 -9.765052e-15
-1.6033195e-14 -4.9810916e-15 -2.5478415e-16 8.088526e-15 -3.178778e-14 -7.3816425e-13 -1.9859465e-13 -2.1209256e-13
-2.6241251e-13 -5.488385e-14 1.32264246e-14 -6.2942144e-14 -5.3954728e-14 -3.0640903e-13 1.1065885e-12 -1.4324721e-12
5.4991724e-14 -1.5112611e-16 -1.2683373e-15 2.1380167e-14 2.1596453e-13 -8.059489e-14 3.3249393e-15 -8.117493e-14
-2.9305262e-17 -1.4902183e-16 1.4447048e-14 1.1392637e-14 -4.435742e-15 -6.1215886e-16 3.126524e-16 6.321954e-18
-3.3202395e-17 1.1896973e-15 2.6148317e-16 -4.6323115e-16 -7.099493e-16 -3.903258e-18 -5.285494e-18 -7.492669e-17
1.3161835e-16 2.4188206e-16 -3.047668e-17 -4.1634422e-17 -8.787144e-19 0.002675075 0.022900596 -0.0066855755
-0.005160497 0.008757958 -0.024801834 -0.02667936 -0.0030344485 -0.0051683215 -0.03142199 -0.009089221

linear1.bias f4 [285]
00000000: 2876 81b0 36f1 de9a 3f69 12bf 9644 6abe
00000010: 7453 1fb2 c829 b7bd 4457 d5be 1b90 41bf
00000020: 510e 24be 00c1 bebe a46b 52ab 7452 44bd
00000030: e064 d9bd b70c 06bf 26d8 18ae ddb7 c3be
00000040: 8e0d 16bf 45d0 24bf 54ae ddbe d5ae 24be
00000050: 04a3 10bb 109a aabe a8c6 dabe 40ba dbbe
00000060: e50f bdbb e9f2 bbbe 53e5 06bf ade4 00be
00000070: 0035 06bf 5e5c 0fb9 2c01 cabe 23b1 01bf
00000080: d8a0 71bc 0f36 0bbe 1097 edb7 7798 09bf
00000090: 3401 bebe aee5 d8bd e00e 19be 2fed 77be
000000a0: b63a 41b9 b366 b7bd a992 b3be 5dfe fdbd
000000b0: d806 c6be 66fa 2cbe 4942 a793 33ee b0be
000000c0: 3fa9 16b3 7092 efbe b6c5 1cbb 36c5 44bc
000000d0: 5e40 1c3c 8a57 d4be aa41 c3be bbd7 b0b9
000000e0: 1b5d 0cbf 6d3b a3be daa3 b7b8 5697 2ebe
000000f0: 9bc5 c5ba 9aa2 51be ab25 d0bb b408 0abe
00000100: 3a03 27bc 1dd7 edbe 5410 bfbe 1c80 c3be
00000110: 74f8 32be d238 06bf f385 d0be 2c2c 61bd
00000120: e66b 0ebf 0833 52be 2cbb e9be c79a b4be
00000130: b10b 02bf 325d f1aa 6f4f cfbd 252b 9c3b
00000140: 38c4 8abd e813 e2bc 1493 44bf c8f2 febe
00000150: 7378 0dbf d857 7cbd 7767 93ae 1eb3 adbe
00000160: ab0b c7be f6c6 1abf 9d2f c5be 608b eebd
00000170: d185 adbc 016a 0abf 5ded 41be 28c1 48bf
00000180: ac04 a4be 1409 90be 176e cebe 7950 44bd
00000190: 1ba3 c6be 4614 2abe f49a 04be 5771 c9be
000001a0: df61 bdbe 6448 5bbf fa1d 1abf 0350 a1bd
000001b0: 789b a8bd 54b9 debe 37f0 46be 5ecb 78bd
000001c0: 244d e5be d01b bcbe 1463 19be 7a21 61bd
000001d0: 14d9 97be 2ec8 39bd daac e1be 3d45 86be
000001e0: 952b cbbe c113 aabe 0099 4bbe 6a21 08b3
000001f0: 3f82 eabe 403d c0be 2ca1 b0be 21ec 09bf
00000200: 1576 efbd 62b4 f9be 66a6 a2be ee42 a9be
00000210: 0128 91bd 8839 e7be 6d7e 9dac ecc6 c7be
00000220: a1d8 9c96 eb1f f1be f9cf 24b4 a146 f3be
00000230: 8b72 32bf a123 2bbd f77e cbbe fb91 12be
00000240: daf7 2dbe b05c 0cbf a2ac 0cbd 1b53 0abc
00000250: 2ded 8bb5 b11f c9be 3dd8 27bf 977c fbbb
00000260: e22c 8fb5 49fa dcbd a731 01bf 0e96 1bb4
00000270: 0ee0 26be 8b73 20bb f34a 1ebe f948 daa7
00000280: b4d1 b2be 8a6d c5ba d183 93be d62b 08b2
00000290: c7f7 24bf 1aab 05b7 2d24 8bba a496 23bf
000002a0: 83b0 b6be add3 f3bb 03c8 13bf 9b5b a9be
000002b0: 81e5 10be 242e 16bf 30fb 3bad 1871 f8bd
000002c0: bae5 61bd 32e5 18be f24f 91bd bf2a f1bd
000002d0: f349 20be b675 93be 733b 00bf e57d c5be
000002e0: f25e c7be e01a 57be 2ad8 c8bd 10df a1bc
000002f0: ec98 95be 4a90 30bd aa5d 1dbe 7989 19bf
00000300: 2ef1 8cbe 5ea9 20bf e16c 83bc 5f16 90b8
00000310: 7e1f a6be 3768 1abf be33 02bf a097 0dbf
00000320: 71b2 12b1 9fb4 feba a5fa 83ab 9838 3fbe
00000330: 0872 ebbe 2a4f 9d99 9d4a cfbd e6fd 89bd
00000340: a0de 0fbf 7add 0cbf 359b abbe 7a6f 1bbf
00000350: d9d9 14be bef6 2fbf da2c 16bf cba5 dfbe
00000360: a9f5 27bf 15aa 25be 2755 e0bd 1883 14be
00000370: 606f 3abe 799e 1bbe c544 0491 1a64 debe
00000380: 2597 ffbd e217 02be 3e76 f2be fd7e 2bbd
00000390: 3aac 23be 1f17 b7be 2754 05be af78 2dbc
000003a0: 8839 d1be 36fc 09be 8e62 65be 670e cdbd
000003b0: 6766 1dbe 4b51 b0be cdbb 7cbe 89d4 fcbd
000003c0: 9447 bbbe 2fae e7be dad9 63b7 0018 c0bd
000003d0: 23ce eabd 92bc 56ba b19a f3be d1eb b7be
000003e0: b2c3 0fbf 7ab6 c0be 4f6c ebbe 94ef 12bf
000003f0: 82d7 bebe 94df f0be 2563 6ebd e558 2fb2
-9.419567e-10 -9.2206745e-23 -0.5719184 -0.22877726 -9.273993e-09 -0.08943516 -0.4166814 -0.7561051
-0.16021086 -0.37256622 -7.475637e-13 -0.047930196 -0.106149435 -0.5236315 -3.4752777e-11 -0.38226214
-0.5861443 -0.64380294 -0.43297064 -0.16082318 -0.002206982 -0.33320665 -0.42729688 -0.42915535
-0.005769717 -0.36708763 -0.5269367 -0.12587233 -0.5242462 -0.00013671952 -0.3945402 -0.50660914
-0.014747821 -0.1359484 -2.8322946e-05 -0.5374827 -0.37110293 -0.10590683 -0.1494708 -0.24211572
-0.00018427786 -0.08955135 -0.3507283 -0.124020316 -0.38677096 -0.16892394 -4.222209e-27 -0.34556732
-3.5078525e-08 -0.4679141 -0.0023921556 -0.012009909 0.009536831 -0.41473037 -0.38136035 -0.00033730068
-0.5482957 -0.31881276 -8.75664e-05 -0.17049918 -0.0015088798 -0.20472184 -0.0063521466 -0.13479882
-0.01019364 -0.4645318 -0.37317145 -0.38183677 -0.1747759 -0.5243045 -0.40727195 -0.054973766
-0.5563339 -0.2052728 -0.45650613 -0.35274336 -0.5079909 -4.2874867e-13 -0.10122573 0.0047658854
-0.06775707 -0.027597383 -0.76786923 -0.49794602 -0.55261916 -0.06160721 -6.703165e-11 -0.33925718
-0.3887609 -0.6045984 -0.3851289 -0.116476774 -0.021181973 -0.54068 -0.18938203 -0.78419733
-0.32034814 -0.28131926 -0.40318367 -0.047928307 -0.38796315 -0.16609296 -0.12949735 -0.39344284
-0.36988732 -0.85657334 -0.6020199 -0.07876589 -0.08232778 -0.4350077 -0.19427572 -0.06074082
-0.44785416 -0.3673997 -0.14979202 -0.054963566 -0.29657805 -0.04535692 -0.44077188 -0.262247
-0.39681688 -0.33218196 -0.19882584 -3.1695357e-08 -0.45802495 -0.3754673 -0.34497964 -0.5387593
-0.11692444 -0.48770434 -0.31767577 -0.33058876 -0.07087708 -0.4516108 -4.4762445e-12 -0.39018953
-2.5339871e-25 -0.47094664 -1.534935e-07 -0.47514823 -0.6970603 -0.041782025 -0.39745304 -0.143135
-0.16989079 -0.5482893 -0.034344323 -0.008442665 -1.0425334e-06 -0.3928199 -0.6556433 -0.0076747644
-1.0667393e-06 -0.107899256 -0.5046639 -1.449009e-07 -0.16296408 -0.0024482931 -0.15458278 -6.058627e-15
-0.34925616 -0.0015062552 -0.28811505 -7.926209e-09 -0.6444058 -7.967255e-06 -0.001061564 -0.63901734
-0.35681543 -0.007441005 -0.5772707 -0.33077702 -0.14150049 -0.58664155 -1.0685494e-11 -0.12130946
-0.055150725 -0.14931181 -0.070953265 -0.11775731 -0.1565321 -0.28800744 -0.5009071 -0.38572612
-0.38939625 -0.21006346 -0.09806855 -0.019759685 -0.29218233 -0.043106355 -0.15367761 -0.5997539
-0.27527755 -0.62758434 -0.016043128 -6.870622e-05 -0.32445902 -0.6031527 -0.508602 -0.55309486
-2.1347228e-09 -0.0019432491 -9.377678e-13 -0.18673933 -0.45985436 -1.6265394e-23 -0.10121653 -0.067378804
-0.56199074 -0.55025446 -0.3351685 -0.60716975 -0.14536227 -0.68735874 -0.5866219 -0.43681177
-0.6560922 -0.16178162 -0.109537415 -0.14503133 -0.18206549 -0.15197171 -1.0434155e-28 -0.43435746
-0.124800004 -0.12704423 -0.47355837 -0.041869152 -0.15983668 -0.35759827 -0.13020383 -0.010587855
-0.40864205 -0.13475117 -0.22400877 -0.10012513 -0.15371095 -0.34437022 -0.24681015 -0.12345225
-0.36578047 -0.4525008 -1.3580977e-05 -0.09379578 -0.11465099 -0.00081915513 -0.47578958 -0.359221
-0.5615798 -0.3763922 -0.4598107 -0.5739682 -0.37273794 -0.47045577 -0.05820002 -1.0206553e-08

linear6.weight f4 [10, 4560]
00000000: d216 3580 b67c 3f00 0cac 2abc 16d8 513a
00000010: 846c 3b80 99ec 1e3c ee7a 35b6 f98d bfbc
00000020: b9c4 0fbc 4a6f 44bc 71ff 1780 e9c0 3922
00000030: 68cc 04ab 5f99 01b8 20ab 2600 740a a2ba
00000040: 48a8 ca3c 8069 3126 eef6 363b 9f8b 54ba
00000050: f878 049e 6b51 dabc 5fd2 17bc 6c7c 3c35
00000060: 0adb 0300 cc68 56bc 0fe4 8034 046e 6cbb
00000070: 3aab abbc 7336 0c80 8d2a 6fbc 910e 853c
00000080: 7dda 0a21 6e5c 01bc cef8 0b80 359f 013c
00000090: 8b6e 093c 5cd2 c8bc 5135 353a acef cdb9
000000a0: 44c2 0e80 a86c 6834 c4b5 80b2 b99c 10bc
000000b0: 87ed f4ba b7bc 393c 22c9 2c80 e9b3 04bc
000000c0: 1058 3c00 3601 7d3c 2820 dca5 eaee b22b
000000d0: 1aa9 763d f938 69bc 8b42 bcbc 85c8 498a
000000e0: 9802 8abc a0df d3bc ab8e 2480 6329 bebb
000000f0: de8a b712 4890 99b7 6f23 8917 03e4 0cbb
00000100: 866a 4aab 032e 0bb8 6b9c 3933 4e15 afbb
00000110: 83df e2bc 71e8 2f3c d3ee e3bc 7eb1 4e38
00000120: e5a8 53bb c9fe 7e3b e08f 7c3b 8e5a 6bb9
00000130: 8198 8abb e6e8 1280 04d8 263a 0c19 363c
00000140: 1458 11b4 c650 9f32 005c b2bb 5ea6 b5b9
00000150: 2e76 cdb9 c2c0 12b8 620b 4b00 0ca4 85bb
00000160: 13dc 30bc 9a68 083b eab7 d5b9 a393 f4b9
00000170: 8d56 d6b1 9cdd afbc 4652 14bb b66e 8dbc
00000180: 9e6f afbb bc00 16bd f086 8bb8 8792 ac39
00000190: 7864 88bc 211d 4d3c 65a4 bc3b 2272 3a3c
000001a0: 2733 05bc 73ac 04bb 0899 00bc 02b9 3cb5
000001b0: 8e34 373b 65a9 93ba 5aea bfbb 7ac6 55b5
000001c0: ee58 3abc 26e7 2ab8 c600 5eb4 039a 10bd
000001d0: bb6e d0bc 509f 1bb0 ee29 06bd f1ef 6bb7
000001e0: c315 f1b4 1c04 b53b 1a2d 06bc 898d 1700
000001f0: eb29 a5bc ebd4 e133 2329 67bc e0e0 6fbc
00000200: 326c 333c 06b0 bdbc f800 abbc d021 01bc
00000210: 0d1d 9bb3 61d7 bebc 0525 1b80 09d7 7abc
00000220: bffa 3300 6606 c23b 0522 1180 6b91 2abc
00000230: 9b50 d3bc a9e6 4628 6060 553a a6c8 1cbc
00000240: 677c 633a 6967 013c a432 4728 45e4 953c
00000250: 41f2 2f00 f5f1 f736 73ec 893c acbf 113d
00000260: d3e4 0c80 341a b935 c282 853c 344e 1f00
00000270: a33e 63bc 0b07 be9d 167c 08b9 94d4 0680
00000280: 44be b4bc f148 2030 eae6 44bb 3191 dd05
00000290: b05d e0bc cf51 6500 1d5e 909a 9a91 edbc
000002a0: fbee 94bc 5e2c ff23 27b6 a4bc cc89 86bc
000002b0: 93f4 2c36 968f 34bd aa06 0980 7453 b73a
000002c0: 68d8 3a3a dbf0 483b b5dd 6f3a 703c a9ba
000002d0: fcb9 38bc 70a3 8cb8 1ef6 b4bc 9f80 b03a
000002e0: ae84 81b9 3a3b 3d3c c3eb 06ba ab2d d2b1
000002f0: 1a42 c5bb a11a e5ba 3097 d3bb 093d 4db9
00000300: 5f5c 4abc 38a8 e23a 790a c0a7 34d1 23a9
00000310: 5a61 8d3c 20a3 95bc 3ec9 4f3c 44b4 653b
00000320: ff71 0580 a6f5 ab01 b9ef 1d00 b2d4 c1bc
00000330: c326 1cbb f062 1a80 9615 783b 43bc 8236
00000340: 7984 bc3b f6ea e5bc 5e1f b1bc dd98 16b3
00000350: 3aaa 2938 eaf0 663c d400 383c ba76 f63b
00000360: 15c6 e7bc 2155 313b 9490 2439 7ede 04b5
00000370: d9b0 473b 45d1 f63b 15fc 1d00 4e34 67ba
00000380: d0ce b63a fac7 b0ba 8818 e5b8 3915 7d31
00000390: 9f06 b1ab 361d d5ba 69b2 82bc da19 72a6
000003a0: 310d 0bb5 45cf 10ba 9b0d ac3a 5b64 21ba
000003b0: 4c34 5125 9900 b5b9 c223 b4bb 964e fcb9
000003c0: 85d8 33b9 d936 87b3 b1b6 2000 1e1d 8fb8
000003d0: 0552 4638 8e11 0c80 7278 0cba 341a 01bc
000003e0: 9e1c 0636 d464 18bc 7630 73b9 ccc7 1197
000003f0: 2eca 0fb7 0b39 b6bc 9768 412d a841 0180
-4.875468e-39 5.830374e-39 -0.010416996 0.00080049166 -5.457222e-39 0.009699964 -2.7042656e-06 -0.023383128
-0.00877493 -0.011989424 -2.203852e-39 2.51743e-18 -4.717949e-13 -3.0898835e-05 3.551137e-39 -0.0012362734
0.024738446 6.155219e-16 0.0027918178 -0.00081079634 -7.0130376e-21 -0.026650151 -0.009266465 7.0216515e-07
3.54083e-40 -0.013086509 2.4007792e-07 -0.0036076317 -0.02095567 -1.121559e-39 -0.014597547 0.016242297
4.7045386e-19 -0.007895572 -1.099445e-39 0.007911493 0.008388172 -0.02451437 0.0006912547 -0.00039279216
-1.355386e-39 2.1646213e-07 -1.4983819e-08 -0.008826428 -0.0018686511 0.011336497 -4.112915e-39 -0.008099535
5.54172e-39 0.015442183 -3.8185706e-16 1.2713973e-12 0.06021986 -0.014234775 -0.022980949 -9.7155115e-33
-0.01684694 -0.025863469 -3.357257e-39 -0.0058032735 1.1583157e-27 -1.8306207e-05 8.862362e-25 -0.002149821
-7.1912647e-13 -3.3183034e-05 4.321593e-08 -0.005343116 -0.02769447 0.010736571 -0.027823841 4.927953e-05
-0.0032296714 0.0038909188 0.0038537905 -0.0002244508 -0.0042296057 -1.736587e-39 0.00063645863 0.01111437
-1.353622e-07 1.8546768e-08 -0.005443096 -0.00034646963 -0.00039188698 -3.4988632e-05 6.891746e-39 -0.004078394
-0.010794657 0.00208143 -0.00040763553 -0.00046649305 -6.2380594e-09 -0.021467976 -0.0022632047 -0.017264705
-0.005353882 -0.036621794 -6.6531706e-05 0.00032915568 -0.01664947 0.012519152 0.005756902 0.01137975
-0.008129871 -0.002024439 -0.0078489855 -7.030468e-07 0.002795491 -0.0011265693 -0.0058567943 -7.9637505e-07
-0.011373742 -4.0746432e-05 -2.0675643e-07 -0.035303127 -0.025443425 -5.661507e-10 -0.03275483 -1.4062957e-05
-4.4905582e-07 0.0055241715 -0.008189464 2.16299e-39 -0.02016159 1.05161085e-07 -0.014108929 -0.014641017
0.010951089 -0.023155224 -0.020874485 -0.007881597 -7.223034e-08 -0.02329606 -2.492839e-39 -0.015310057
4.773561e-39 0.005921173 -1.573407e-39 -0.010410647 -0.025795272 1.1041224e-14 0.0008139666 -0.009569323
0.00086779 0.00789819 1.10577e-14 0.018297324 4.403173e-39 7.389341e-06 0.01683638 0.035583183
-1.184113e-39 1.37912e-06 0.016297702 2.874954e-39 -0.013869914 -5.0299864e-21 -0.00013016196 -6.27272e-40
-0.022063382 5.8311317e-10 -0.0030044862 2.0836075e-35 -0.027388424 9.304733e-39 -5.970905e-23 -0.029000092
-0.018180361 2.7665946e-17 -0.020106388 -0.016423129 2.5772358e-06 -0.044082247 -8.2891e-40 0.0013986663
0.0007127584 0.003066114 0.00091501634 -0.0012911689 -0.011274811 -6.706163e-05 -0.022090014 0.0013466066
-0.0002470365 0.011549765 -0.00051468256 -6.1169962e-09 -0.006019843 -0.001747925 -0.006457232 -0.00019573061
-0.012351125 0.0017292565 -5.330206e-15 -3.6374725e-14 0.017258335 -0.01826626 0.012682257 0.0035050074
-5.00072e-40 6.316797e-38 2.749226e-39 -0.023660991 -0.0023826815 -2.423215e-39 0.0037854663 3.8962185e-06
0.0057530967 -0.02806614 -0.021621402 -3.5063625e-08 4.0451276e-05 0.014095524 0.011230666 0.0075214775
-0.028292695 0.0027058797 0.00015694118 -4.94976e-07 0.00304704 0.007532271 2.75366e-39 -0.00088197447
0.0013947133 -0.0013487332 -0.0001092414 3.682841e-09 -1.2578444e-12 -0.0016259316 -0.015954213 -8.399565e-16
-5.180073e-07 -0.00055240496 0.0013126613 -0.0006156617 1.8145579e-16 -0.00034523456 -0.0054974267 -0.00048123737
-0.0001715143 -6.296404e-08 3.004273e-39 -6.824195e-05 4.7283265e-05 -1.108323e-39 -0.0005358524 -0.0078797825
1.9984213e-06 -0.009301383 -0.00023192339 -4.7104206e-25 -8.570538e-06 -0.022243997 1.09940035e-11 -1.15389e-40

linear6.bias f4 [10]
00000000: 6a33 163d e6b2 d43d faeb 9ebc 99e1 8cbd
00000010: 53b6 2ebd 245c fc3b 18d0 23bc bec3 de3a
00000020: 3e1a b4bb 02e4 7cbc
0.036670126 0.10385685 -0.019399632 -0.06878967 -0.042654347 0.0077014137 -0.009998344 0.0016995592
-0.0054962924 -0.015435221

exp_avg f4 [285, 49]
00000000: ffeb a497 9969 4318 f8c8 d39b 896a d3a0
00000010: 9054 e422 6ddb ea9e b340 049d 56c3 9f18
00000020: a1ff a89a 2b7b 3f9d 1dcf 1da1 d8d5 7822
00000030: 95fd 109f f12c c99c 89ec ab98 1a37 f89a
00000040: 522d c11b 7c2d 4f21 0deb bf20 29c2 3aa1
00000050: 8726 9a9f 4d66 ee99 814f bb99 7091 b496
00000060: f130 139f ef84 0e9e 3e3a b0a0 a49f d0a0
00000070: d0f3 9617 c5f0 bd18 2c27 fb9b a1ff 9f9f
00000080: 528c 6520 6532 a4a2 6c2f b622 3f24 3397
00000090: eef5 8699 9c0c d29d f14a 10a2 7b58 a4a3
000000a0: 5873 5ba1 e9b6 72a1 67f0 469a 4eec c09d
000000b0: 0a38 2a21 71ab 0925 c046 97a2 0db4 89a2
000000c0: b048 bf9f bc01 0080 2d00 0000 a500 0080
000000d0: 4f01 0080 6900 0000 3700 0000 e100 0080
000000e0: 8001 0080 7300 0000 7200 0000 c300 0080
000000f0: 3900 0080 6d01 0080 af00 0080 2701 0080
00000100: 5500 0000 0f00 0080 1800 0080 7d00 0000
00000110: 3101 0000 3b01 0080 8700 0080 2c00 0000
00000120: 2200 0000 f500 0080 5500 0080 a400 0080
00000130: 1d01 0080 5e00 0080 8700 0000 5400 0000
00000140: b900 0080 532a 0080 0400 0080 ff00 0080
00000150: 3a01 0080 7d00 0000 f500 0080 e100 0080
00000160: 1301 0000 3b01 0000 1900 0000 5500 0080
00000170: bd01 0000 5400 0000 4401 0080 c601 0080
00000180: ff00 0080 8101 0080 c450 24b6 9084 1f37
00000190: 59f0 3eb8 5acb ddb9 a17b 76b9 b3b9 5fb8
000001a0: 97cf 99b9 d32c 21b9 b5ff 9bb9 854a 89b9
000001b0: 2b1b ccb8 110d a4b8 43bd 95b9 fd6a f1b9
000001c0: 347e 02b8 8748 e6b9 cdb5 dcb9 e5a0 81b9
000001d0: 4e27 b238 1f34 0db9 b04c 2ab9 1423 8839
000001e0: 55cf 9238 6e53 eeb8 c588 06ba 4ef7 d4b9
000001f0: f23a 0c39 444e 02b8 afe8 b839 2db7 e039
00000200: 6c5c d437 1bd4 1aba 4c6e 22ba 25db 45b9
00000210: bd47 16b9 0967 a939 b634 a439 b191 1839
00000220: d138 99b9 a65c 91b9 b1ec 7e39 f8fb 6e39
00000230: 30d8 e439 ab29 9239 5811 b537 f9ec 97b8
00000240: 8558 a538 075b b739 9179 0338 f985 6936
00000250: b357 9d36 64f7 8a36 0778 2db2 75f5 96b5
00000260: ef7d 8db5 4ac6 5536 7969 d635 3532 0e36
00000270: 2397 7135 44c6 b0b6 cbc0 70b6 1709 1f35
00000280: 9c9f 5e36 1927 88b5 c29b 61b6 ff2b 07b7
00000290: 7b0e 39b7 f063 38b6 7533 2536 8e95 a835
000002a0: f4b5 95b6 b370 deb6 7ab5 1db7 70dd 00b7
000002b0: c335 6f36 3e34 f335 92d5 3636 0a5d 3db7
000002c0: f317 1eb7 6325 d2b6 6b19 d335 40d5 4336
000002d0: 1f1a 3336 478b 5b36 b1e9 6cb7 439a 3cb7
000002e0: e8f4 5cb5 5c53 3636 a377 4636 8be6 3d36
000002f0: bae6 e535 beeb f8b6 ea38 96b6 82e5 cfb3
00000300: 6873 7336 faf9 0a36 9d05 d834 ecc1 d735
00000310: 9995 8aa2 40b4 78a2 c3b8 92a3 ab67 aaa1
00000320: 49df 0aa2 054a 2ca1 4b5b 0e9f c615 8c21
00000330: 95db 87a2 3d5d c3a4 1514 d4a3 a5b3 e2a3
00000340: ecdf 0aa4 51c4 eaa2 4120 e621 57fa 06a3
00000350: 35e2 e4a2 971f 20a4 8d5d 1025 4307 3ca5
00000360: 74b3 eb22 ff6c ad9e 259c 33a0 4e6e 3722
00000370: a4b8 e523 5901 2ca3 559b e120 755c 2da3
00000380: 9151 889d 74a4 ab9e 083b fb21 9eb4 c521
00000390: 2616 1ba1 3e1d aa9f 95a6 301f 5d88 6c1c
000003a0: eecc 999d 4023 2720 6fed 131f 14c1 839f
000003b0: f306 ca9f 263e 0f9c f141 479c 1ff6 2d9e
000003c0: 5c1f 961e 70a3 0a1f b75d 8b9d c2ee bf9d
000003d0: 61de 069b 4dd1 9bb8 7c8e aab8 ec10 c3b8
000003e0: fa21 44b8 f1b6 89b8 58d5 a4b8 d338 abb8
000003f0: 0cb5 9db8 9b9d b8b8 703c 69b8 2049 4db8
-1.0657825e-24 2.5256472e-24 -3.5036895e-22 -3.581529e-19 6.1889058e-18 -2.4866466e-20 -1.7503503e-21 4.1297776e-24
-6.989616e-23 -2.5342316e-21 -5.346778e-19 3.3723475e-18 -3.0702944e-20 -1.3312681e-21 -4.4441303e-24 -1.0265942e-22
3.195846e-22 7.0194526e-19 3.2512202e-19 -6.327622e-19 -6.5285275e-20 -2.4649942e-23 -1.9367458e-23 -2.9172352e-25
-3.1168944e-20 -7.5449074e-21 -2.98541e-19 -3.5342212e-19 9.75507e-25 4.909847e-24 -4.154978e-22 -6.776202e-20
1.9443483e-19 -4.4505646e-18 4.938141e-18 -5.788377e-25 -1.3954605e-23 -5.5599575e-21 -1.9555313e-18 -1.7818389e-17
-7.435274e-19 -8.223487e-19 -4.1139636e-23 -5.106631e-21 5.767241e-19 1.1940942e-16 -4.100354e-18 -3.732456e-18
-8.10119e-20 -6.22e-43 6.3e-44 -2.31e-43 -4.7e-43 1.47e-43 7.7e-44 -3.15e-43
-5.38e-43 1.61e-43 1.6e-43 -2.73e-43 -8e-44 -5.11e-43 -2.45e-43 -4.13e-43
1.19e-43 -2.1e-44 -3.4e-44 1.75e-43 4.27e-43 -4.41e-43 -1.89e-43 6.2e-44
4.8e-44 -3.43e-43 -1.19e-43 -2.3e-43 -4e-43 -1.32e-43 1.89e-43 1.18e-43
-2.59e-43 -1.5183e-41 -6e-45 -3.57e-43 -4.4e-43 1.75e-43 -3.43e-43 -3.15e-43
3.85e-43 4.41e-43 3.5e-44 -1.19e-43 6.24e-43 1.18e-43 -4.54e-43 -6.36e-43
-3.57e-43 -5.4e-43 -2.4484916e-06 9.508003e-06 -4.552337e-05 -0.00042303914 -0.00023506444 -5.334029e-05
-0.000293371 -0.00015370855 -0.0002975442 -0.00026186198 -9.7325385e-05 -7.822563e-05 -0.00028560506 -0.00046046815
-3.111195e-05 -0.00043923056 -0.00042097122 -0.00024724673 8.4950225e-05 -0.00013466224 -0.00016241032 0.00025966077
7.000441e-05 -0.00011364264 -0.00051320746 -0.00040620047 0.00013373399 -3.1067306e-05 0.00035268578 0.00042861086
2.5315407e-05 -0.000590624 -0.0006196245 -0.00018869022 -0.0001433184 0.0003231096 0.0003131979 0.00014550124
-0.00029224766 -0.00027725584 0.00024311502 0.00022791314 0.0004364862 0.00027878335 2.1584958e-05 -7.244381e-05
7.884301e-05 0.000349723 3.134605e-05 3.4797688e-06 4.689174e-06 4.1415205e-06 -1.0097216e-08 -1.1247308e-06
-1.054197e-06 3.1854893e-06 1.5974939e-06 2.1188873e-06 8.999943e-07 -5.26829e-06 -3.5875007e-06 5.9245343e-07
3.3173483e-06 -1.0144169e-06 -3.3618276e-06 -8.056871e-06 -1.1030231e-05 -2.7476308e-06 2.4616868e-06 1.2560502e-06
-4.461728e-06 -6.6292355e-06 -9.4001825e-06 -7.680952e-06 3.5645069e-06 1.8120115e-06 2.7244428e-06 -1.128694e-05
-9.42311e-06 -6.26284e-06 1.5728123e-06 2.9181392e-06 2.6688283e-06 3.2714613e-06 -1.4121107e-05 -1.124159e-05
-8.231277e-07 2.7168635e-06 2.9573937e-06 2.8297388e-06 1.712898e-06 -7.41842e-06 -4.476974e-06 -9.680936e-08
3.6276997e-06 2.0709108e-06 4.023722e-07 1.6075187e-06 -3.7563368e-18 -3.370569e-18 -1.5907601e-17 -1.1547089e-18
-1.8820694e-18 -5.837383e-19 -3.0145185e-20 9.492532e-19 -3.6824315e-18 -8.472572e-17 -2.2993591e-17 -2.4579052e-17
-3.011365e-17 -6.3633685e-18 1.5593944e-18 -7.317166e-18 -6.203903e-18 -3.4721227e-17 1.2521705e-16 -1.6308861e-16
6.388688e-18 -1.8362167e-20 -1.5213554e-19 2.485952e-18 2.4906428e-17 -9.324424e-18 3.8219273e-19 -9.397927e-18
-3.6083238e-21 -1.8173345e-20 1.7024047e-18 1.3397048e-18 -5.2545356e-19 -7.204618e-20 3.7407243e-20 7.8262095e-22
-4.0710655e-21 1.4157113e-19 3.132486e-20 -5.580008e-20 -8.5561824e-20 -4.7395056e-22 -6.5928804e-22 -9.20944e-21
1.5894838e-20 2.935783e-20 -3.6889893e-21 -5.080415e-21 -1.1156075e-22 -7.429961e-05 -8.1327715e-05 -9.3014765e-05
-4.6761685e-05 -6.5667446e-05 -7.859868e-05 -8.1645e-05 -7.520066e-05 -8.80316e-05 -5.5607816e-05 -4.894391e-05

exp_avg_sq f4 [285, 49]
00000000: a79e 002e eabf 122e a76d 2a2e 21ee 692e
00000010: c8ec 8a2e 5be1 4c2e af02 292e 1ec0 032e
00000020: 1242 172e db28 382e 92d9 7c2e 5b65 902e
00000030: 1ef5 502e a52e 332e dd0d 072e bf44 202e
00000040: dce5 322e c23e 742e 89ed 852e fd14 792e
00000050: 8ff3 502e 343b 0b2e 29b6 0b2e b88c 1e2e
00000060: 8e0b 4c2e 4c84 602e 8442 6b2e 6213 762e
00000070: ec5f 012e 055c 062e fd94 232e e347 512e
00000080: a16a 7c2e bc2d 8c2e d2ab 892e 738d fe2d
00000090: 3a21 0b2e e25d 3c2e 9e51 8d2e 1d6c 9c2e
000000a0: 2a5d 942e 3b3d 7a2e 4b53 132e 88fa 2f2e
000000b0: 60d8 7e2e afb8 aa2e d7e0 a02e 8247 862e
000000c0: 59fd 532e 4eda 982c b3a4 b32c 7d81 ec2c
000000d0: a0fd 122d 166c 2a2d c375 1d2d 74a7 f12c
000000e0: 66aa b62c 6d2e d02c bf8a 0e2d 8654 132d
000000f0: d7b8 2d2d 1314 222d 0c8e e62c 08f1 f62c
00000100: fc4b 062d 34aa 122d 8a3f 062d 60d3 132d
00000110: df55 0a2d 5d54 c12c 381a f72c b7f7 082d
00000120: fc1e 042d 2dcd 192d 5857 1b2d 791a 0a2d
00000130: 81de c42c 6a6f bb2c fa19 eb2c dc8f e92c
00000140: 001a 1b2d cd42 372d 203a 082d 96d0 bc2c
00000150: f4eb c32c b0b2 e92c f642 ff2c 0713 132d
00000160: cfee 1c2d 1c3c 1a2d c081 c52c 40e1 b92c
00000170: 6304 fb2c c685 022d 5203 0e2d 2cbb 0d2d
00000180: c173 012d 80c3 d52c 5274 0938 51df 2138
00000190: 69e9 2338 6292 d137 6749 b737 ece6 d037
000001a0: 4642 a537 e35c 1138 5e85 1d38 48ad 1438
000001b0: b98c e237 96f3 8737 902c 8e37 f00c 8837
000001c0: 80c4 1e38 4b6e 1938 c102 e837 9904 8c37
000001d0: ec0b 4037 0a49 3137 a51b 4837 88c9 1838
000001e0: e4b1 2638 fb05 0038 6304 a037 73bb 5037
000001f0: 8912 1f37 282e 2737 dd15 0438 2618 1e38
00000200: fc5b 0838 d9fa bc37 4b23 8337 a698 4637
00000210: 0706 3b37 79e7 e837 770c 1838 939a 1138
00000220: bfe4 e337 0075 d637 0ed7 b437 55a4 a937
00000230: d285 ec37 4f40 ee37 de41 fd37 55fd fe37
00000240: 60c7 1138 1774 1538 22dd 0f38 2f49 aa34
00000250: 006d 8434 28b1 8d34 d0fd a834 009f e734
00000260: eaf4 d534 b4af e034 3dbe b434 b1b2 9834
00000270: 067f 8f34 e974 c434 2640 0535 3cfb f334
00000280: 57e5 d234 286d e034 b2fd be34 6fac e834
00000290: b69b 0035 b715 f034 5f56 b534 346b 9534
000002a0: a307 3835 3df7 2935 f2e5 1f35 9a05 0935
000002b0: eac1 ea34 dc02 ac34 888d 7b34 9889 8235
000002c0: 4f17 3635 5b87 0b35 d7c4 0935 1e70 d734
000002d0: fb97 de34 a0a0 b134 f397 4c35 02e2 d234
000002e0: 7973 a934 2d0b b534 0058 9a34 3133 9234
000002f0: f2e6 b134 81ff 2535 3a34 a434 5f78 9134
00000300: 047a a434 f4ea 8434 434e 9834 257e bb34
00000310: aa90 962e 4666 922e 14d5 912e ea6f 762e
00000320: c80b 842e fa35 862e a127 752e b559 842e
00000330: 503b 972e 7dd9 a72e e41f 982e 5f9c 962e
00000340: b43a a82e acda 952e 894b 7d2e aca8 912e
00000350: e366 a42e abf3 c42e 18b6 c82e e04f b92e
00000360: 94ad 922e 31b9 442e d6ae 592e 5e60 912e
00000370: 16e8 9e2e 605f 992e a600 a52e 553c 982e
00000380: cbcf 322e 066b 3f2e 288f 7e2e dace 812e
00000390: f47c 722e 5ac7 802e 5453 5e2e d66f 2c2e
000003a0: bd1a 382e 1ee6 682e c7fa 5b2e ec52 522e
000003b0: 157e 512e 1fad 452e aa35 242e 1cfe 342e
000003c0: 8423 4e2e a950 462e 837a 4a2e cd93 3e2e
000003d0: b2cf 132e bb44 8135 93cb 8335 dd7c 8635
000003e0: 3cd0 7c35 1271 8935 2f19 8e35 a3de 7735
000003f0: 3507 8a35 c7c0 9a35 5e98 8535 703e 7a35
2.9244742e-11 3.336701e-11 3.8750916e-11 5.3189567e-11 6.317574e-11 4.6584386e-11 3.8428535e-11 2.9956586e-11
3.4392107e-11 4.1873043e-11 5.7491407e-11 6.566366e-11 4.7511432e-11 4.0741317e-11 3.070776e-11 3.6440847e-11
4.067667e-11 5.5534917e-11 6.0903345e-11 5.6634687e-11 4.7510048e-11 3.1657524e-11 3.176673e-11 3.6050024e-11
4.6394492e-11 5.1049207e-11 5.349189e-11 5.595114e-11 2.94164e-11 3.0549802e-11 3.7194237e-11 4.7584946e-11
5.739287e-11 6.374587e-11 6.26056e-11 2.8939273e-11 3.1634452e-11 4.2829636e-11 6.426436e-11 7.1132635e-11
6.74681e-11 5.6897802e-11 3.349791e-11 4.001291e-11 5.7945093e-11 7.7635114e-11 7.315897e-11 6.106317e-11
4.8200863e-11 4.3443365e-12 5.1057713e-12 6.7218995e-12 8.355455e-12 9.687381e-12 8.950565e-12 6.868223e-12
5.191669e-12 5.91687e-12 8.102573e-12 8.3747505e-12 9.874954e-12 9.213091e-12 6.5527635e-12 7.0185004e-12
7.63389e-12 8.336932e-12 7.631127e-12 8.402917e-12 7.863459e-12 5.494756e-12 7.023073e-12 7.785709e-12
7.510211e-12 8.742601e-12 8.830124e-12 7.85027e-12 5.595358e-12 5.327229e-12 6.6819857e-12 6.63823e-12
8.816503e-12 1.0417178e-11 7.743611e-12 5.366439e-12 5.5684294e-12 6.6420966e-12 7.25497e-12 8.3602075e-12
8.9205995e-12 8.7672335e-12 5.613482e-12 5.283024e-12 7.134336e-12 7.419348e-12 8.072503e-12 8.0564826e-12
7.3585036e-12 6.075529e-12 3.2771677e-05 3.859337e-05 3.907961e-05 2.4982906e-05 2.184948e-05 2.4903064e-05
1.9700394e-05 3.46572e-05 3.7555925e-05 3.544733e-05 2.7006829e-05 1.6206683e-05 1.694847e-05 1.6218488e-05
3.785314e-05 3.658076e-05 2.7657838e-05 1.6691441e-05 1.1446868e-05 1.0567028e-05 1.1927365e-05 3.6427315e-05
3.9743158e-05 3.0523148e-05 1.9075529e-05 1.244141e-05 9.481454e-06 9.964722e-06 3.1491614e-05 3.7692625e-05
3.2510594e-05 2.2528156e-05 1.5632852e-05 1.1837261e-05 1.1147472e-05 2.7764343e-05 3.6251233e-05 3.4714652e-05
2.7167027e-05 2.556527e-05 2.1557815e-05 2.0222893e-05 2.8195707e-05 2.8401757e-05 3.0190622e-05 3.0397126e-05
3.4756376e-05 3.5632485e-05 3.4299803e-05 3.1718216e-07 2.4666224e-07 2.6392195e-07 3.147711e-07 4.314279e-07
3.985254e-07 4.1851092e-07 3.366603e-07 2.844222e-07 2.6728247e-07 3.6592908e-07 4.963971e-07 4.5445074e-07
3.9282415e-07 4.1802673e-07 3.5574845e-07 4.333883e-07 4.7910305e-07 4.4719283e-07 3.377672e-07 2.7831413e-07
6.8556454e-07 6.3317185e-07 5.956673e-07 5.104463e-07 4.3726988e-07 3.2039577e-07 2.3427685e-07 9.7258e-07
6.78342e-07 5.1978503e-07 5.1322917e-07 4.0128447e-07 4.1461303e-07 3.308569e-07 7.621704e-07 3.927999e-07
3.156272e-07 3.372201e-07 2.8748764e-07 2.7231866e-07 3.3136854e-07 6.1839097e-07 3.058538e-07 2.7095936e-07
3.0636158e-07 2.4757867e-07 2.836915e-07 3.4923247e-07 6.846908e-11 6.657479e-11 6.631687e-11 5.6033324e-11
6.004758e-11 6.103203e-11 5.5741748e-11 6.0186e-11 6.877221e-11 7.6329144e-11 6.9178246e-11 6.8489873e-11
7.650183e-11 6.8145795e-11 5.759263e-11 6.623799e-11 7.476133e-11 8.956332e-11 9.1272934e-11 8.4270146e-11
6.670145e-11 4.4729723e-11 4.9495373e-11 6.610955e-11 7.226235e-11 6.9745765e-11 7.5034465e-11 6.922877e-11
4.065707e-11 4.3523428e-11 5.7880062e-11 5.902985e-11 5.513541e-11 5.856178e-11 5.0550966e-11 3.9207602e-11
4.1860505e-11 5.2955078e-11 5.001757e-11 4.782212e-11 4.763308e-11 4.4946376e-11 3.7336946e-11 4.1152956e-11
4.687052e-11 4.509163e-11 4.6038295e-11 4.3332272e-11 3.36084e-11 9.631252e-07 9.819508e-07 1.0020118e-06
9.4180336e-07 1.0240203e-06 1.0587154e-06 9.233865e-07 1.0283899e-06 1.153e-06 9.953617e-07 9.3223116e-07

exp_avg f4 [285]
00000000: a43d eba9 0ef0 7f94 8088 7bb7 4463 02b8
00000010: 1302 8fab 0e91 3439 e308 e4b8 355a 2038
00000020: 006a cd36 ca59 e1b9 9a9b c8a4 e32d a2b6
00000030: 32ea 32b7 16af 14b8 2323 8ea7 3ce6 fe39
00000040: 661b 7d3a 02cb 1439 8e2e 14b9 b5cd 01b7
00000050: 6a6c 72b4 5ca6 86b9 f4d0 55b9 f995 c6b8
00000060: 1bf1 1db5 c001 6db9 c725 80b9 1ce9 2ab8
00000070: 17aa 5239 ce4e 74b2 f86f 1db8 bdc0 143a
00000080: faa8 c8b5 6ebe 6e38 4d1b 4cb1 a373 fd38
00000090: 32ae 04b8 9b69 68b7 3a55 7bb7 dc54 1439
000000a0: b181 a4b2 740d 17b7 256e 42b9 7543 80b7
000000b0: 18b6 4db9 a018 8eb7 8c9c 5c8d 2b90 d038
000000c0: 36ef 85ac 0d50 82b9 1982 83b4 a4b8 a3b5
000000d0: fe24 41b9 0f34 a538 7ac3 09b9 1c91 15b3
000000e0: d5db f1b8 15dd b939 d2b2 1cb2 aaee afb7
000000f0: 255b 26b4 b8f6 b3b7 7c74 2db5 c7da aeb7
00000100: 7e3c 8bb5 0151 71b9 13aa 12ba a916 a339
00000110: cf4a 94b7 b9cc 13b8 22e0 1c39 d606 b9b6
00000120: 8b0d 9db9 a47a b3b7 d172 0339 8ea0 f3b8
00000130: 0e79 91b5 2671 67a4 47cc 29b7 c9e9 8e38
00000140: 6430 e5b6 71eb 3ab6 51bc fb38 f0de 11ba
00000150: fa42 2639 abc9 cfb6 065c 08a8 d424 f6b8
00000160: 97a5 46b8 fd31 a839 7894 e737 f6bd 3fb7
00000170: e496 0fb6 d4ac a8b9 2424 2eb7 c590 d437
00000180: ab80 10b8 8f82 10ba 61b2 7fb8 ef9b a1b6
00000190: 1ae1 ca37 f371 8bb7 1f0e 5cb7 0981 6339
000001a0: 1e1b b2b9 fbee d437 e3d5 9d39 6de9 04b7
000001b0: 9b1f 18b7 4aac 98b8 e751 a3b7 090b c8b6
000001c0: 5ae7 2f39 5b46 8fb8 9ba7 76b7 3299 253a
000001d0: 0fd5 57b9 3c5f 99b6 aca7 05ba b383 59b7
000001e0: 2435 21b8 2ec9 c838 54bc 2bb8 c6ed 72ac
000001f0: 6962 01b9 bdf1 afb8 db0f 4ab9 2442 6739
00000200: 8eff 0638 de41 1ab9 fbd5 c6b9 2c7a 93b8
00000210: f7d5 1ab7 ad38 7cb8 806e 14a6 e43c 0cba
00000220: d608 4290 48dc 10ba fbe5 91ad b999 d7b9
00000230: d280 f8b8 e957 8db6 a0f1 d4b7 1688 70b7
00000240: 3951 88b7 fafb cb39 fff9 6db6 2685 a9b7
00000250: 365b f4ae a950 92b8 5bec b7b8 a773 24b8
00000260: 8a44 faae 06a3 36b7 80e4 6a39 1890 89ad
00000270: 338e 6236 978f 86b4 df48 77b7 05b7 56a1
00000280: f6d4 fc37 74fe 25b4 42bf beb8 3377 74ab
00000290: 299c 79b9 2538 67b0 781f eab3 22f6 a8b9
000002a0: 4c19 15b9 9654 4bb5 1fab 8339 6fec 82b9
000002b0: 8d4f 5ab7 927e a7b9 1fc9 afa6 7515 44b7
000002c0: 442c bab6 7365 ed35 26ea eeb6 9798 e638
000002d0: 3960 84b7 c599 88b8 08f2 d5b9 13f2 78b9
000002e0: ea93 8bb9 8750 19b7 8c28 31b7 dc6d 06b6
000002f0: 234b 9ab8 b686 5438 ba2a abb7 2f57 8bb9
00000300: d481 22b8 ef28 f739 9dab dbb5 409c f6b1
00000310: 35e4 9b39 0d2f 0739 b35d ffb8 697b b6b9
00000320: f698 84aa db15 56b4 b3d2 faa4 c326 80b7
00000330: 2eb1 1db9 58dd 3893 da9a 8437 3d52 e3b6
00000340: 06ec ce39 6b12 5b38 2d95 7c39 2b97 9139
00000350: 1f78 4f38 b079 bbb9 f8de 1e3a f001 e4b9
00000360: a0a5 3d39 713b cbb7 895d 53b7 4037 5eb7
00000370: 4066 2038 3583 7fb7 1675 b98a 5659 fe36
00000380: b775 9fb7 1bfc 31b7 661e 1339 dac4 8db6
00000390: e4b8 b2b7 a3b0 c6b9 9431 59b7 2370 90b5
000003a0: 0369 68b8 942e efb7 5fb9 29b7 6986 d5b6
000003b0: b281 81b7 3aa8 32b6 4360 b6b7 46d4 bdb8
000003c0: d3c2 fbb9 4755 84b9 352a c4b0 f807 1fb7
000003d0: c231 41b7 442b b5b3 9b91 2cb8 5bfa 9135
000003e0: 4d40 c637 8301 b038 4a27 2dba e4ff a0b8
000003f0: cbd5 3439 3a57 9a39 5cc5 b7b6 c843 9dab
-1.04467894e-13 -1.29215524e-26 -1.4992547e-05 -3.1086864e-05 -1.0161337e-12 0.00017220175 -0.000108735425 3.8230985e-05
6.121816e-06 -0.00042982242 -8.699977e-17 -4.833318e-06 -1.0664155e-05 -3.544901e-05 -3.9451013e-15 0.00048618193
0.0009655267 0.00014190006 -0.00014131723 -7.736894e-06 -2.2577447e-07 -0.0002568242 -0.00020391104 -9.46931e-05
-5.883791e-07 -0.00022602733 -0.0002444221 -4.074826e-05 0.00020090524 -1.4220587e-08 -3.7535996e-05 0.0005674472
-1.495034e-06 5.6920973e-05 -2.9701426e-09 0.00012085519 -3.1633484e-05 -1.3852866e-05 -1.4980609e-05 0.00014145992
-1.915109e-08 -9.003434e-06 -0.00018542314 -1.5290201e-05 -0.00019618159 -1.6939186e-05 -6.798117e-31 9.945066e-05
-3.806645e-12 -0.00024855175 -2.449531e-07 -1.2198184e-06 -0.00018419695 7.87751e-05 -0.00013138159 -3.4823742e-08
-0.000115327224 0.0003545067 -9.121054e-09 -2.0972762e-05 -1.5493113e-07 -2.145335e-05 -6.461703e-07 -2.0844293e-05
-1.0373913e-06 -0.00023013727 -0.0005594801 0.00031106666 -1.767781e-05 -3.5238194e-05 0.00014960815 -5.5142254e-06
-0.00029955464 -2.1395572e-05 0.00012535906 -0.000116170486 -1.0838573e-06 -5.018598e-17 -1.0120747e-05 6.8146335e-05
-6.8303652e-06 -2.7853205e-06 0.00012003689 -0.00055645313 0.00015855944 -6.192558e-06 -7.569471e-15 -0.00011737054
-4.7361096e-05 0.000320807 2.7606482e-05 -1.1428716e-05 -2.139649e-06 -0.00032172224 -1.0379623e-05 2.5339783e-05
-3.4452107e-05 -0.0005512619 -6.0962866e-05 -4.816327e-06 2.4185098e-05 -1.6623153e-05 -1.311631e-05 0.00021696476
-0.0003397101 2.5383653e-05 0.00030104732 -7.922162e-06 -9.067265e-06 -7.280016e-05 -1.9469253e-05 -5.961749e-06
0.00016775486 -6.831876e-05 -1.4701766e-05 0.00063170784 -0.00020583368 -4.570842e-06 -0.00050985324 -1.29648715e-05
-3.8434882e-05 9.574216e-05 -4.094497e-05 -3.452226e-12 -0.0001233906 -8.3896775e-05 -0.00019270128 0.00022054516
3.2186093e-05 -0.00014711122 -0.0003792493 -7.0322625e-05 -9.228933e-06 -6.0134265e-05 -5.149757e-16 -0.00053496496
-3.826656e-29 -0.00055259885 -1.6586723e-11 -0.00041122528 -0.00011849556 -4.2123615e-06 -2.5384885e-05 -1.43368e-05
-1.6250286e-05 0.00038906914 -3.546127e-06 -2.0208372e-05 -1.1112038e-10 -6.9768466e-05 -8.7701446e-05 -3.9208357e-05
-1.1380859e-10 -1.0886002e-05 0.00022401102 -1.5639087e-11 3.3759395e-06 -2.506392e-07 -1.4739314e-05 -7.2748245e-19
3.0139909e-05 -1.5459392e-07 -9.0955305e-05 -8.6851636e-13 -0.00023804665 -8.4117097e-10 -1.0902198e-07 -0.0003222684
-0.00014219171 -7.574648e-07 0.00025113762 -0.0002497169 -1.3012334e-05 -0.00031947024 -1.2197578e-15 -1.1687506e-05
-5.548385e-06 1.7687402e-06 -7.120211e-06 0.00010995677 -1.5780433e-05 -6.513627e-05 -0.00040806853 -0.00023741303
-0.0002662235 -9.13826e-06 -1.0559463e-05 -2.0031503e-06 -7.3572875e-05 5.0670198e-05 -2.0404685e-05 -0.00026577103
-3.874472e-05 0.0004714201 -1.6366718e-06 -7.177306e-09 0.0002973393 0.00012892131 -0.000121768004 -0.00034805693
-2.3554048e-13 -1.9938254e-07 -1.08777156e-16 -1.5276839e-05 -0.00015038691 -2.3333196e-27 1.5807735e-05 -6.774701e-06
0.00039467233 5.2230822e-05 0.00024088165 0.00027769184 4.9464517e-05 -0.00035758084 0.00060604466 -0.00043488992
0.00018086145 -2.4227165e-05 -1.2598358e-05 -1.3245095e-05 3.82422e-05 -1.5229733e-05 -1.7858895e-32 7.58019e-06
-1.9009092e-05 -1.060872e-05 0.00014030337 -4.225044e-06 -2.130535e-05 -0.00037897108 -1.2945751e-05 -1.0761472e-06
-5.541091e-05 -2.851271e-05 -1.0116345e-05 -6.363542e-06 -1.5438392e-05 -2.6621988e-06 -2.1740916e-05 -9.051761e-05
-0.00048019606 -0.00025240539 -1.4272873e-09 -9.478994e-06 -1.1515282e-05 -8.436339e-08 -4.11436e-05 1.0876205e-06
2.3633382e-05 8.3926156e-05 -0.0006605281 -7.677058e-05 0.00017245782 0.00029438158 -5.4768007e-06 -1.1174334e-12

exp_avg_sq f4 [285]
00000000: f05f 072f a4e6 c12d 53f8 6837 5d29 e134
00000010: 71fa 272f a55d 9a36 d436 6437 0412 3338
00000020: df13 8435 70df 5637 b805 902e 7cbb 4d32
00000030: 1899 4933 3189 a136 5a64 c02e d169 cb37
00000040: df1d 0d38 2361 3837 9b8a 2837 08da 8633
00000050: a73b 0c31 f351 9637 3688 a336 2910 a036
00000060: a18b 3b31 0f24 fd37 784d 0437 6a64 1a35
00000070: 6e8a 9237 2a30 4430 f0d8 7c36 c0c0 0437
00000080: f215 be31 2c51 0136 778b 0930 13e3 e036
00000090: e302 9f36 8812 c735 bf3e 5534 4034 6837
000000a0: 3368 4c30 d14e 1533 1beb 1b37 5d9b c735
000000b0: 98e2 1d36 ae22 0c34 7bad 8d2d 8e80 f836
000000c0: cb62 4c2f 8d97 d737 a46e 0131 43ea 9231
000000d0: c88c 9238 5e5a 1e37 1d27 c037 b618 9230
000000e0: c5e2 c037 e437 d236 9366 3730 6646 0335
000000f0: 598f d130 53d1 f233 472a 7431 4c81 cc34
00000100: bd9c 6831 0d26 3c37 042e d036 f0ac 5536
00000110: 6d99 9c34 ce2e b736 788b 9837 2b26 e533
00000120: 42b6 cc36 28df b234 ed3c 3337 7e48 9536
00000130: 6861 3437 bbca 872e b8dd aa34 264f 4931
00000140: 40d6 8632 4922 4d32 7728 a337 35a4 8337
00000150: facb 9137 fa7f 2233 8960 ce2e 2a2f 5336
00000160: fddf 1837 fe7f 7e37 e021 d137 d98f 5b33
00000170: 676b 2c32 d50d 2437 1da0 4e35 69e8 dc37
00000180: fe8b 4738 df52 8637 8b0b 2737 1262 3433
00000190: f807 a836 15d3 b034 ea55 dd34 811a 5238
000001a0: defd 9d36 5177 1338 e715 5237 8bee 0133
000001b0: 9a54 1333 4879 a136 4d32 6534 a7d0 cc32
000001c0: 9290 f836 f78e 8635 22d1 7f34 3a52 eb36
000001d0: 514c 9a37 494f 9632 a735 9637 8b65 1935
000001e0: e65e 7f37 0874 6438 de98 4b35 3907 3d2f
000001f0: 65ea 3236 d5de 0e37 f99c 0237 bc49 0e37
00000200: f86d e035 704e 0f37 295b 8d37 97a7 1c37
00000210: 11bd f832 fc04 a036 4d5e a32e 49a4 0437
00000220: bf3a 9f2d 31c9 cb37 ca94 602f cb42 5f37
00000230: 0384 c037 4254 8332 4aeb 1b36 2fda 5b35
00000240: fe78 3e35 7bc0 3937 47a7 1932 5c50 e033
00000250: c0b1 9f2f ff0e cf36 6e93 bf37 2534 0f34
00000260: bd60 9b2f 54c3 4733 97cd ce37 9f0b 672f
00000270: 0981 8a34 9119 0431 d55d 8334 86d4 572e
00000280: 7178 4336 f468 d830 63ae 8b37 9bc4 272f
00000290: 723a 8937 2dcd d62f 24a4 ce30 08c5 6937
000002a0: d208 7237 9cbf 6131 9d8f 1f37 12f1 3337
000002b0: 8e33 3c33 94cb f536 0d52 b32e fa4c 2135
000002c0: bda9 ee32 f6e8 dd34 974e af33 04a2 8836
000002d0: 0212 2836 2096 4037 57f8 9837 ac1e ac36
000002e0: 21e7 ea36 7005 e534 b85d 9835 014b ba31
000002f0: f0c2 7637 48da 0733 182d bc34 23bc 3437
00000300: 988e 5037 f714 1637 4dc0 aa31 0102 2130
00000310: 4867 ab36 8a79 db37 cbc2 8437 8ef2 1b37
00000320: a2c0 132f 7f7f dd30 871d 952e aff0 fc34
00000330: c3d7 6737 42bf b42d 08a5 4836 8f1f 0233
00000340: 195b 5a37 3f08 5f37 06c4 0038 8955 9037
00000350: 9f36 6334 f8be ec37 1197 8137 3a76 6637
00000360: 8d8c 2f37 0aba 5035 f3ba 8434 e6a7 4f34
00000370: d29d f034 7e79 6034 08d2 822d 8f43 8636
00000380: 3fa9 3935 1af0 af34 5211 2237 7a6a 5432
00000390: 92a3 2d35 9ad6 4e37 1c9e ae34 ada2 8631
000003a0: 5d7f 2036 075e 8535 6265 1135 4c63 2734
000003b0: 3029 6133 a6fc f036 bbc2 d935 574d 9135
000003c0: 2d76 8c37 6d51 5937 0d1f fd2f f86c eb32
000003d0: 8bd5 6133 a769 aa30 7ee6 2737 3d6e f135
000003e0: 767c 8737 0a39 6f37 c595 ca37 7859 8237
000003f0: a47b d136 1db1 8537 af05 9732 5e89 2a2f
1.2312262e-10 2.2043985e-11 1.3886095e-05 4.1939612e-07 1.5277536e-10 4.6004593e-06 1.3602625e-05 4.2693704e-05
9.84055e-07 1.2807417e-05 6.549378e-11 1.19751995e-08 4.6938197e-08 4.814145e-06 8.748975e-11 2.424876e-05
3.364484e-05 1.0989871e-05 1.0045852e-05 6.279521e-08 2.040659e-09 1.7919554e-05 4.8736356e-06 4.770253e-06
2.7291451e-09 3.0176741e-05 7.88585e-06 5.751559e-07 1.7469018e-05 7.137283e-10 3.76772e-06 7.912691e-06
5.5322227e-09 1.9269746e-06 5.00385e-10 6.702155e-06 4.7389053e-06 1.4832049e-06 1.9859998e-07 1.3840443e-05
7.4362844e-10 3.476345e-08 9.29346e-06 1.4871872e-06 2.3526718e-06 1.3051132e-07 1.6106885e-11 7.4059417e-06
1.858879e-10 2.5700569e-05 1.8834863e-09 4.2757917e-09 6.988045e-05 9.438574e-06 2.2906397e-05 1.0629921e-09
2.2993781e-05 6.264994e-06 6.672078e-10 4.8903746e-07 1.5247493e-09 1.1307079e-07 3.5530705e-09 3.8092037e-07
3.3849539e-09 1.1214533e-05 6.20424e-06 3.1840136e-06 2.9168896e-07 5.459274e-06 1.8184757e-05 1.0670586e-07
6.1008914e-06 3.331745e-07 1.0683417e-05 4.4489852e-06 1.0751515e-05 6.1751014e-11 3.182629e-07 2.929434e-09
1.5697083e-08 1.1940366e-08 1.9449957e-05 1.5692882e-05 1.7380331e-05 3.783496e-08 9.3849435e-11 3.1468903e-06
9.112057e-06 1.516938e-05 2.4930516e-05 5.112074e-08 1.0036138e-08 9.778382e-06 7.6973976e-07 2.6334268e-05
4.7575675e-05 1.6012635e-05 9.956663e-06 4.199871e-08 5.007718e-06 3.2936137e-07 4.1226969e-07 5.0092585e-05
4.7085186e-06 3.5158653e-05 1.2522075e-05 3.0252107e-08 3.430305e-08 4.812293e-06 2.1345586e-07 2.384361e-08
7.407806e-06 1.0025386e-06 2.3824808e-07 7.013118e-06 1.8393768e-05 1.7498353e-08 1.7906377e-05 5.7144706e-07
1.522128e-05 5.44675e-05 7.5845844e-07 1.7192016e-10 2.6660502e-06 8.515742e-06 7.785152e-06 8.481027e-06
1.6721306e-06 8.541727e-06 1.685096e-05 9.337345e-06 2.8956977e-08 4.768952e-06 7.429133e-11 7.906064e-06
1.8102296e-11 2.4293173e-05 2.0425542e-10 1.3307387e-05 2.2949656e-05 1.5288723e-08 2.3233756e-06 8.1901356e-07
7.095658e-07 1.1071675e-05 8.943807e-09 1.044543e-07 2.904823e-10 6.1708265e-06 2.2837627e-05 1.3336883e-07
2.8263072e-10 4.6510948e-08 2.4652849e-05 2.1013456e-10 2.5798388e-07 1.922306e-09 2.4468923e-07 4.90741e-11
2.912737e-06 1.5745898e-09 1.6651296e-05 1.525841e-10 1.6358888e-05 3.907216e-10 1.5035124e-09 1.3933757e-05
1.4426378e-05 3.2850727e-09 9.510576e-06 1.072536e-05 4.381905e-08 7.3252686e-06 8.154553e-11 6.008919e-07
2.7784035e-08 4.133396e-07 8.163368e-08 4.071977e-06 2.5044433e-06 1.14790455e-05 1.8235454e-05 5.12957e-06
7.0006504e-06 4.265853e-07 1.1352158e-06 5.4218394e-09 1.470813e-05 3.1630663e-08 3.505054e-07 1.077264e-05
1.2430966e-05 8.945578e-06 4.9695132e-09 5.8574307e-10 5.1082206e-06 2.616343e-05 1.5826334e-05 9.295194e-06
1.3438009e-10 1.6116103e-09 6.7809806e-11 4.7113778e-07 1.3818909e-05 2.0548566e-11 2.9898383e-06 3.0296686e-08
1.3015023e-05 1.3293756e-05 3.070014e-05 1.7205968e-05 2.1160893e-07 2.8222319e-05 1.5448344e-05 1.3736595e-05
1.0463537e-05 7.775676e-07 2.472294e-07 1.9339458e-07 4.4818313e-07 2.0905824e-07 1.4872562e-11 4.001376e-06
6.9164156e-07 3.2770987e-07 9.659985e-06 1.2364234e-08 6.468555e-07 1.2328523e-05 3.2525065e-07 3.9184074e-09
2.3915993e-06 9.936638e-07 5.416424e-07 1.5589211e-07 5.2424355e-08 7.1819695e-06 1.6224434e-06 1.0825851e-06
1.674433e-05 1.2953166e-05 4.6042495e-10 2.7407154e-08 5.258111e-08 1.2399156e-09 1.0007641e-05 1.7987983e-06
1.615121e-05 1.42587905e-05 2.4150018e-05 1.553887e-05 6.243079e-06 1.593731e-05 1.7581298e-08 1.5510213e-10
