HW1/saved models/Model 4 - Split image-16, lr=0.001, wd=0.0001, bs=32.pkl (torch_old, 694999 bytes, 36 tensors)

linear1.weight f4 [36, 49]
00000000: 0991 a7bd b9b2 d73d 8dd5 acbc 9b70 82ba
00000010: aeec cdbd ef7a 813e 6e7d 8c3e e1cf 123d
00000020: e2c7 853e c465 693d af73 9dbd b594 803e
00000030: b66a bfb8 0a36 4ebe a1a6 043c 2c40 173e
00000040: 1c36 033e b52f ad3d fe76 123e 6c87 443e
00000050: a9de f6bd f08f 303e 33ca 723e c564 223e
00000060: 899c 053e 9087 a63d 4d4a 1f3d 23cc 193d
00000070: b9e0 01be 6b4d dfbd de73 b0be d088 b8bc
00000080: 0168 7f3d f6e1 9abd 3620 1f3e 7de8 e7be
00000090: 7151 e2be e740 eabe 84f1 a2be 959f ee3d
000000a0: 19d9 463d c521 3f3e 6d5c 1ebf 0f01 04bf
000000b0: 662d 14be 8d75 a7be fc32 9abe dd86 babd
000000c0: 0397 c43e 2730 ca3e 5b38 983e c2b2 9e3e
000000d0: 48bc c63e 3b80 b53e 5fba 143e 31af ba3e
000000e0: 5e34 f13d 6af9 823e ad56 873e 023a 9f3e
000000f0: 2b0e 923e bbbf 6f3e 7d2a 993e d80f 13be
00000100: 006a 3e3d fe54 43be d0be 2a3d 15fb e43b
00000110: d87a f23d b461 5ebd ff64 a5be 9bdd 1fbe
00000120: 6286 7bbe c92a c2bd ee9e 83be 8caa dabe
00000130: 1288 debe dcd8 77be 6921 3dbe 4f1b 98be
00000140: 15a9 a0be 3973 35be 66a8 aabe 518a d3be
00000150: 00a3 82be a162 8dbd 3606 2dbd 49e9 8fbd
00000160: 61a0 313d 37bb 13be c355 2e3c 3b24 f13d
00000170: 14b5 213e cfff 213d 0c3f 683d 498b e2bd
00000180: 015e 193d b81d 003c 4268 613d c6fc 12be
00000190: 9c9d 2e3d a013 2e3d 99ec 53bd ebb1 60be
000001a0: 091a 57be 212d 6abe 4baa 23be ee0f 37be
000001b0: 1c55 e6bd 415b e1be 4156 3abe efaf 21bb
000001c0: 7ffa 123e 4667 27be 8c10 4fbe a666 a6bd
000001d0: 2ae8 24be 61c5 123d 1965 3e3e 181a a43e
000001e0: 44cd 74bd 553e 83bd 112e 9c3d 0a01 583e
000001f0: 6caa 1c3e 74d3 713e 485b 813e 8e82 a6b9
00000200: 03f7 713c 901e 3a3e c4d7 7b3e 3c71 bd3e
00000210: 6858 223e a335 c53e cb72 273e 0926 063e
00000220: 9c85 903e 3219 613d 8ad8 38ba 65f8 97bd
00000230: 9145 e73d 40f7 f53d 54ee 5e3e c857 6bbd
00000240: 338e 60be f208 a4be 1a03 77be 63a2 6ebd
00000250: de59 93bd 965f 663e 23da 8c3d 24f1 3bbd
00000260: 5459 25be f062 bc3d c989 3bbe a0a5 51bd
00000270: 9a63 133e b6df 843d bf27 a53c ec17 55be
00000280: 7e07 1b3a d5d7 15be 09fb 6abd ac21 4c3e
00000290: 65a1 473e 7dff 93bd 1ccd 84be 4211 f33d
000002a0: af96 52be e1ef 35be 71c1 883d 859b 6c3e
000002b0: 5751 54bc 66a0 63be 4ebd e2bd 607e 47be
000002c0: 8249 b7be 3058 1b3e fd26 e13e 2fe3 ffbd
000002d0: 9abb 97be 812a 493c 3a09 87be b80f 17be
000002e0: 5ce0 193e f893 183e c896 dabd 0677 54be
000002f0: 544f 86bd 2246 97bd f8f2 f53c 9fd8 763d
00000300: 4009 813e aa43 f6bc dc41 8bbd ca66 bf3d
00000310: 3f49 c7bd 5865 62be 4a9d ffbd f4f6 2abe
00000320: 098f 333d 4696 753e a758 183f 5ace 25be
00000330: f548 0f3e 25f7 88bd 666a 643e 23d8 213e
00000340: b0b1 373e 0740 7a3e d3c7 fb3d 6c20 97bc
00000350: b1c2 b03e 5fa1 d03e a289 dc3e d398 063d
00000360: 9c31 8d3d 13b7 423e 6f50 743d fe8a 633e
00000370: 8515 bcbd 61fd 8bbd ac92 163d e876 213d
00000380: abf9 113e 4a9f 283d aa2a 183e e8e5 21be
00000390: 58cc abbc b9be 4bbe d0fc 51be a4dd 8a3d
000003a0: 60c2 e43b 1f72 b3ba 9b5f 7abe ecf6 b0be
000003b0: 3603 60bd 4f4f 40be 9f97 6bbd 6062 94bd
000003c0: f361 5dbe db62 82be 0e0e 00be 5e92 86be
000003d0: 03ad 42be d8f9 a73e 7c92 c13e 5e02 0c3e
000003e0: 229f 4c3e 5a2f 1d3e 82a0 c2bd 5a74 983d
000003f0: e272 38be 9276 c13d f27c 893b 1c6b 2abe
-0.0818196 0.105321355 -0.021097923 -0.0009951772 -0.10054909 0.25289103 0.27439445 0.03584278
0.2612906 0.056981817 -0.076880805 0.25113454 -9.127466e-05 -0.20137802 0.008096368 0.14770573
0.1281361 0.08456365 0.14303204 0.19192284 -0.12054188 0.17242408 0.23709945 0.15858753
0.13047995 0.08131325 0.038889218 0.037548196 -0.12683381 -0.10903438 -0.344634 -0.022526175
0.062355045 -0.0756263 0.15539631 -0.45294562 -0.4420276 -0.45752642 -0.31824887 0.116515316
0.048546884 0.18665226 -0.6185978 -0.51564115 -0.14470443 -0.32706872 -0.30117023 -0.091077544
0.38396463 0.39489862 0.29730496 0.30995756 0.38815522 0.35449395 0.1452422 0.36461785
0.117775664 0.25580913 0.26433316 0.31098944 0.28526434 0.23412983 0.29915228 -0.14361513
0.04648781 -0.1907539 0.04168588 0.006987939 0.11839837 -0.054292396 -0.32303616 -0.1561188
-0.24562982 -0.09480817 -0.2570719 -0.42708242 -0.43463188 -0.24203819 -0.18469776 -0.29708335
-0.31379 -0.17719735 -0.33331603 -0.41316465 -0.25514984 -0.069035776 -0.04224225 -0.070269175
0.04336584 -0.14426886 0.010640564 0.117744885 0.15791732 0.0395506 0.05670075 -0.11061723
0.037443165 0.0078195855 0.05503107 -0.14354238 0.042630777 0.042499185 -0.05173931 -0.2194287
-0.21006025 -0.22868778 -0.1598293 -0.1787717 -0.11246702 -0.44014934 -0.18196966 -0.0024671515
0.14353369 -0.1634799 -0.20221156 -0.081250474 -0.16104189 0.035832766 0.18593253 0.32051158
-0.05976607 -0.06408373 0.07625974 0.21094146 0.15299386 0.23615819 0.25264955 -0.00031759258
0.014768365 0.18175721 0.24594027 0.37000453 0.15854037 0.38517484 0.16352384 0.13100447
0.28226936 0.05495567 -0.000705131 -0.07420424 0.112925656 0.1201005 0.21770602 -0.05745676
-0.21929245 -0.32038075 -0.24122277 -0.058260333 -0.07194875 0.224974 0.06877544 -0.045884266
-0.16147357 0.09198558 -0.1831428 -0.051183343 0.14393464 0.06487982 0.020160554 -0.20809907
0.0005913897 -0.14633115 -0.057368312 0.1993472 0.19495161 -0.07226465 -0.25937736 0.11868526
-0.20565294 -0.17767288 0.06677521 0.23106201 -0.012958846 -0.22229156 -0.11071263 -0.19481802
-0.3579827 0.1517036 0.43975058 -0.12494504 -0.29635316 0.0122782 -0.26374227 -0.1475209
0.15026993 0.14900196 -0.106732905 -0.20748529 -0.065580994 -0.07386424 0.030023083 0.06026518
0.2520237 -0.030061562 -0.06799671 0.09345777 -0.097307675 -0.22108972 -0.124811724 -0.16695768
0.04383758 0.23983106 0.5951027 -0.16191998 0.13992675 -0.06687764 0.22306213 0.15805106
0.17938876 0.24438487 0.12293973 -0.018448077 0.34523538 0.40748116 0.43073756 0.03286059
0.06894228 0.1901515 0.05964702 0.2222099 -0.09183792 -0.068354376 0.03676097 0.03942004
0.14255397 0.041167535 0.14860025 -0.15810359 -0.020971462 -0.19896974 -0.20506597 0.06780556
0.006981179 -0.0013690627 -0.24450533 -0.34563386 -0.054690562 -0.18780254 -0.057517644 -0.07245326
-0.21619396 -0.25466046 -0.12505361 -0.26283544 -0.19011311 0.32807803 0.3780707 0.13672778
0.1998258 0.15350094 -0.09503271 0.07444067 -0.18012574 0.094464436 0.004195803 -0.16642421

linear1.bias f4 [36]
00000000: fcd4 803e 7c37 413e c041 6d3e 3522 a8be
00000010: 8c10 1a3d 05cf ee3d c81d 3abc 8b4c c0be
00000020: a8bd 85be 6f22 98be 0bff 2cbe 97d2 f1bd
00000030: 5e28 e23d f0f1 40bd 337e 36be 2bf8 dc3d
00000040: 2eea 2f3e 7963 26be f329 b0bd 7f13 21be
00000050: 449e a7be ba7a 0a3e 6570 13be 263f adbd
00000060: e50b b0bd aa35 9c3c 4380 52be 7923 42be
00000070: 13e8 ee3d 2e7e 78be 450e a5bd 3338 2b3d
00000080: f438 873d f546 873d cf75 e53c e87c d1bd
0.25162494 0.18868822 0.23169613 -0.32838598 0.037613437 0.116605796 -0.0113596395 -0.37558398
-0.2612126 -0.2971377 -0.16894166 -0.11807745 0.11042856 -0.04710573 -0.17821579 0.10789522
0.17179176 -0.16248883 -0.08601751 -0.15730093 -0.32737935 0.13523379 -0.14398344 -0.0845931
-0.08596019 0.019068558 -0.2055674 -0.18958844 0.116653584 -0.24266884 -0.08059362 0.041801643
0.0660266 0.06605331 0.028010277 -0.10228902

linear2.weight f4 [18, 36]
00000000: 7b90 89be f000 1bbe eea2 463e 74a6 17bd
00000010: d098 10be af07 c03d 7a33 103d 2168 e5be
00000020: ec2b 0cbc ca2d 62bd 1843 073f ffa7 acbe
00000030: c7c1 ea3e 7cfd 59be 27f5 b93e db24 3fbe
00000040: 9daa ee3d 5b2c c03e 9294 a13e c7ce 0b3d
00000050: 46b2 65be 48e6 91bd 122b 603d 1fcb acbe
00000060: 884f 043e 2846 fa3e aa3e 3ebe 965e 013e
00000070: d02f 3d3e 3c28 5abe 0d7b f1be cc43 933e
00000080: da08 d93c 23cb c3bc 5016 a03e ead6 fbbd
00000090: a25a 343d 0418 4fbe bf7c bcbe 3b44 ab3d
000000a0: 2ebf afbd bcf0 1fbe e30c 7dbc 13a0 9fbd
000000b0: dbf7 22be 0572 183f d436 bfbc 8ee9 cfbc
000000c0: 35f3 583d c1af 64be a8fc 743e 0cf9 7bbe
000000d0: 0189 bcbe 00df 72bd 83df 853e 81a3 40bd
000000e0: e940 bf3d 7985 f3bd b70a 77be 9c83 db3d
000000f0: d26b b13c 12e1 5fbe 2a91 9b3e 0cb0 4dbe
00000100: 61dd dbbe fa72 933a 6ee6 153e 5c0b 2bbc
00000110: dd9e 50be e316 3d3e 46ec 8f3e 8ed8 bfbd
00000120: 373e 453e 8d43 9bbe 9a90 adbe 4447 0b3f
00000130: 964c d2be 1638 f2bd 0677 fbbc f908 103f
00000140: 8f04 203e e99b 893d 3535 06bf c825 3ebe
00000150: ece7 d3be c865 0b3f 1eed c83d f630 2e3e
00000160: e0e5 6e3e 5c34 03be d4db a13d cd43 4e3b
00000170: f64a 3c3e 90da 45be ba57 283f 7228 90be
00000180: dd21 033f d27d 06be 7a6e 8ebe af7f a6bd
00000190: 34bc 60be bb85 edbc baa0 393e 1115 233f
000001a0: fe37 40be 0571 95bd cecd f1bd 40a0 e7bd
000001b0: fd0a 4fbe d160 e33b 1aae bb3d 090b fb3d
000001c0: 842f b23e d4d5 7dbc 4dbb 063e 3d2b bd3e
000001d0: 7eae dc3e 8054 ca3e 686c ae3d e313 9cbe
000001e0: 13fa 823d 501f 073f 9991 1bbf 9a23 dfbe
000001f0: 3b74 4c3e d3bb 02bd 1cc3 98be d2e1 143d
00000200: fbcc 3ebf 0013 04bf b192 3f3e 738f 8bbe
00000210: 6445 5e3e 95c1 91be 993d eb3e 817c 1cbd
00000220: 02a2 0a3e 455b 83be b686 843e 9a45 a0be
00000230: f217 77bd 2355 ca3e d70f c8bd a788 01be
00000240: 138d 1ebe 5851 06be 87d8 0ebe 8cdc 89be
00000250: d963 0cbe 63ab debe 377c 313f b880 8f3e
00000260: 3202 91be 5539 313e 49f8 b1be 9bd0 b53e
00000270: 209d d8bd a020 00bd 13fa 883e 1c7d 47bd
00000280: 4545 90bd 223d 9dbe 0258 84bd ff63 153d
00000290: 462a e83c aa1e 10bf 9e0b b0be 9a57 aa3e
000002a0: c2d4 bbbe d607 8a3e 5775 d63e 9acb 33bd
000002b0: ad6d f93d edfe 8abd 7988 aebe b160 683e
000002c0: 6e66 a53d a2c9 23bf b2de 99be ddd1 3fbd
000002d0: 169e 54bd 5916 fe3e 0d2a efbd 567f 313d
000002e0: b80b 11be 2eb7 8d3e 2649 44be 88b1 1abe
000002f0: b0b6 5b3e 34a6 cabe e8e8 cc3c 334a d7be
00000300: 421b ca3d d92f 483e 627d c5bd 0ef9 7a3c
00000310: 1342 45bd c028 683e f80c bd3d 4db8 31bd
00000320: b829 553e 759e b83e 8784 8f3d cfc5 003d
00000330: 305e c23e 103c 043e 8fb9 ebbe 968c a73e
00000340: 954f 6b3e 095d c53c a10a 85be 2d47 203e
00000350: c0ed c3be 9e4c d8be 6584 aabe 88cd 303c
00000360: da27 0bbf 2b5d 1cbe e925 9a3e 2d76 1abe
00000370: 7338 b2be c3ee 853e dbf0 8fbc 568c 8cbd
00000380: 8cbd ec3c 8853 e4bd 2bb5 d8bd f2d1 c13e
00000390: 961c 0e3e 3156 3a3f 8902 cebc 515f 47be
000003a0: 29e7 a13d f166 1e3e 94eb 103d 167c ccbc
000003b0: 0add b6bd f0c6 87be b5b3 f43d 5cb1 b33e
000003c0: 17d0 193d 5302 a4be fbd2 263e 476e 33be
000003d0: 58b1 48be e17b d93b 7b65 8eba b0f3 63be
000003e0: 81d7 7abe 217b 8ebe 4809 943d 0167 303e
000003f0: 45eb 243e c9d4 e33e c152 893e 9307 9ebc
-0.26868042 -0.15137076 0.1939809 -0.037023976 -0.14120793 0.093764655 0.035205342 -0.44806007
-0.008555394 -0.05521945 0.5283675 -0.3372192 0.45850965 -0.21288103 0.3631985 -0.18666403
0.11653636 0.3753384 0.31558663 0.034132745 -0.22431287 -0.07124001 0.054728575 -0.3374872
0.12920964 0.4888165 -0.18578592 0.12633738 0.1847527 -0.2130441 -0.47164193 0.28762662
0.026493479 -0.023900574 0.31267023 -0.12296851 0.044031747 -0.20224005 -0.36813924 0.08362623
-0.085813865 -0.15619177 -0.015444967 -0.077942036 -0.15914862 0.5954898 -0.023341574 -0.025379922
0.052966315 -0.2233267 0.23924506 -0.24606723 -0.36823276 -0.0592947 0.26147088 -0.04703093
0.093385525 -0.11890692 -0.24125181 0.10718462 0.021657858 -0.21863201 0.3038419 -0.20086688
-0.42942336 0.0011249476 0.14638683 -0.01043972 -0.20373102 0.18465762 0.2810995 -0.093674764
0.19262014 -0.30324975 -0.33899385 0.5440562 -0.41074055 -0.11827104 -0.030696403 0.5626369
0.15626739 0.067191906 -0.5242494 -0.185691 -0.4138788 0.5445218 0.098108515 0.17010865
0.23329878 -0.12812942 0.07903257 0.0031473518 0.1838797 -0.19321656 0.6575886 -0.28155857
0.51223546 -0.13133934 -0.27818662 -0.081298225 -0.21946794 -0.028994432 0.18127719 0.6370402
-0.1877136 -0.072969474 -0.11806832 -0.11309862 -0.20219035 0.0069390316 0.091640666 0.12257964
0.34801877 -0.015492875 0.13157387 0.3694705 0.43101877 0.39517593 0.085167706 -0.30483922
0.06395354 0.52782154 -0.6076904 -0.4358185 0.19966213 -0.031917404 -0.29836357 0.03634817
-0.74531525 -0.5159149 0.18708302 -0.2725788 0.21706158 -0.28468004 0.45945433 -0.038204674
0.13538364 -0.2565557 0.25884026 -0.31303102 -0.06032557 0.3951808 -0.09768646 -0.12649785
-0.15483503 -0.13116968 -0.13949786 -0.26926076 -0.13709964 -0.43490133 0.6933016 0.28027892
-0.28321987 0.17307027 -0.3475974 0.35510716 -0.10576844 -0.031281114 0.2675329 -0.048703298
-0.07044462 -0.30710703 -0.06462099 0.036472317 0.02834047 -0.5629679 -0.34383863 0.3326996
-0.3668576 0.26959103 0.41886398 -0.04389534 0.12179122 -0.067869045 -0.34088495 0.22693135
0.080761775 -0.6397954 -0.30052716 -0.046831 -0.051908575 0.49626425 -0.116779424 0.043334328
-0.14164627 0.27678818 -0.19168529 -0.15106785 0.21456409 -0.39579928 0.025013402 -0.42048797
0.0986848 0.19549502 -0.096430555 0.015318168 -0.048158716 0.22671795 0.09230989 -0.043388654
0.20816696 0.36058393 0.070076995 0.031438645 0.37962484 0.12913537 -0.46040007 0.32724446
0.22979577 0.024092214 -0.25984672 0.15652151 -0.38267326 -0.42245954 -0.33304134 0.01079119
-0.54357684 -0.15269916 0.30107048 -0.15084143 -0.34808692 0.26158723 -0.017570904 -0.068627045
0.028898977 -0.11148745 -0.1058143 0.37855488 0.13878092 0.7278777 -0.025147693 -0.19469954
0.079054184 0.15468957 0.035380915 -0.024961513 -0.089288786 -0.26518965 0.11948339 0.35096252
0.037551966 -0.32033023 0.1629142 -0.17522536 -0.19598901 0.006637082 -0.0010863984 -0.22260928
-0.2449627 -0.27828315 0.07228333 0.17226793 0.16105373 0.4449828 0.2682095 -0.019290721

linear2.bias f4 [18]
00000000: 0592 4b3e 1f23 8b3d 4ed8 b23d 6765 063e
00000010: a54f 25be c176 3b3e 38cb 903d e4cd a8ba
00000020: b82d f33d 90a1 a8be 6354 0fbd f7c4 1abd
00000030: 8f1c d13d ee4b 263e 911c 8fbc 9b6a 68bd
00000040: 9ef5 8b3d b966 b93d
0.19879921 0.06793808 0.08732663 0.1312462 -0.16143663 0.1830702 0.07070011 -0.0012878743
0.118739545 -0.32935762 -0.034992587 -0.037785497 0.10210525 0.16239902 -0.017469676 -0.056742292
0.06833957 0.09052796

linear3.weight f4 [144, 288]
00000000: 2ebf 2eae 6c6b 3b01 3bbf 0100 c89b fe19
00000010: b55f 1e00 8e9f 0e80 e014 6201 bb78 2700
00000020: 717e 4980 4ed1 bc8d 2ff1 2880 c8f2 1d81
00000030: 04dc 1100 e166 2bb1 d182 2a80 0013 5b00
00000040: be8f b501 8cc1 e701 342c cebc 5102 dfa2
00000050: 2d6d 5d98 ce32 0e1f 9e50 721c 647a 5cbb
00000060: 2446 4eba 9b53 4d00 291d 54b4 8651 0c80
00000070: 7cb2 d3b1 34dd 0100 040a 0580 c342 7aad
00000080: f763 0900 ab55 2301 bd03 7fa9 4fac 44bc
00000090: d0ac 10bc 5bcb cb2c f540 d5b5 8a3e cbb7
000000a0: 4ac5 89a1 f154 aaa1 db59 2fb9 7b93 4a23
000000b0: 0641 ae2b b7c2 1f80 5a6a 7ab6 3bda 8b2d
000000c0: e723 2500 74a7 0a80 67c2 68b3 bca4 5701
000000d0: 4b64 9fb3 198a c2b9 8585 4db3 2c76 b880
000000e0: 4717 2700 d321 81b1 d268 2280 9ee9 812a
000000f0: dfc8 89b7 28ac 0e80 f028 2d80 8677 1402
00000100: e8bf ff00 c000 8f80 5012 2880 9b87 3282
00000110: 978a a592 382d 3781 6922 0a00 a3ba 6f9f
00000120: 9fd1 43bb a828 4200 f875 a1bb f304 7a2f
00000130: d3bc 0228 a34a 819b a524 2680 d6e4 7abb
00000140: 40dc 33ba 93f9 4817 ad0c 7dbb 6fcf 0c80
00000150: 28e9 3500 9f64 2fbc fe4c 2181 b613 0500
00000160: 2be4 44bc 1426 4900 c2c5 d6b8 982e fbb6
00000170: 13ed c3b7 d708 9ab9 e292 4cbb ca4d 28bc
00000180: 21ee f1ba db70 7fbc 2f28 9eb8 8a47 a2bb
00000190: c3f4 4bba aaca 780a 648c 09bd 318c b2b9
000001a0: 9800 b3bc 59f6 b2ac b86f 5abc 2982 f1b5
000001b0: 8453 dfbc 8090 5e38 ea0e 1fbc 49c2 31ba
000001c0: 183b 173b 7c8e 06bc 4257 ffb8 eb83 81ba
000001d0: 3c69 84ba 67cf 1d3c f7f0 54bc 7362 532f
000001e0: daef a03a 8856 6abc b819 8abb 5895 58a5
000001f0: ae30 8abc 4de5 90b4 17e8 3b2f 7f32 0100
00000200: 9fb7 8838 a212 9dbc 29b6 b33b d651 39a9
00000210: c521 cfbc c5b3 6ebc f159 21bb ec50 7239
00000220: d144 0680 9675 0a80 c430 18bb 46e8 3080
00000230: 1b52 e8a3 584f d801 b2c7 9483 a16d 7bb1
00000240: 08c3 5b39 88cd beb4 5a40 6ebc 56ff 9abc
00000250: fafd 0b80 8add efbb 6304 82bb 83b4 ca3a
00000260: 81c6 fb39 8fe8 1400 58ef 3c3a b04a cab2
00000270: f620 958d 22c0 3dbc 2f58 4a00 7c12 bcb6
00000280: c12f 9fbb 407e 2000 fa21 41bb c432 c4ac
00000290: 3dcd bcb8 8455 1db7 e694 03b2 26ff 9cbc
000002a0: 21fe 55b2 901d 23bb 76a2 ee3a f9a0 5cbb
000002b0: a6a5 89b8 d058 470b c77a 8ebc 75bd 4bb9
000002c0: f683 acbb 80e9 1cbc a00f 80bc bfe5 8fba
000002d0: 8bff 25bb 7e67 f9b9 203c 50bc 703a 9038
000002e0: 658d 8cba b663 04bd 844e e4b7 7c05 76bc
000002f0: a80b e7bc 3c9d afbc f999 69bb 38e1 2417
00000300: f015 cabb 6679 b8bc 0c03 1bbb 3ffb 81bc
00000310: 546a 07bb 635b 87b8 d12e 3080 a0fd 07a7
00000320: 3ef8 3dbc b51a 401e 15bf 24bd d15b 239c
00000330: 4ae3 ecbc 85f9 0195 4576 18bb f7e4 53ab
00000340: d2cd 0100 e285 4780 c2c3 30bc 58ed 4380
00000350: ced8 21b8 f27e 9281 b4ea 3780 ac79 bbbb
00000360: eff8 330a fc9c 5e01 670d 3200 047e 99b3
00000370: 2d34 0000 1ea4 1680 5950 0980 d444 03b2
00000380: 96de 0f00 a410 0900 cfda 3080 f01a 0001
00000390: e254 0980 e578 1200 1e65 9001 4581 1380
000003a0: c839 1800 d14a 2280 3bee 3087 adc0 beac
000003b0: e641 3eab 11fc 41b7 d483 1700 733e a5bb
000003c0: e419 53ad fcfa 6dba 5afb e708 50ac c1b6
000003d0: 7961 caa9 333e 2881 5c0e 20b2 9f82 3037
000003e0: 0b63 90a8 a68b 94b2 7346 a735 e402 e995
000003f0: e87b a69e 3b55 14b6 d581 ecb9 3e2f a5bc
-3.973282e-11 3.4423547e-38 1.60436e-40 2.6325904e-23 2.789398e-39 -1.342934e-39 4.152462e-38 3.624894e-39
-6.74935e-39 -1.1636783e-30 -3.75994e-39 -2.9010533e-38 1.64013e-39 -2.4942255e-09 -3.904019e-39 8.363846e-39
6.669516e-38 8.5133725e-38 -0.025167562 -6.0446724e-18 -2.86187e-24 3.0111694e-20 8.017528e-22 -0.0033642286
-0.0007868728 7.101325e-39 -1.9754647e-07 -1.131271e-39 -6.1611996e-09 1.71188e-40 -4.6277e-40 -1.4225679e-11
8.6238e-40 2.9999836e-38 -5.6624617e-14 -0.012003972 -0.008830264 5.792184e-12 -1.5888642e-06 -2.4228608e-05
-9.335703e-19 -1.1542132e-18 -0.00016722774 1.0981672e-17 1.2381491e-12 -2.916751e-39 -3.7314808e-06 1.5899384e-11
3.410793e-39 -9.78426e-40 -5.4193517e-08 3.9607454e-38 -7.422258e-08 -0.00037105454 -4.7851717e-08 -1.6940123e-38
3.589935e-39 -3.7582395e-09 -3.16001e-39 2.3077108e-13 -1.642521e-05 -1.347455e-39 -4.147283e-39 1.0907624e-37
2.3486895e-38 -1.3132745e-38 -3.679989e-39 -1.3116292e-37 -1.0447129e-27 -3.3644234e-38 9.30699e-40 -5.07646e-20
-0.0029879583 6.075727e-39 -0.004927393 2.2739126e-10 7.257394e-15 -2.1389493e-22 -3.502894e-39 -0.003828337
-0.0006861128 6.493849e-25 -0.0038612292 -1.176439e-39 4.950922e-39 -0.010705142 -2.962627e-38 4.66248e-40
-0.01201729 6.717651e-39 -0.000102411504 -7.485807e-06 -2.3356208e-05 -0.00029379755 -0.0031215479 -0.010272453
-0.0018457809 -0.015590872 -7.541512e-05 -0.004952376 -0.0007780308 1.19788825e-32 -0.033581153 -0.00034055256
-0.021850869 -5.0864144e-12 -0.0133323 -1.7993781e-06 -0.027261503 5.30635e-05 -0.009708146 -0.0006780965
0.0023075994 -0.008212682 -0.000121756006 -0.0009881234 -0.0010102163 0.009631968 -0.012996904 1.9225314e-10
0.0012278513 -0.014302857 -0.0042144917 -1.8785613e-16 -0.016868915 -2.6988928e-07 1.7090006e-10 1.0995e-40
6.5191874e-05 -0.019173924 0.0054843617 -4.1149233e-14 -0.025284657 -0.014569228 -0.002462026 0.00023109064
-5.757e-40 -9.60537e-40 -0.0023222426 -4.491428e-39 -2.5188263e-17 7.945972e-38 -8.744506e-37 -3.6587624e-09
0.00020958122 -3.5539802e-07 -0.01454171 -0.018920582 -1.1013e-39 -0.0073201107 -0.003967808 0.0015465174
0.00048022348 1.920136e-39 0.0007207296 -2.3549859e-08 -9.190769e-31 -0.011581453 6.827461e-39 -5.6049885e-06
-0.0048579876 2.984026e-39 -0.0029469715 -5.576291e-12 -9.002767e-05 -9.37784e-06 -7.659059e-09 -0.019164633
-1.2456014e-08 -0.0024889447 0.0018206376 -0.0033665283 -6.5635235e-05 3.839282e-32 -0.01739253 -0.00019430167
-0.0052647544 -0.009577155 -0.01563245 -0.0010978504 -0.0025329317 -0.0004757009 -0.012709647 6.87734e-05
-0.0010723291 -0.032321654 -2.721628e-05 -0.015015956 -0.0282038 -0.02143728 -0.0035644753 5.3275524e-25
-0.006167166 -0.022518825 -0.002365294 -0.015866874 -0.0020662742 -6.454324e-05 -4.424898e-39 -1.8872504e-15
-0.01159483 1.0169918e-20 -0.040221293 -5.4050846e-22 -0.028916974 -2.624818e-26 -0.0023263854 -7.528001e-13
1.6567e-40 -6.568348e-39 -0.01078886 -6.238121e-39 -3.8587306e-05 -5.381409e-38 -5.135148e-39 -0.0057212915
8.665356e-33 4.088759e-38 4.596583e-39 -7.14754e-08 1.8717e-41 -2.079255e-39 -8.55343e-40 -7.640853e-09
1.457381e-39 8.32489e-40 -4.486598e-39 2.3529214e-38 -8.5697e-40 1.696408e-39 5.304234e-38 -1.791248e-39
2.22478e-39 -3.149246e-39 -1.3310778e-34 -5.421516e-12 -6.759301e-13 -1.1562385e-05 2.159507e-39 -0.005042845
-1.199971e-11 -0.0009078232 1.3961899e-33 -5.771908e-06 -8.987511e-14 -3.0901352e-38 -9.316491e-09 1.052083e-05
-1.6030165e-14 -1.7292972e-08 1.2462973e-06 -9.411251e-26 -1.762718e-20 -2.210333e-06 -0.0004511016 -0.020164128

linear3.bias f4 [144]
00000000: 0c90 3abb 786f 8dbc 522f d3ba b39e 78bc
00000010: a265 23bd 8580 b7bc ae61 233d 235b 86bc
00000020: 2ff3 ef3b 8967 243d 5cde a8bc f1a8 14bd
00000030: e23e 89bc f018 90b4 3523 33ba 0423 d2bc
00000040: b494 63bd 9171 b0bb 0603 13bd c790 80bc
00000050: d393 4fba 09d1 c7bc 64a9 78bd af35 1dbd
00000060: 0428 093d a813 10be f724 b4bc 4e80 388a
00000070: e299 38bd 1e7f a3bd b554 35bc fd4a 0d30
00000080: d395 c638 f82b babb 4aa3 a0bc 2b9e 143c
00000090: 9ded 7fb9 218c b0b3 fe12 46bd bf3c 17bb
000000a0: 0827 89bc 5039 77bc 269e 19b7 a74b ebbc
000000b0: acd9 fabc bf8f c83c 170b 1cbd 958f 993a
000000c0: 0cbd 99ba 0e29 0fbd 6fe2 503c 6619 b3b9
000000d0: 4cf2 e4bd 7322 2032 54e7 a5b6 9b64 343c
000000e0: db3b 58bc 154e 58bd fa6d 5fbd bda9 2380
000000f0: 5d27 92bc 372b 6abd a0c2 2aac 798f b63c
00000100: 7c0b 82bd ed31 35bc ce4f 0b80 74a0 17bb
00000110: 6523 cd3c a57f 522d 4704 61bd bfc6 debd
00000120: 144c 4db5 03de dfb7 025d b9bb 7879 73ba
00000130: d6cf 10bd d783 0fb5 fbb3 9abc db28 843c
00000140: 7e64 77bb aa16 e1b4 070e 3d3d 9f73 a7bc
00000150: 32b8 21bd 6ac5 01be be3a e6bd 0563 f6bc
00000160: b8ae dfbc b531 30bd 33bb 38bd 9ca1 2900
00000170: ac25 23bd eb06 90bd df02 29bb b4c8 a9b9
00000180: dccf 3cbd 6361 0abd f09e 9e82 c06b c6bc
00000190: 09c7 76bc ac72 d0bd c3ab eb3c c19e 17bd
000001a0: 9f37 adbc 0ac9 09bd c91f 04bd 72c6 be3a
000001b0: 6f40 45bc 1fd3 24bd e73c 12bc c831 0ebc
000001c0: e3b2 273d 31c5 b39b 4337 c4bc df41 b4bc
000001d0: 34c3 36bd aca7 7dbd c5a4 e3bc 2eab 5d3d
000001e0: d029 023c 2adc 92bd e8ed aabd 0bf0 9eb8
000001f0: 4379 a8bd 3aef dfbd 1139 01bc 3480 d3b8
00000200: 2529 7db8 1cbb 10bd c30f 30bd f569 89b8
00000210: 7827 cfbd a179 76bd 1884 f4b4 9c9c d2bc
00000220: b3d1 cfbc 36d3 afbc a4ef 143d 7392 8dae
00000230: 6093 18ba b812 0fbd 473c c6bc 9c7c 0fbc
-0.0028467206 -0.017265067 -0.0016112125 -0.015174556 -0.039891846 -0.02240015 0.039888076 -0.01640088
0.007322691 0.0401378 -0.020613842 -0.036293928 -0.016753618 -2.6840235e-07 -0.00068335544 -0.025651462
-0.055561736 -0.005384632 -0.035891555 -0.015694035 -0.0007918451 -0.024391668 -0.06070842 -0.038381275
0.033485427 -0.14069998 -0.021990282 -8.883409e-33 -0.04506863 -0.0798323 -0.011067559 5.1402066e-10
9.469283e-05 -0.005681511 -0.019609112 0.009070913 -0.00024407213 -8.221128e-08 -0.048357956 -0.002307698
-0.016742244 -0.015089348 -9.156332e-06 -0.028722597 -0.030621372 0.024482606 -0.038096514 0.0011715764
-0.0011729314 -0.034951262 0.0127492985 -0.00034160464 -0.11179027 9.321059e-09 -4.9443133e-06 0.011010314
-0.013197864 -0.05280884 -0.05454824 -3.275133e-39 -0.017841036 -0.05717012 -2.4266492e-12 0.02228521
-0.06349847 -0.0110592665 -1.038819e-39 -0.002313641 0.025041291 1.1965461e-11 -0.05493572 -0.108777516
-7.647916e-07 -2.6687054e-05 -0.0056568393 -0.00092878146 -0.035354458 -5.3463503e-07 -0.01888465 0.016132763
-0.0037749107 -4.1926006e-07 0.046155956 -0.020440875 -0.039482303 -0.12672964 -0.11241673 -0.030076513
-0.027304992 -0.043016154 -0.045100402 3.82323e-39 -0.03983085 -0.070325695 -0.0025789065 -0.00032383727
-0.046096668 -0.03378428 -2.330724e-37 -0.024221301 -0.015062102 -0.10178122 0.028768426 -0.037016634
-0.021144686 -0.03363899 -0.032256875 0.0014554991 -0.012039288 -0.040240403 -0.008925653 -0.008678861
0.040942084 -2.9740498e-22 -0.023952132 -0.022004066 -0.044619754 -0.061927482 -0.02778853 0.054118328
0.007944539 -0.07170899 -0.08346158 -7.5787386e-05 -0.08226254 -0.10934301 -0.007887141 -0.00010085144
-6.035822e-05 -0.03533469 -0.04298378 -6.552405e-05 -0.1011495 -0.060174588 -4.5544652e-07 -0.025709443
-0.025368547 -0.021463018 0.03636135 -6.437952e-11 -0.00058203004 -0.03492996 -0.024198664 -0.0087577365

linear4.weight f4 [72, 144]
00000000: 406e 0700 6542 51a1 51b5 b5b8 aa6e 98ba
00000010: fe75 c93a 774c 0bba c197 30bd 1ad2 81bc
00000020: 91c8 02bd 5426 c33c a7e3 a634 7718 49bc
00000030: 8276 ceb4 2451 6da3 d110 a43c 183b 9dba
00000040: fe94 53bc 3603 aa35 c87e 23bd fa98 21bc
00000050: 5941 c7a5 1dae 04bd cbc3 8d3c 7bb6 10bc
00000060: adc6 48bb 68b1 9b3c 1859 0e3b ceec 7d82
00000070: 3d87 cabc abed 36bd 2323 d1ac b05d 2380
00000080: 3c0c 9bbb 3def 3eb1 8a79 933b 9045 a0bb
00000090: 137c 1280 4ad7 1400 363c 9abb f6ac df34
000000a0: 7ad5 9ebc b008 f704 dcb2 c62c 055c a936
000000b0: b73e 7fbc a2e5 75bb 85cc cebc b737 aebc
000000c0: 87e3 d9bc c72e 55ba 36e6 a9bb d362 63a9
000000d0: 2938 49bd d58d 1900 582f 2680 433f 22bd
000000e0: c8a2 9bb5 d758 833b 6f07 93bc f0a3 2080
000000f0: e89c f039 2fa0 0dbc c4ce bd84 d175 7bbc
00000100: 161c 5ebd ee16 713b baee fd01 cce3 90bd
00000110: 0bcc 453d 2869 5e2a 7af4 0039 8a5b 0fbd
00000120: 2a1a c305 5de7 90ae b3dd 143a 95bc 7a8e
00000130: 45a5 c1bb e86a 6b07 c258 32ba 7520 dfba
00000140: cd12 cb34 30bb 13b8 4d2f 873b 7c69 11bb
00000150: b04c 97bb ac09 1a3d de33 05bd 6d4e ccbb
00000160: 7cbd 0bbb 2110 4d39 a303 19bc 92b3 db81
00000170: 54f1 65bc fef9 453d d863 45b0 b0ef 45a5
00000180: 6aa6 813b a468 42bd 89a5 2980 17fe 43b3
00000190: 3e68 d1bc 772a 2bbc 4818 6fbc b4f8 3fbd
000001a0: 1ca6 9f3a 14ef 0f3d abc0 61bd 6903 f33c
000001b0: 1d7b 41bd c13c e53a da84 33bd 4724 13b7
000001c0: 5196 29bc fac9 4880 65e1 afbb ac02 2fbd
000001d0: 9a3b 4abd 9d79 c1bb ef78 593b c1f9 243c
000001e0: c962 08bd e381 dbbc 405c b6bc c15e b703
000001f0: 3d19 a13b cf4f f03c ee9a 16bd 5393 a8a5
00000200: be14 5915 0559 8ebc 9e35 53bb dadd 2280
00000210: 321f 43bc 9234 1fbc 84bf 6301 8142 78bc
00000220: cd7c 2fbc 3066 90bc 889d acbc e584 2d22
00000230: f6d5 843b 6500 263c 44e4 fbae 3195 d230
00000240: 663e 50bb ec25 5dbc 2f1c 393d 5cc4 2f3d
00000250: 98ca 41be 82b6 dfba ba4e c83e 6ea9 633e
00000260: 52db 413d ac4c 053e e08a 39bc 52c5 653e
00000270: ce68 333c 9aa6 27b4 8fbd b33d 232e f4bd
00000280: df9f 5e3e 7ea6 423c ecd2 643d c7ba 2bbd
00000290: 591d e83c 294b 01be 77e8 9d3e cb90 f63d
000002a0: bd8c f63c aac0 50bd c3aa aebd 2d26 d620
000002b0: f864 9b3d b97a 9fbd 2666 013a 7f72 a838
000002c0: ae69 fa3d 800b 6b3c 85d3 bf3d a390 e73c
000002d0: 1522 b5bc 7a47 b939 726b 513d 5d6f a0bd
000002e0: 989b 513d f31a 783c c207 6ebc 53b0 723d
000002f0: 953c ca3e 0d8d 1ebe ea45 b83c 2553 683e
00000300: f845 cebe 0026 22bd ba93 51bd 3978 d63a
00000310: 3840 02be b1ed 8a37 074a 8bba 0c47 82be
00000320: 212a 353c 10b9 5ebe a16c 0d3e 00d9 4eb0
00000330: d62b 243d bb77 043e c0f7 e736 44b8 8d3e
00000340: 760a 09be f48e 94be 019b fc1b f95e 753e
00000350: 4f4e ee3e 2814 5bab 2405 afbc 555f d5be
00000360: 0c5c a3b8 9739 693b 5e5d c7bc f46d bd3b
00000370: 5fac 1a3e 807a 5138 2166 c2bc 00e0 7c3e
00000380: 553c 71bc 39af fa3a 5192 c23e f5ad 903b
00000390: f05e eebd 14b5 6cbc f492 1b3d 19c8 063e
000003a0: 05ce e2bc e420 443d 3dea cf3c 10ba 52ae
000003b0: 9c44 16be 142a d8be dcf6 a33c 6c80 9b3b
000003c0: d989 ae3d 0537 023e 71ef f2a9 1d3e 983c
000003d0: 4ef9 cabd 7fa2 c5bc 6c5a 073d eb03 cf3e
000003e0: 959f 453e 7fcd 993d 077f 003e b14c 0a3e
000003f0: 2295 303e 903a d53e e59d 4dbe c374 63bc
6.82399e-40 -7.0899827e-19 -8.6645254e-05 -0.001162966 0.0015370247 -0.00053138233 -0.043113474 -0.015847255
-0.031929556 0.023821987 3.1085548e-07 -0.012273899 -3.8456716e-07 -1.2864978e-17 0.02002755 -0.0011995761
-0.0129139405 1.2666922e-06 -0.03991583 -0.009863133 -3.4565278e-16 -0.03239261 0.017305275 -0.008832569
-0.0030635998 0.019005492 0.0021720584 -1.8655464e-37 -0.02472269 -0.04466025 -5.9440382e-12 -3.247851e-39
-0.004731683 -2.778463e-09 0.0045005726 -0.004891105 -1.697548e-39 1.913941e-39 -0.0047068847 4.1662832e-07
-0.019388903 5.80774e-36 5.647356e-12 5.047305e-06 -0.015578917 -0.0037520905 -0.025244007 -0.021266801
-0.026597751 -0.00081322755 -0.005184914 -5.048984e-14 -0.049125824 2.346767e-39 -3.506733e-39 -0.039611112
-1.1595776e-06 0.0040083933 -0.01794788 -2.997546e-39 0.0004589327 -0.008644148 -4.462357e-36 -0.015347914
-0.054226004 0.0036787349 9.328008e-38 -0.07074699 0.048290294 1.9754044e-13 0.00012298106 -0.034999408
1.8347323e-35 -6.58946e-11 0.0005678788 -3.0905678e-30 -0.0059095942 1.7710852e-34 -0.0006803387 -0.0017023223
3.7825376e-07 -3.5221863e-05 0.0041255117 -0.0022188118 -0.004617296 0.03760688 -0.032520168 -0.006234935
-0.0021322658 0.00019556332 -0.009339246 -8.0705565e-38 -0.014034588 0.048334114 -7.181007e-10 -1.7168236e-16
0.0039566057 -0.047463074 -3.824638e-39 -4.563307e-08 -0.025562402 -0.010447136 -0.014593191 -0.04686804
0.0012180242 0.035140112 -0.055115383 0.029664712 -0.04723655 0.001748942 -0.04382787 -8.770329e-06
-0.01035078 -6.684611e-39 -0.0053674453 -0.042727157 -0.049373247 -0.00590439 0.0033183654 0.010069312
-0.033297334 -0.026795333 -0.022260785 1.0777528e-36 0.0049163387 0.02933493 -0.036768846 -2.9243185e-16
4.3839164e-26 -0.017376432 -0.0032228003 -3.201992e-39 -0.011909293 -0.009717124 4.183072e-38 -0.0151525745
-0.010710907 -0.017626852 -0.02107121 2.3516226e-18 0.0040538264 0.01013193 -1.14547066e-10 1.5321914e-09
-0.0031775474 -0.013497811 0.045192894 0.042911872 -0.1892494 -0.0017067941 0.39122564 0.22232601
0.0473283 0.13017529 -0.011324614 0.22438553 0.01095028 -1.5613696e-07 0.0877639 -0.119228624
0.21740673 0.011880515 0.055865213 -0.04192617 0.028334307 -0.12626328 0.3084142 0.12039336
0.030096406 -0.05096499 -0.08528664 3.6278273e-19 0.07587618 -0.07787079 0.0004936181 8.032191e-05
0.12227188 0.0143460035 0.09366516 0.02826721 -0.022110978 0.00035339204 0.05112786 -0.07833741
0.051173776 0.015143144 -0.014528217 0.059250187 0.39499345 -0.15483494 0.022494275 0.22687967
-0.40287757 -0.03958702 -0.051166274 0.0016362733 -0.1271981 1.6561566e-05 -0.001062692 -0.2544483
0.011057408 -0.21750283 0.1381097 -7.525074e-10 0.040080868 0.12936299 6.9131784e-06 0.27679646
-0.13382897 -0.29015315 4.1790072e-22 0.2396201 0.4654412 -7.78324e-13 -0.021364756 -0.41674295
-7.789591e-05 0.0035587305 -0.024336513 0.0057809297 0.15104817 4.994357e-05 -0.02373034 0.24694824
-0.014723857 0.0019125707 0.38002256 0.0044152685 -0.11639202 -0.014447469 0.037981942 0.13162269
-0.027686128 0.04788293 0.025380248 -4.791373e-11 -0.1467461 -0.42219603 0.020015173 0.0047455337
0.08522386 0.12716301 -1.07884953e-13 0.018584305 -0.09910832 -0.024125336 0.033045217 0.40432677
0.19299157 0.075098984 0.12548457 0.13505818 0.1724439 0.41646242 -0.20079763 -0.013882819

linear4.bias f4 [72]
00000000: bce0 d6bc 30fd 1fbe 06c9 adbc 0e50 523e
00000010: 5e32 b7ba bfca 62bd f446 80bc 4469 8abc
00000020: 06e5 0f3e b62d 1dbd ad95 74ba 2e63 8829
00000030: 7803 9891 0f6d babc 80df a3b6 d393 4dbd
00000040: 3391 2bb4 0275 93bc 13ef 54bc 010b e7bc
00000050: a4d0 08bd c483 9ebb 0572 78bc 2306 20bc
00000060: c84c df3d 3fb8 6d3d 15a4 6bba 477c c5b8
00000070: 5a54 2ab5 801a cdbd cd02 86bc 5e5f 2cbe
00000080: 05ba cdbc 0f11 d7bc 3a18 3dbd f39b 98bc
00000090: 6e2d 1ab2 430c b5bc d862 83bd efd0 a1bd
000000a0: 84e9 52bc 4ca1 33bc eefd 81bc 5ada adbd
000000b0: 2174 6f3e d02a 3d26 479c 8bba 62e1 81ba
000000c0: 2460 87bc 6a0c c4bc 7dd2 b0bc c895 cb3c
000000d0: 4815 20be f6c7 2bbc 273f 2bbd fbf2 cbba
000000e0: 45f8 d1bb 410c 07be e006 493e 2931 73bb
000000f0: 2ffc dbbc 638d 7abc 087e 2c38 5568 8a3e
00000100: b330 bf3c b48e cf3c 3af7 11bd a3b5 1b00
00000110: 9509 54bc 4047 9abd 11a6 05bc 8a5d 5aba
-0.026230209 -0.15623927 -0.02121402 0.20538351 -0.0013976803 -0.055369135 -0.015658833 -0.016895898
0.1405221 -0.03837367 -0.0009330165 6.056818e-14 -2.398351e-28 -0.022757081 -4.8837974e-06 -0.050189804
-1.5978439e-07 -0.01800013 -0.012996453 -0.02820349 -0.0334021 -0.004837485 -0.015163903 -0.009767088
0.10903317 0.05803704 -0.00089889887 -9.4168405e-05 -6.345268e-07 -0.1001482 -0.016358757 -0.16833255
-0.025113115 -0.026253251 -0.046165682 -0.01862905 -8.974309e-09 -0.022100573 -0.06415337 -0.07901179
-0.012873057 -0.010963749 -0.015868153 -0.08488913 0.23384143 6.563057e-16 -0.0010651433 -0.0009909088
-0.016525336 -0.0239317 -0.021584744 0.024851695 -0.15633118 -0.010484686 -0.041808274 -0.0015560085
-0.00640777 -0.13188268 0.19631529 -0.003710816 -0.026853649 -0.015292498 4.112537e-05 0.27032724
0.023338651 0.0253366 -0.035636164 2.544717e-39 -0.012941738 -0.07533121 -0.008157269 -0.00083299784

linear5.weight f4 [36, 72]
00000000: 4633 59bc 3b62 7f3c abfb 7bbb 0924 94bd
00000010: 943c 0a93 c87e 8a3c 12e0 cebc 7bda ae3b
00000020: 3576 823d ab3d 1fbe 5075 6f39 4154 5d29
00000030: f8df 17ab f291 803c 3ea5 28b7 6204 243d
00000040: 0e30 18b4 f53b 573e 173a 1339 1dc8 613c
00000050: eb8d 163e 33f0 a93b fcb4 7bbd 35dd 8dbc
00000060: d3e2 6cbe 98a1 5f3d 9b6c b7ba a635 873a
00000070: b527 2cb4 7ba4 ca3e 669c 8b3c 7ca7 8d3e
00000080: a29f a13c a83f 7b3c 7466 963c 93a0 49bc
00000090: d02b acb8 f179 0e3d 6e46 8fbd b2fe 003f
000000a0: 071f 093b d727 68bb 74f3 d73b 62a6 35be
000000b0: 78c4 b33d 89db 1529 a627 f63a bfbd a1bb
000000c0: 097e c6bc f288 4dbd ebea 933c 52bf 573d
000000d0: de4b 92be e137 6c3b 7483 573d 6231 fab9
000000e0: 3c88 1dbb 0cf6 b33d 5b59 3fbe 1a80 cebb
000000f0: 8948 f13c 9787 c2bc d1ba 3f3d 1916 9c3d
00000100: 9dab 49be ef22 f93c b0e2 063f 3711 a8a3
00000110: 442c 0c3c c740 fbbd 63f0 b8be 5670 873b
00000120: 6f60 3480 08a2 f6b2 a5de 2280 6c88 4300
00000130: 3280 fc01 d019 8a01 12d5 0c01 cf31 3d80
00000140: 566c 2fa8 ff08 38ba 5926 0180 c35b 2700
00000150: 65f1 0f00 e1fb 0b00 1dec 2b00 e26c a981
00000160: 2449 7001 4474 3bb6 e8c8 bb81 9f3f 2580
00000170: a4a1 3700 ae4f a701 7d50 0a80 2113 0400
00000180: e7e0 12a5 dffe dfac de76 9b81 c82d 2b00
00000190: 25dd 6082 073e 7789 de5d 0000 c92e a9ad
000001a0: d6ab 0000 53f1 4280 dfbe 67ac d7dd 0780
000001b0: 28bd 2881 3840 1280 0679 10b6 60f0 2980
000001c0: ec30 af82 b35b 2f80 ceb9 0d80 2853 44b9
000001d0: 93f4 459b 90e1 a980 e9d0 2400 366f 0d00
000001e0: 98da f101 023d 0080 fac6 0780 ff2d f99e
000001f0: e9fd e9b4 8c1a 4181 d038 e201 4b3f 3682
00000200: 2e00 0080 3b21 80b2 8186 da96 25aa 0c80
00000210: fa4a c981 184c 3a81 b538 03b4 d4e7 d2a3
00000220: bcb5 2400 3689 1902 0315 3a00 c0d8 8681
00000230: 249c a681 b835 07b6 cfee 67aa 64b8 a401
00000240: d07b 823c a4c5 bcbe 428f e33b 9da8 e63d
00000250: 5291 e29d f023 f7bc b2cc b43b 4785 d23b
00000260: d68f 83be 953e 87be 1fa7 4b39 d4c1 31aa
00000270: 7e88 8e28 ede3 bd3c 4395 26b4 ea40 ccbc
00000280: 48e9 2ab6 6c48 25be 217c 27bc cfc7 65bb
00000290: e88f 0ebd 3caf babc 44d7 b1bc 3613 84bb
000002a0: 972e 2d3f c9b5 74be 693f 66bc c490 d3ba
000002b0: 1d77 bf35 a07a fb3d db29 a5bc feb4 5b3e
000002c0: adf1 103c 219a 203d 5e16 d93d 6703 893c
000002d0: 9cd8 7e38 1386 973b b2dd 593e 66f3 323d
000002e0: 55b8 81b9 62fb 373a 6dd3 60bc a8f5 bcbe
000002f0: 5dce 50be 83b7 2ca7 81e3 e53b 7dac acbb
00000300: 5c02 06bd 079b 643c 5b04 013c f1f1 723e
00000310: a5d4 45bd c44a 733c d0d9 9b3c f8e1 b1ba
00000320: 3fd4 b6bb 8bbf fd3c d2d7 7dbe 2353 883c
00000330: 0662 88bc 1e9b ad3c 1e33 5fbd 529f 9f3e
00000340: c33e c9bd 23af 1d3b 5410 39be ad5b b12d
00000350: ad92 7d3c 64fe 053e 99ac c63d dfc0 1bbb
00000360: 11ef 193c ce75 e93c daee eebb fdec 663e
00000370: 9612 deb4 c893 743c eebc d7bb cec3 6d3c
00000380: 7e1f 283c 83f3 223e 3db4 d5b7 5ad6 80aa
00000390: a896 2d31 787c 3c3c 45b4 1b36 8de8 323c
000003a0: 1e61 3436 72a7 483c f16a cabc b855 b8bc
000003b0: 1aa5 78be 5b02 2ebc d27a 02bd 05c9 693a
000003c0: 920f 813e c8d0 ad3e 0e47 b2bb 856d 163b
000003d0: f4f0 cdb4 0579 abbe 0b13 c8bc 3211 893e
000003e0: f4f9 d3bb 6214 193d 4d98 253e 14b6 34bc
000003f0: b5d9 b03a 71e8 a3bc 58dc 5a3e 8777 1c3d
-0.013256853 0.015587385 -0.0038449566 -0.07233436 -1.7447916e-27 0.016906157 -0.02525333 0.0053361035
0.063702025 -0.15550868 0.00022836518 4.9144936e-14 -5.3956796e-13 0.015694592 -1.0052054e-05 0.040043242
-1.4173585e-07 0.21018966 0.00014040653 0.013780621 0.14702575 0.0051861047 -0.061451897 -0.017317394
-0.23133402 0.054597467 -0.0013994159 0.0010315671 -1.6033194e-07 0.39578614 0.01704235 0.27666843
0.01972944 0.015335001 0.0183594 -0.01230635 -8.20976e-05 0.03478426 -0.06995855 0.50388634
0.0020923035 -0.0035424137 0.006590301 -0.17739251 0.08777708 3.3275063e-14 0.0018780127 -0.0049359496
-0.02423002 -0.05017943 0.018056354 0.05267269 -0.28573507 0.0036044049 0.052615598 -0.0004772051
-0.00240375 0.08787164 -0.1868643 -0.006301892 0.029453533 -0.023746295 0.04680902 0.07621402
-0.19694372 0.030412165 0.5268965 -1.8221887e-17 0.008555476 -0.12268215 -0.361209 0.0041332645
-4.81004e-39 -2.8711852e-08 -3.202277e-39 6.201917e-39 9.275413e-38 5.0730233e-38 2.586681e-38 -5.619833e-39
-9.737943e-15 -0.00070203835 -1.05592e-40 3.614502e-39 1.464128e-39 1.100548e-39 4.033628e-39 -6.2237035e-38
4.4133514e-38 -2.7932847e-06 -6.898124e-38 -3.420736e-39 5.108938e-39 6.1460446e-38 -9.47229e-40 3.74204e-40
-1.2739681e-16 -6.3663376e-12 -5.7108574e-38 3.96535e-39 -1.6520386e-37 -2.9760709e-33 3.3673e-41 -1.9233852e-11
6.1643e-41 -6.147714e-39 -3.293303e-12 -7.2243e-40 -3.099244e-38 -1.676076e-39 -2.1528117e-06 -3.851486e-39
-2.5742019e-37 -4.349164e-39 -1.260516e-39 -0.00018722995 -1.6374484e-22 -1.5601115e-38 3.381021e-39 1.233756e-39
8.8843085e-38 -2.1885e-41 -7.14228e-40 -2.6382924e-20 -4.3584376e-07 -3.5467548e-38 8.310081e-38 -1.3389412e-37
-6.4e-44 -1.4916273e-08 -3.5304683e-25 -1.163062e-39 -7.3943325e-38 -3.42174e-38 -1.2220956e-07 -2.2866429e-17
3.371272e-39 1.1280042e-37 5.333996e-39 -4.9534847e-38 -6.120282e-38 -2.0147836e-06 -2.0599775e-13 6.0508673e-38
0.015928179 -0.36869538 0.006944568 0.11262629 -5.997196e-21 -0.030168504 0.0055175656 0.0064245793
-0.25695676 -0.26414934 0.00019421846 -1.5788006e-13 1.5824361e-14 0.023179973 -1.5514256e-07 -0.024933297
-2.5467762e-06 -0.16140908 -0.010222466 -0.0035061722 -0.03480521 -0.022788636 -0.021709092 -0.0040306104
0.67649215 -0.2389747 -0.014053204 -0.0016141166 1.4265275e-06 0.12279248 -0.02016156 0.21455762
0.0088466825 0.03920949 0.10599969 0.016725255 6.0760052e-05 0.004624137 0.21275976 0.043689154
-0.00024742135 0.0007018355 -0.013722283 -0.3690617 -0.20391221 -2.3969277e-15 0.007015646 -0.0052695856
-0.032717094 0.013952977 0.007874574 0.23725106 -0.048298497 0.0148493685 0.01902476 -0.0013571372
-0.005579501 0.030975124 -0.2478936 0.016641205 -0.016648304 0.02119213 -0.05449211 0.3117624
-0.09826424 0.0024060688 -0.18072635 2.0163283e-11 0.015476865 0.13085324 0.09700889 -0.0023766083
0.009395377 0.028498556 -0.007291657 0.22551341 -4.1364245e-07 0.014927812 -0.0065838015 0.0145120155
0.010261415 0.15913205 -2.5475509e-05 -2.2886104e-13 2.5260452e-09 0.011504285 2.320173e-06 0.010919702
2.687862e-06 0.012246953 -0.024709197 -0.022501811 -0.24281731 -0.010620679 -0.03185541 0.0008918199
0.25207192 0.3394835 -0.0054405993 0.0022953462 -3.8359542e-07 -0.33490768 -0.024423143 0.2677093
-0.0064690057 0.037372954 0.1617138 -0.011029739 0.0013492616 -0.020008298 0.21373117 0.038199928

linear5.bias f4 [36]
00000000: 3141 cabd 34a8 b98a 84db 823d caa8 423e
00000010: b481 813d 6ba5 a4bd 6189 a03d eaa2 6ab7
00000020: b312 dc3d ef15 cdb9 91ad 8cbc ce86 9fb7
00000030: 0132 c5bc 651d 96bc 12be a03b 219a 9ab7
00000040: 303d 083f 20af 97bd 897d a6bb e485 7d3c
00000050: b7fe 4ebd 6fd0 e7b8 939a 303e ad5d 9da3
00000060: 31c2 3a3d 7d9d 393e a44f 363e 16b1 06b7
00000070: a164 ddbc 6988 3b3e 888a d7b9 549b 37bd
00000080: c460 41b0 010a 803d c5e7 ab3d 1e1d ac3c
-0.098757155 -1.7878123e-32 0.063895255 0.190097 0.06323567 -0.080393635 0.07838703 -1.3985418e-05
0.10745754 -0.0003911699 -0.017172607 -1.901705e-05 -0.024071695 -0.018324563 0.0049054706 -1.8430002e-05
0.53218365 -0.07406449 -0.005080883 0.015473817 -0.050535884 -0.00011053762 0.17246465 -1.7061647e-17
0.04559535 0.18126483 0.17803818 -8.028253e-06 -0.027025523 0.18313755 -0.0004111121 -0.044825867
-7.0350503e-10 0.06251908 0.08393816 0.021009978

linear6.weight f4 [10, 36]
00000000: 6938 52be 5d58 2980 5bd9 89be fe5d b1be
00000010: 4aec 07be 6fcc 0abe 25f8 2ebe bed8 91b5
00000020: 383e 2fbe 013d a83a 3f53 14bd a8ea acb9
00000030: d260 ccbc bc4b 80bd 67fc 163f 693d a5b8
00000040: bc7a 82be 505c 55be 5d00 54bc 85b2 223e
00000050: 8a5e 493c ea24 df39 a97e d33e d1e9 df37
00000060: b5a0 aabe 0c1e 25be 0484 14be 2474 11b0
00000070: 43f5 bdbc aab6 8cbe a7b0 6d3c 9098 963c
00000080: 32da f2b9 7258 12bc dad2 673e 5379 8bbe
00000090: 3762 edbe a4fa 1c3a 6eff 47be 5cd1 95bd
000000a0: ccb8 92be a527 f83e 9505 98be cabd 8aba
000000b0: 06cf b9be b0c7 f13b caca d03e b11e 95b5
000000c0: 264b cf38 35d6 493d 41b3 923d 2621 8eb8
000000d0: 3629 51be 762b 77bd 63c8 073d 85e5 c8be
000000e0: 66e4 0abe 6857 48ba fce4 26be cded 26a2
000000f0: 0ecb e03e 30b8 95be aec7 9a3e 366c d03b
00000100: a642 02bc a00d 83be 2b96 f2bb 7c30 35be
00000110: 66c0 47b8 5369 f6bd 5841 a4be 14f6 093e
00000120: 3feb d1bc 6e8c f4b9 d1bd 5cbe 0646 643e
00000130: 298a b6bd ced7 a7be abab 9abe 8500 97b7
00000140: 477e 8ebe db52 8d3a 98e8 2abe 8e03 bcb9
00000150: a115 91bc 8707 8b3e 76e0 c7be e682 8eb6
00000160: 9c46 9d3e 0a91 cabe 09fa d1bb fcc3 c13d
00000170: c061 d5bd 9a55 ae39 9886 9cbe 5154 c6ad
00000180: 7e84 73be 2e1b ecbe 4a53 95be c0eb 27bb
00000190: 3c0b b4bc b7df 35be 1cf2 483c b638 91bd
000001a0: 021c 6533 1a61 c4bd 0eb7 983e c9a7 943e
000001b0: 08b7 56be 86ed 08a3 428d 83be 7262 97bd
000001c0: 7581 b33d ec55 a8be cac7 923e 7747 58a4
000001d0: d129 8abe c5b6 de3a 6f93 05be 09ab 7bb7
000001e0: 003b a4bc bec1 b53d 53ad 02be 6c9c 7dba
000001f0: 7f06 a7be 1af6 8ebe 22bc a2bc cd08 acbb
00000200: 6d6b 7cbe 62c9 bcb7 798f 84bd 8456 0c86
00000210: 0918 9dbe 801b 1a3f 2af5 b1be 683d 9db8
00000220: 2194 a9bd da85 00be 7710 c6b3 e55b 86bd
00000230: c7dd 10b6 63dc 80bd 0217 a0be 8cbf 0b3e
00000240: 0d14 e03e b6ea 3b80 9d62 1d3e 5a4d 0abf
00000250: c130 a0be 5619 213e 7b3d 45be b510 0036
00000260: 2c11 c93e b338 cdb6 0f55 74be ef5e 1fb9
00000270: d8de c3bc 348e 333e 5ba3 6d3d 5bbd 8834
00000280: 3e4c bcbe 3ca0 2e3d 2aa4 923c 6ea6 153e
00000290: e682 97bd a191 cc38 10c8 d8bd 461a 983a
000002a0: df66 c5be 626f c8be 851b 3fbc a488 0e3a
000002b0: 8ae7 86bb 6842 07be 7d3a 8abb 9dfc d73d
000002c0: 8f1c 2139 6c02 3a3c 0c3a c5be 5b3f 573e
000002d0: 8884 eebd d386 7ca8 6b0a ddbe cd68 7cbe
000002e0: b74c f53e 2d6a 9d3e c7dc 173e 0045 0835
000002f0: cccf adbe 8a0e 16b9 0078 13be 4cbc 16bb
00000300: bf02 b43c f2a5 21be 77ff f1bd 36f8 80b9
00000310: 84e9 b0be 7b83 72be b9d0 8dbd 1d69 88bd
00000320: ca8a d0bc 5911 bb39 00ab 7bbe 6c51 942a
00000330: c3c4 efbd f4b0 533d afa1 ab3d ffd8 8b2a
00000340: 1718 903d ca7e cf3e dd2c b7b9 bc7c f5bd
00000350: a945 2e33 defd 643d fad1 553e 9094 08bf
00000360: af0d 803e 0e02 0628 e1ef bcbd 8fd5 81be
00000370: e04c 97be 0861 77be ff03 1c3e c803 7cba
00000380: 70c5 2bbe 533d 40b8 e027 1dbe 4b3d 36b9
00000390: 5698 6d3a 786b 87be 1041 7cbe abbf 7338
000003a0: d7ee bbbe 6ccd 65be c64b e8bc cb3d cbbd
000003b0: 54bd 9dbd 1ded 0b3b a025 4eb9 6bdb f7b4
000003c0: 7f38 0c3f 8176 74be 5d3c 90be 05ca 0739
000003d0: a133 2f3c 0d35 97be 936d ceba 642e 2f3e
000003e0: f7d2 2539 e249 bb3d 2671 b53e f51e b4be
000003f0: b000 b43d 03e3 7717 fc0b 7cbe 4450 a93e
-0.20529331 -3.796954e-39 -0.26923642 -0.34642023 -0.13273731 -0.13554548 -0.17086847 -1.0866422e-06
-0.17113578 0.0012835563 -0.036212202 -0.0003298123 -0.024948511 -0.06264445 0.58978885 -7.879252e-05
-0.25484264 -0.20835996 -0.01293954 0.15888412 0.012290606 0.00042561378 0.41307572 2.669255e-05
-0.33325735 -0.16124743 -0.14503485 -5.291574e-10 -0.023188239 -0.27483112 0.014507449 0.018383294
-0.00046320405 -0.00893222 0.22639027 -0.27241 -0.46363994 0.0005988276 -0.19531032 -0.07315323
-0.28656614 0.48467746 -0.2969176 -0.0010585126 -0.3629076 0.007378541 0.40779716 -1.1110297e-06
9.884527e-05 0.04927655 0.07163096 -6.777262e-05 -0.20425877 -0.060344182 0.033150088 -0.3923761
-0.1356369 -0.0007642419 -0.16298288 -2.2623086e-18 0.43904918 -0.29242086 0.3023047 0.006360556
-0.007950461 -0.25596333 -0.0074031553 -0.17694277 -4.7624482e-05 -0.12031808 -0.32081103 0.13472778
-0.02562487 -0.00046643935 -0.21556784 0.22292337 -0.08913071 -0.32781833 -0.30209097 -1.8000845e-05
-0.27830717 0.0010782139 -0.1669029 -0.00035860803 -0.017710509 0.2715418 -0.39038438 -4.2471684e-06
0.30717933 -0.3956378 -0.0064079803 0.09461209 -0.10419035 0.00033251644 -0.30571437 -2.2547438e-11
-0.2378101 -0.46114486 -0.29165107 -0.0025622696 -0.021978013 -0.17761122 0.012264755 -0.07090895
5.334369e-08 -0.09588833 0.2982716 0.2903426 -0.20968258 -7.422872e-18 -0.2569371 -0.07391824
0.08764926 -0.32878053 0.28668052 -4.6898067e-17 -0.26985028 0.0016991725 -0.13044523 -1.5000588e-05
-0.020047665 0.08874844 -0.1276143 -0.0009674493 -0.32622144 -0.27922136 -0.0198651 -0.0052500726
-0.24650355 -2.2505123e-05 -0.06472678 -2.6394635e-35 -0.306824 0.6019821 -0.34757358 -7.497781e-05
-0.082802065 -0.1255106 -9.2230884e-08 -0.06560496 -2.1586764e-06 -0.062920354 -0.31267554 0.13647288
0.43765298 -5.502493e-39 0.15369649 -0.5402428 -0.31287196 0.15732321 -0.19261734 1.908321e-06
0.39270914 -6.1160767e-06 -0.23860572 -0.00015198787 -0.023909971 0.17534715 0.058017116 2.5469748e-07
-0.36776918 0.04263328 0.017900545 0.14614269 -0.07398014 9.7546035e-05 -0.10585034 0.001160451
-0.38555047 -0.39147478 -0.011664276 0.0005437231 -0.004116957 -0.13208926 -0.004218398 0.10546229
0.00015364795 0.0113531165 -0.3852085 0.21020262 -0.11646372 -1.40180455e-14 -0.4317201 -0.24649353
0.4791009 0.30745068 0.14830314 5.0764356e-07 -0.339476 -0.00014310531 -0.14401245 -0.0023000417
0.021973966 -0.1578596 -0.11816304 -0.00024598994 -0.34553158 -0.23682968 -0.06924576 -0.06660674
-0.025456805 0.00035680344 -0.2457695 2.634658e-13 -0.11707451 0.051682428 0.08380448 2.484193e-13
0.07035845 0.4052642 -0.00034937906 -0.11986682 4.0575888e-08 0.05590617 0.20880881 -0.5335169
0.2501044 7.43894e-15 -0.09225441 -0.25358245 -0.29550838 -0.24158108 0.152359 -0.00096136006
-0.16774535 -4.583348e-05 -0.15347242 -0.00017379706 0.00090635323 -0.2644918 -0.24634194 5.811422e-05
-0.36705658 -0.22441643 -0.028356444 -0.099238954 -0.07702127 0.0021351047 -0.00019659707 -4.6166983e-07
0.54773706 -0.2387333 -0.28171054 0.00012949861 0.010693462 -0.29532662 -0.0015749208 0.1710754
0.00015814217 0.091449514 0.35437888 -0.35179868 0.08789194 8.0096533e-25 -0.24613947 0.3306905

linear6.bias f4 [10]
00000000: ddec a7bd e425 2bbe ab65 f63c fc40 95bd
00000010: ec52 5cbe cfa9 9bbd cd51 d8bd 786d fcbd
00000020: e4bd da3e f1b7 893e
-0.08199475 -0.16713673 0.030077776 -0.072877854 -0.21516007 -0.07600748 -0.10562477 -0.12325567
0.42723 0.2689815
