HW1/saved models/Model 5 - Split image-16 11, lr=0.001, wd=1e-05, bs=32.pkl (torch_old, 738944 bytes, 66 tensors)

linear1.weight f4 [120, 49]
00000000: 92a8 083d 460f 073f 8ef1 97bd 7524 13be
00000010: 252b 063f 5d04 b63e 0bd3 543d af6d 13bf
00000020: a409 393e 2bb7 90bd 3ea5 18be 67a2 57be
00000030: 7a22 04bf c484 4f3e 0c92 19bf d281 d33e
00000040: 4981 533d 7e5e adbe 3f5f 72be c4db e7be
00000050: ae7c c23c dd43 47be 11e5 823e c512 b23d
00000060: 073e f9be b4e5 d0be 5d26 3abe 67b9 1ebf
00000070: 3b73 1fbf cd2e c53d 1602 13be 7553 293e
00000080: 19d8 eabb ba72 063e ea73 c4bc 736b 5bbf
00000090: 35e2 71bd 9def 8f3d 1f8a 553e 0cd0 fb3e
000000a0: bef0 bd3d 141e 94be 724b debe 4a80 f8bc
000000b0: 87c2 78be d71f 58bd 308a 643e a2a9 1e3e
000000c0: 92e8 a93e dcd0 cbbe d03d 013f 532e f23e
000000d0: 2532 5a3e 6881 07bf ba6a 93bf f550 f73e
000000e0: 9662 02bf bf6f a0bd ad7e a53e 426e 783e
000000f0: 4ffb 03be 653e 26bf 02c5 a3bd c1b3 f0be
00000100: 1ef1 193e 8822 ff3e 5cca a23e a158 f6bd
00000110: 3882 b6be 185e aabd a1cc dcbe a701 46be
00000120: ad10 c3bd 0362 573e 5cf0 323e be98 14be
00000130: be4b 8a3e 434e 41be 29d6 80be 49ca 8cbc
00000140: d238 003e 7f0a 47be 3bca 993c f485 383e
00000150: 468e c03e b39f e6be bed1 d43a 52ac 113e
00000160: d58e cfbd 797c 493d 32b6 28be d281 9f3e
00000170: 1a68 c5be cd70 afbe 0a09 f83b 0b1b b33d
00000180: 8572 c53e 190b f83d 6ff7 0f3f 5644 cc3e
00000190: 2428 a6be 8f3e 06bf 9874 66be b4bc 02bf
000001a0: 796c 5fbe 0942 8a3e 1160 353e 84ae c5bd
000001b0: c5a9 86be 4253 a43d c28c b23d 56e1 fabc
000001c0: 93b5 23bf c100 9fbe 5d6f db3d 61e6 c1bd
000001d0: e373 483e db66 133f e043 80be 54df 9cbe
000001e0: dc9f 463e c65c d23e 43bc 6b3e 2b18 c1bc
000001f0: c352 023d 4281 0cbf 7eab 793e e2b6 fa3e
00000200: d31f 4cbe 98da 09be 95d2 60be ed21 d3bc
00000210: c689 23be 0c6d 0a3e 5998 5bbd 3a81 05bf
00000220: 2dbd b3bd f62c ce3e 38ed b33e 8a34 bb3e
00000230: bf61 2cbd fcc1 94bc 1e82 31be 5d15 95be
00000240: c51e 33be 7fd2 a23d adcb e63e a177 d43d
00000250: 2b83 8f3d b9a3 3dbd 664a 2e3d a433 333f
00000260: 4b64 243f 1106 153f 0d61 0abe f635 463d
00000270: 417a cebe 4ece e5be 25d0 f2be 2b27 f03a
00000280: 4334 743e e807 233d c860 99be 220e bdbe
00000290: c97d 7bbe a602 0ebf e3aa aebe a359 bc3e
000002a0: 4df6 83bc a951 57be 1999 6cbd a7e4 a2be
000002b0: b947 b4be 04c0 a8be fc9f 173e 3a4b 253f
000002c0: 9fcb 9a3e e711 8ebe 42c5 cd3d 68cb e0bd
000002d0: 40dd 89be 650f e43d acdb 333e 9d32 043f
000002e0: 8f34 9dbd ac28 eb3d 591b 13be cba1 1b3d
000002f0: ba77 3c3e 8155 7ebe 799d e53e f8e0 063f
00000300: d942 023e dffc bfbe 2f72 51be df9a 5dbd
00000310: afda 40bf cc10 c6be ee90 d8bd 6edd fa3c
00000320: d421 58be 949d 8b3c b1fd 1d3e 2b9a ecbe
00000330: ba6b 8e3c ab31 14bd 4977 5e3c d2c8 82bd
00000340: ed38 20be 1574 50bd 708c a5bf 1a14 a43c
00000350: f4a2 793d a147 443e c536 21bd 1728 97be
00000360: a993 56be d81d 29be a56c dc3e f64a e0bd
00000370: df82 c53d 1504 c73d b0f9 eabd a111 4ebd
00000380: 4c18 953e a227 cf3e c71b 8d3e 8e09 7a3e
00000390: c800 7c3e 43fe d8be 6b8b ecbd eb9e 4cbd
000003a0: 68e2 733e 5db5 27be b6a9 1fbe 165f 03bd
000003b0: 7c96 9bbe 70bc abbd b964 5ebb 09c1 803e
000003c0: d072 c33d 1f69 fcbe 29e5 dfbe e488 96be
000003d0: 802a 12be 58c9 09be e0cf b6be 12b6 f33d
000003e0: 8fc6 31be 1e99 9f3e db8f 9fbe 4261 5fbe
000003f0: 637b a9be 5ebe 653d cbf8 443d 853f 31be
0.033363886 0.5275768 -0.0741912 -0.14369376 0.52409583 0.35550204 0.05195908 -0.5758924
0.18070084 -0.070661865 -0.14906785 -0.21058045 -0.5161511 0.2026549 -0.59988475 0.41309983
0.051636968 -0.33861154 -0.23669146 -0.45284855 0.023741093 -0.19459482 0.2556539 0.08694986
-0.48680136 -0.4080025 -0.18178697 -0.6200165 -0.622852 0.09628067 -0.14356264 0.16535743
-0.007166874 0.13129702 -0.023981053 -0.8571083 -0.05905362 0.070281245 0.2085347 0.49182165
0.092744336 -0.28929198 -0.43416935 -0.03033461 -0.24292956 -0.05276474 0.2231834 0.15494397
0.3318525 -0.39807785 0.50484943 0.47300968 0.21308191 -0.52931833 -1.1516945 0.48303953
-0.5093168 -0.07833814 0.32323208 0.2426081 -0.12888835 -0.64938956 -0.07996561 -0.4701214
0.15033385 0.49831033 0.31795013 -0.12028623 -0.35646224 -0.08318728 -0.4312487 -0.19336568
-0.09524665 0.21033482 0.17474502 -0.14511392 0.27010912 -0.1887751 -0.2516339 -0.0171863
0.12521675 -0.19437598 0.018773189 0.18019849 0.37608546 -0.45043716 0.0016236824 0.14225891
-0.10134665 0.049190972 -0.16475752 0.31153733 -0.38555986 -0.34265748 0.007569437 0.087453924
0.38563934 0.12111492 0.5623693 0.39895886 -0.324525 -0.52439207 -0.22505414 -0.5106919
-0.21818723 0.27003506 0.17712428 -0.09652427 -0.263014 0.08023693 0.08718254 -0.030625027
-0.63948935 -0.31055263 0.107146 -0.094677694 0.19575457 0.5757882 -0.25051785 -0.30639136
0.19396919 0.41086406 0.23021035 -0.023571094 0.03181721 -0.5488473 0.24381825 0.48967654
-0.19934015 -0.13462293 -0.2195533 -0.025773013 -0.15970525 0.1351816 -0.053612087 -0.5215031
-0.08776317 0.40268677 0.3514192 0.36563522 -0.042085405 -0.018158905 -0.17334792 -0.2911786
-0.17492206 0.07950305 0.45077267 0.1037438 0.0700744 -0.046298716 0.04255142 0.7000067
0.64215535 0.5821238 -0.13513584 0.048391305 -0.40327647 -0.4488396 -0.47424427 0.001832222
0.23848061 0.03980246 -0.2995665 -0.36924845 -0.24559702 -0.5547279 -0.3411475 0.36787137
-0.016108656 -0.21027245 -0.057763193 -0.31815073 -0.3521097 -0.32958996 0.14807123 0.6456791
0.30233476 -0.27748033 0.100473896 -0.10976297 -0.26926613 0.11135749 0.17564267 0.5163973
-0.076760404 0.11482367 -0.14365901 0.037996095 0.18405047 -0.24837305 0.44846705 0.52687025
0.12720813 -0.37497613 -0.20453714 -0.054102775 -0.75333685 -0.3868469 -0.10574518 0.030623164
-0.21106654 0.017042913 0.15428807 -0.4621137 0.017385352 -0.03618018 0.0135782445 -0.0638596
-0.15646715 -0.050891954 -1.2933483 0.020029116 0.06094642 0.1916795 -0.039358873 -0.29522774
-0.20954765 -0.1651529 0.4305164 -0.10951798 0.09644102 0.097175755 -0.11473405 -0.05030978
0.291201 0.40459925 0.27560255 0.24417707 0.24609673 -0.42381486 -0.11550029 -0.049956243
0.23816836 -0.16377778 -0.15592083 -0.032073103 -0.30388248 -0.08385551 -0.0033934547 0.25147274
0.09543383 -0.4929895 -0.43729523 -0.29401314 -0.14274025 -0.13455713 -0.3570547 0.118999615
-0.173609 0.31171507 -0.3116444 -0.21814445 -0.3310195 0.05608975 0.04808883 -0.17309387

linear1.bias f4 [120]
00000000: 2aaf 26bf af2f 49bf 2d3c 42bf fccb 5abf
00000010: f7e7 52bf 21e6 46bf d5d1 69bf c908 07bf
00000020: cc56 0ebf 2185 e5be d18e 903d 2c5a b6be
00000030: 900d 37bf 7b2f d7be c8a2 9dbe 3da9 59bf
00000040: 7539 debe f84d fcbe edea 2fbf 5e24 dcbe
00000050: 0d14 27be 0eed 0cbf 9d54 36bf debc 6dbf
00000060: 068c 4abf 89fb f1be 8b34 1bbf e8f1 4abf
00000070: f953 28bf 1e16 21bf 4cab 06bf a80b 13bf
00000080: 7dff 13bf 92d0 36be fbd0 3abf 5ac3 2cbf
00000090: 69c4 74bf 7e43 c7be 576d 44bf 9f2d 5bbf
000000a0: b312 21bf adb7 30bf 4308 30bf 0746 8cbe
000000b0: a13a 2cbf 2f12 f7be 277a 2ebf 5ef4 26bf
000000c0: aa88 34bf 482f 15bf 91ba fcbe 0f81 34bf
000000d0: 4d04 1abf 2ae1 93be eeb9 4ebf f807 2cbf
000000e0: 1300 57bf 30ba 01bf ff87 55bf 71c2 79bf
000000f0: 6564 27bf 175b 6bbf 3e95 0bbf f56b 85bf
00000100: cb4e 4ebf 5507 50bf 8417 91bf 0c29 08bf
00000110: f056 53bf 9b18 6ebf 1867 d9be e2b4 41be
00000120: 9186 3abf eb4f 18bf 8908 4abf 07c3 2dbf
00000130: 246f 3ebf ea15 44bf 3c19 98be cde2 edbd
00000140: a064 7cbf a05d 4bbf 769c 2abf f460 42bf
00000150: 75f7 d8be 436b 67be d09b 16bf 6322 31bf
00000160: cd99 f6be b69e 40bf ee84 90bf 6bfa 68bf
00000170: fd3e 8dbf 354a 1abf a27e 53bf b687 34bf
00000180: 402a 07be 097f 3dbf 0e9f 1abf 54db eebe
00000190: b39c 45bf b910 77bf 9b15 c9be 2a7a a2be
000001a0: 7b3a 5abf f735 32bf f8f8 afbe 3dee 4bbf
000001b0: 8250 11bf 9846 49bf c9ec 16bf 2175 1fbf
000001c0: 83c0 55be 7fcc 4abf e20e 5ebf 0678 52bf
000001d0: e163 41bf 3356 7dbf a1ba 68bf 9de7 b0be
-0.6511103 -0.78588384 -0.7587307 -0.85467505 -0.823852 -0.776949 -0.91335803 -0.5274778
-0.5560119 -0.44828132 0.0705849 -0.3561567 -0.7150507 -0.42028412 -0.30788255 -0.8502386
-0.4340321 -0.49278235 -0.68717843 -0.42996496 -0.16316243 -0.55049217 -0.7122286 -0.92866313
-0.7911991 -0.4726222 -0.6062705 -0.7927537 -0.6575313 -0.62924373 -0.5260513 -0.5743966
-0.5781172 -0.17853001 -0.7297513 -0.6748558 -0.956122 -0.3891868 -0.7672934 -0.8561649
-0.6291916 -0.69030267 -0.68762606 -0.27397177 -0.6727696 -0.4825606 -0.6815514 -0.65216625
-0.7052103 -0.5827527 -0.4936109 -0.7050943 -0.6016281 -0.28882724 -0.80752456 -0.6719966
-0.8398449 -0.50674725 -0.8341064 -0.9756232 -0.65387565 -0.9193587 -0.545246 -1.0423571
-0.8058898 -0.8126119 -1.1335301 -0.5318763 -0.8255453 -0.93006295 -0.42461467 -0.18916658
-0.7286158 -0.59496945 -0.78919274 -0.67875713 -0.7438834 -0.7659594 -0.29706752 -0.116155244
-0.9859104 -0.79439735 -0.6664499 -0.7592919 -0.42376295 -0.22599511 -0.588315 -0.69193095
-0.48164216 -0.75242174 -1.1290567 -0.9100711 -1.1034847 -0.6026948 -0.826151 -0.7051958
-0.13199711 -0.74021965 -0.6039895 -0.4665171 -0.7719223 -0.9650989 -0.39274296 -0.3173383
-0.85245484 -0.69613594 -0.34369636 -0.796604 -0.5676347 -0.7862334 -0.58955055 -0.622881
-0.20874219 -0.79218286 -0.8674146 -0.8221439 -0.7554303 -0.98959655 -0.90909773 -0.34551707

linear2.weight f4 [90, 120]
00000000: 3bcc b63e 131a ddb9 70db 7fbd 24a2 0d3e
00000010: 15cc 983c d617 08bf 764f 41be f2fb 133f
00000020: 00a9 f1be 957e bb3e fd78 ac3d f2f7 febd
00000030: 17ec 08be 3f76 f33d 704a adbe 6551 9d3e
00000040: f0b8 d23e f120 4e3e dd5a 8fbd 9684 12bf
00000050: 77f4 69bf 6585 423d 103e b5be db02 853e
00000060: 828f 233e a478 24bf b054 abbe c76f 433d
00000070: 50e2 f13c 8166 46be d2c8 21be b2b3 7b3e
00000080: 4328 fbbe d432 813e b537 a8be 87eb 7d3e
00000090: 03ff 8bbd d8e4 b33e f7dc b53c 6f63 fe3e
000000a0: 5c17 d4be 4e1a 81be 4793 c03d a1e4 843d
000000b0: 4fe6 94bd fd4f 48be aed0 613d b322 cf3e
000000c0: 148f 50bd baa8 81be a2f8 2e3c bd08 09be
000000d0: c1e5 6f3e 72f3 3c3d f960 07be d55f 263e
000000e0: 377e 50bd 5ff9 2ebe 532e a5be b7cd c4bd
000000f0: 7049 1d3f 1576 883c 9b47 7d3e 154b e0bd
00000100: 3645 f6bd cacd 153c 7700 57be f655 7a3d
00000110: 00da f3ba 5342 923c 2832 ff3d 2399 92be
00000120: 05e5 41bd 0a41 883e 7600 14be 5699 863d
00000130: 7258 4fbe b689 483e 7d41 8cbe e1ba 683e
00000140: 115d 673e 748c 9bbd 5590 0bbf 8742 993e
00000150: d11a 43bd 7099 7fbe d953 febe b7ac debc
00000160: 29b2 1cbe e509 eabc 1e4c 4ebe c481 13be
00000170: dbb6 873e 8ced d2be c4ad aa3d b240 3bbf
00000180: e764 a2bd 65a8 513e 07a8 8c3d 4e85 003d
00000190: 796f 23be abbd 073e bc12 7e3d 2c9b c6be
000001a0: 8c44 0dbf 94a6 8b3c a9ee 02bf 69de c63c
000001b0: 8c2e 33bf 6dd3 0bbf a97b fd3e f474 acbd
000001c0: 3de2 7abe 23c2 c5bd cb3f 8e3e e460 f8bd
000001d0: 34df e33e 20aa c23c f836 a0be 940b 823e
000001e0: 7cac c43b 7206 7fbc 5dfb a33d 92ed 8d3d
000001f0: b12f adbd 8239 ebbd a2cc 04bc df07 73bc
00000200: abe5 82bd 0738 cc3c f9cc d13d 5d34 60bd
00000210: 6439 c9bc 70a3 55bd 00e6 f33c f02d 5cbd
00000220: 8224 753d 468f 403d e2c6 433c b375 a6bc
00000230: 2e97 203d 3f64 b73d 9102 303d 630f 7c3d
00000240: 153e 09bc 8567 5a3d 346e 20bd e9a3 55bd
00000250: 496d aebb 60ec 1a3b b8ee 63bd c1b6 b1bb
00000260: 95b6 4a3d 910f 503d e7fe 42bc 136c 8e3d
00000270: 36ba 123d 4c1a 893c fcd8 80b8 bd8a 89bb
00000280: c021 b5bc 4cc0 adbd 13d9 d23c 6600 7a3d
00000290: 1694 93b9 75d2 16be cedc 023c 5ac3 64bc
000002a0: 806f a53d 7219 9dbd c88f b6bc 2d71 12bd
000002b0: 9057 18bd 9446 9a3b 5aa8 4cbd 4ffd 603a
000002c0: 702f 39bd b888 c13c 8c2a 98bb 1ba2 8bbd
000002d0: 5bf2 4c3d bea9 1d3d 48bc 773c 1fd8 393d
000002e0: 3d8a 60bd 8b06 ad3c 3c56 a3bc b824 88bd
000002f0: 3bac d2bc fff3 60bd 82e5 26bd 17ec 1d3c
00000300: d748 eabc fca6 58bb 515f 0cbc ee25 753d
00000310: fd1b 2cbd 7a8c 11be 54a0 a73d c603 3e3c
00000320: c7c1 2ebe 1dab d3bc 11eb 3ebb df42 80bd
00000330: 4df8 f73c 8570 d1bd 185b cc3b 0e89 803d
00000340: 3cb2 90bd 6bfd 87bc cc9c dbbc 72c8 07bd
00000350: f101 853d f45b cabc 7635 963d 273c 50bd
00000360: 7938 03bd b472 3bbc 7946 1bbe 58aa 92b7
00000370: 5c1c 693c c817 a2bc 0da8 96bc 176a 883d
00000380: 5d43 0ebd dcce 9ebc 50c6 8bbd 3e06 973c
00000390: 760e 463d 8477 113d 87ec e4bd 93a0 e8bc
000003a0: e1d4 05be 80f3 98bc 60a3 acba 8712 9cbd
000003b0: 6655 18bd c19b 7bbb 560a 28bd 8000 80bc
000003c0: 5229 d23e a331 f43e 7719 0bbd 7301 acbe
000003d0: fae7 953e a010 02bf d5c6 343e c520 5ebf
000003e0: 9347 403e 52f6 323c 0917 903d 1f47 ab3e
000003f0: 3f5a 5a3f bd3f 703d 9f10 f8be efa5 87be
0.3570269 -0.00042171832 -0.06246513 0.13831383 0.018652001 -0.5316137 -0.18877968 0.57806313
-0.4719925 0.36620012 0.08421514 -0.124496356 -0.13371311 0.11887788 -0.33845854 0.30726162
0.4115672 0.20129754 -0.06999753 -0.5723356 -0.9138865 0.047490496 -0.35398912 0.2597874
0.15972713 -0.64246583 -0.3346305 0.04771402 0.02952686 -0.1937504 -0.15799263 0.24580267
-0.49054155 0.2523409 -0.32855 0.24796878 -0.06835749 0.3513553 0.02220009 0.49685237
-0.41424072 -0.2521538 0.09403091 0.0648892 -0.072704904 -0.19561763 0.055130653 0.4045616
-0.0509177 -0.2532404 0.010679396 -0.1338224 0.23427488 0.046130605 -0.13220586 0.16247495
-0.050901618 -0.17087315 -0.32261905 -0.096095495 0.6144018 0.016657868 0.24734347 -0.10951821
-0.1202492 0.009143302 -0.20996271 0.061117135 -0.0018604398 0.017853891 0.124607384 -0.2863246
-0.04733755 0.2661212 -0.14453301 0.06572215 -0.20248583 0.19583783 -0.27393714 0.22727539
0.22594096 -0.07595149 -0.5451711 0.2993357 -0.047632996 -0.24960876 -0.49673346 -0.027181966
-0.15302338 -0.028569171 -0.20146224 -0.1440497 0.26506695 -0.4119686 0.083339244 -0.7314559
-0.07929402 0.20474394 0.06867986 0.03137713 -0.15960492 0.13255946 0.062029585 -0.38790262
-0.5518272 0.017047204 -0.51145416 0.024275975 -0.699929 -0.54619485 0.49508408 -0.084207445
-0.24500366 -0.09656169 0.27783045 -0.121278554 0.44506228 0.023762763 -0.31291938 0.25399458
0.006002007 -0.0155655015 0.08006928 0.069300786 -0.08456362 -0.11485578 -0.008105429 -0.01483342
-0.06391462 0.02492906 0.102441736 -0.054737438 -0.024563499 -0.05215782 0.029772758 -0.053754747
0.05984927 0.047011636 0.011949273 -0.020319795 0.039206676 0.08954667 0.042971198 0.06153811
-0.008376618 0.05332138 -0.039167598 -0.05215827 -0.0053230864 0.0023639426 -0.05564758 -0.0054233973
0.04949053 0.050796095 -0.011901594 0.06954207 0.035822116 0.016736172 -6.143932e-05 -0.004197447
-0.02211082 -0.08483943 0.025738275 0.061035536 -0.00028148358 -0.1472872 0.007987214 -0.013962591
0.080779076 -0.07670869 -0.022285357 -0.035752464 -0.03719288 0.0047081206 -0.04996524 0.0008582668
-0.045211256 0.023624763 -0.004643744 -0.068180285 0.050035816 0.038491957 0.015120573 0.045372125
-0.054819334 0.021121284 -0.01993858 -0.066476285 -0.025716892 -0.054920193 -0.04074622 0.009638808
-0.028599186 -0.0033058515 -0.008567647 0.059850626 -0.04201888 -0.14213744 0.08184877 0.011597579
-0.17066108 -0.02583843 -0.002913181 -0.06262755 0.030269766 -0.102265395 0.006236445 0.06276141
-0.070652455 -0.016600331 -0.026808165 -0.033150144 0.06494511 -0.02470205 0.073344156 -0.050838616
-0.03203628 -0.011440922 -0.15163602 -1.7483879e-05 0.014227953 -0.01978673 -0.01839068 0.0666086
-0.03473221 -0.019385748 -0.068249345 0.018435594 0.048353635 0.03551437 -0.111779265 -0.02839688
-0.13069488 -0.018670797 -0.0013171248 -0.07620721 -0.037190817 -0.0038392397 -0.041025482 -0.015625238
0.4104715 0.4769412 -0.033959832 -0.33594856 0.29278547 -0.5080662 0.17653973 -0.8676875
0.18777303 0.010922985 0.070356436 0.334527 0.85293955 0.058654536 -0.4845018 -0.26493785

linear2.bias f4 [90]
00000000: be09 ccbe b0f7 91bb 0e85 3b3f 016e 56bd
00000010: 98a5 b03e 617e c4bd ff39 8abe aab2 fd3e
00000020: 6ee7 ac3d 35f5 eabb 369a 16be c48a b5be
00000030: 6385 9b3e ebf6 023f 5010 e23d e4d2 14bd
00000040: c7ed 41be 58d5 273f 80da 2a3c 56bd 9ebd
00000050: a37c c3bd 7d54 21bd 72ca 17bd f8b4 8bbd
00000060: bd7d 33be feca 50bd a7fa 90bd 131e 2bbe
00000070: fd25 9fbd b5d3 7fbb 0e53 6ebc 2010 4e8f
00000080: 7a3e f5bd 6cbc 83be 60ae 0ebc 3fdf 94be
00000090: f461 fdbd 681e b6bc 2344 82bc 66de 673e
000000a0: 8e6b 013f a9e0 183e 0153 73bd 4f52 fdbc
000000b0: 4e0e 4bbe 91cb 59be 1e77 febd e128 0b9c
000000c0: 86b2 9bbc 3ccc 893e ed38 85bd a16f 5cbd
000000d0: 1b71 a53d 9e12 dbbd 6680 9bbd 8a25 ab3e
000000e0: c451 d4bc 4c5c dcbc 08d1 503a 5466 fcbc
000000f0: 80a4 a2be 3530 7d3c b778 1fbe 257f f4bd
00000100: 7f59 57bd 2133 eb3d 4589 dfbb d14a 47be
00000110: 4a2c 49be 4a7d a1bc 17a7 dcbd af78 fe3d
00000120: aea4 153f 7276 db9f 5e95 963e d5b8 9bbb
00000130: 4714 34bd 33d8 513e e6c9 503d 2215 34be
00000140: 50c6 39bd cbca db3e 0252 11be e35d ee3e
00000150: 9e8b a6bd 90c0 283f ab25 1abd 5885 8dbd
00000160: 83d8 363e 02ae 493e
-0.39851183 -0.0044545755 0.732499 -0.052351 0.34501338 -0.09594417 -0.26997373 0.49550372
0.08442579 -0.0071703442 -0.14707264 -0.35457432 0.30375203 0.51158017 0.110382676 -0.036333933
-0.18938361 0.6555991 0.010428071 -0.07750957 -0.09545257 -0.039387215 -0.0370583 -0.068216264
-0.17528434 -0.05097484 -0.07079058 -0.16710691 -0.077709176 -0.00390361 -0.014546169 -1.015969e-29
-0.11974807 -0.25729692 -0.008708566 -0.29076573 -0.12372199 -0.022231296 -0.01590163 0.22643432
0.5055474 0.14929451 -0.05940533 -0.030923037 -0.19829676 -0.2126906 -0.124250636 -4.6044077e-22
-0.019006025 0.2691363 -0.06504998 -0.053817395 0.08078214 -0.1069691 -0.075928494 0.33427078
-0.025917895 -0.02689948 0.00079657184 -0.030810513 -0.3176613 0.015453388 -0.15573393 -0.119383134
-0.052575585 0.114843614 -0.0068217837 -0.19462134 -0.19645801 -0.019713063 -0.10774057 0.12425362
0.58454406 -9.294606e-20 0.29410833 -0.0047522583 -0.04396465 0.2049263 0.050973795 -0.17586187
-0.04535514 0.42928156 -0.1419144 0.46556005 -0.081320986 0.6591883 -0.03763358 -0.06910199
0.1785603 0.19695285

linear3.weight f4 [60, 90]
00000000: 528c e3be 5fb8 96bd 0b67 fa3e 3250 d73c
00000010: 3045 d3bc 4d3c 72be 1048 77be 6149 e1be
00000020: e8d4 d7be 3c87 a43c bdb6 cebe 0b26 11bf
00000030: dcb9 69be d2f6 cfbe 59bd ebbc 93ac d33d
00000040: d440 b3bd b59c d73e ff40 6e3c 987c 06bf
00000050: 1dfd b7bd 540c 7b3b 6df3 33bb 213e 0e3f
00000060: b7e9 b23d ac97 5d3e ec39 a6be 8347 f6bd
00000070: 2c3b 16be 855a 023e 4795 e6be d856 4aba
00000080: 5337 ed3e d1b8 e7be d67e cabd dabd 153d
00000090: ec29 613e f10c 5dbd 9470 983d 43b9 833e
000000a0: faea f93c 26e9 b03e 926d ca3a 6322 a33c
000000b0: 26a9 08bf b43b 97bd 7df2 963d dcac eb99
000000c0: ee4c 12bd 3d45 13bd 1384 53be 4e51 153e
000000d0: ea58 82bd a4f1 763e 3954 023b ee69 783e
000000e0: 248e bb3e 2e93 463d 1171 acbe 0a6c 92be
000000f0: 07cf bcbd 1409 dd3e c78a 1ebe a15b af3d
00000100: cd0e 1a3d 00c1 17be 5089 48a3 ce0f fbbe
00000110: 2c5b b7bd a9b0 2fbd d163 1d3e d448 a9bd
00000120: 7fb9 383e 46fc 3e33 30bb 38be f50c 773d
00000130: 5158 623e 0092 ac3b 4b0a a1bc b936 bfbc
00000140: 6809 863c 2237 57be 6bc6 c73c 3c4f 083f
00000150: ba65 b6bc d64a 413e 7d7f 4d3d 0e5b a33c
00000160: b64e da3d 2641 b03d 357b 0c3e 48a5 ecbc
00000170: 775c 9dbd 91d4 55be 2b29 f93d 9c41 693b
00000180: b970 09bd 66bf e73c 0404 babb 22e6 fe14
00000190: fdf2 ffbc e1ef 023e 7031 983d 40dc e0bd
000001a0: 7201 81be da54 d2bd a8a6 60be f868 273d
000001b0: 8405 bdbc d0f0 f5bd 28bb a2bd bda6 28bd
000001c0: 6501 7680 068e 3a3d 78f6 13bd 99e1 bbbd
000001d0: e42d 7f3d 97f9 e2bb 4c2d 2d3e 8d34 97be
000001e0: d36d 243c 74c1 8481 33e0 45bd 98a7 e13d
000001f0: 8669 92bd ba22 5abe d968 99bd cdbc ea3e
00000200: 9b18 413c a8e9 63bd 29f4 4cbe 30ab 63b2
00000210: 84ca 8e3d 0d7b 2fb7 13f8 8bbe a73b 20be
00000220: 98b8 f8bc 742a 2e80 8f15 85bc b7cd 0abe
00000230: f430 d4bc 2a16 473a 7294 24be a51c 95bd
00000240: a339 223d 0379 a5be 3cf2 723c 6bed e1bd
00000250: c955 973e c8d8 73be 5112 163e d4e3 56bb
00000260: 18c9 a7bb 10f1 4abe 7551 9d3d d530 c2bc
00000270: 6282 bfbc 9b25 0cbd 826d 2abe f98e 4992
00000280: 0388 f3bb 144c 1c3d c623 86ba da80 d616
00000290: 4c49 323e 0dea 013c 2787 eabc e519 4bbe
000002a0: 587a dfbc 9789 61bd 7862 903e 6a66 ddbd
000002b0: 0bec 71bc 8f46 25bd a7e6 553d fd46 96be
000002c0: fd2e 063a a25c 8abd 284f 3ebd 0e3c 58bd
000002d0: 4dbb 00bc bcd5 4036 60ac 993c 2c94 92bb
000002e0: 667a 87bc 8af3 6537 abeb 91b8 4c71 94bc
000002f0: d4a6 a0ba 0c13 9981 de5b 4535 7fb2 4c3a
00000300: f647 c1bb cacc 36bc 990b bfbc 2711 d2b7
00000310: 74d8 e8b2 f889 98bb cc44 933b c0fd 87bb
00000320: acd6 c3ba 0bf7 9ea6 b4e6 f980 9c6a b1bb
00000330: 010d 0801 2685 2e39 dc0a 94bb fa6d b6bb
00000340: c522 82ba dd48 3538 9dc9 cfbb 8c2e 6980
00000350: 85f9 bfb3 6dec f8ba aa7a 2a35 2716 a1ba
00000360: 29be 97b3 d6d4 2abc 32cd bfa9 addb 3239
00000370: 68e1 f1bc 555a 4736 92f6 a080 58f7 9680
00000380: 29e7 bf39 4202 0bb9 895d b9b1 b0dd 5600
00000390: 1047 4bae 7eca bdb9 bd08 b018 1623 9137
000003a0: f9d6 ccbc e0d3 d434 10cd 75b4 9412 bf36
000003b0: 8309 f0ba 3403 2ebc 97ed f7b9 bceb 3337
000003c0: 1b42 a83b 8301 ba00 393d a7ba f2cf ed00
000003d0: 3de3 2930 bc6d 2135 203d 3d81 5693 25ba
000003e0: 810f 88b9 d0b4 6f80 3cb2 083b 5546 9abb
000003f0: 72f1 ddbb 241b ea00 2a9f 6cbb 295e 3c28
-0.44442993 -0.07359385 0.4890674 0.026283357 -0.025789827 -0.23655815 -0.24148583 -0.44001296
-0.42154622 0.020084016 -0.40373793 -0.56698674 -0.22824806 -0.40617996 -0.028776811 0.1033565
-0.08752599 0.42111745 0.014541863 -0.52533865 -0.089838244 0.0038306909 -0.0027458325 0.5556355
0.08735984 0.2163989 -0.32466066 -0.120253585 -0.1467101 0.12729843 -0.45035765 -0.0007718629
0.46331272 -0.4525819 -0.09887473 0.03655801 0.21988648 -0.05396742 0.074433476 0.2572728
0.030507553 0.34552878 0.0015444031 0.019913858 -0.533831 -0.07384434 0.0737047 -2.4368248e-23
-0.035717897 -0.035954703 -0.20655851 0.14581797 -0.06364615 0.24115616 0.0019886626 0.24259159
0.36631882 0.048480205 -0.33680013 -0.28598052 -0.09219175 0.4317099 -0.15482627 0.08562399
0.03761177 -0.14819717 -1.0871099e-17 -0.49035496 -0.089529365 -0.042893086 0.15370108 -0.08265844
0.18039511 4.4467264e-08 -0.18040156 0.06031509 0.22104003 0.005266428 -0.019658228 -0.023341523
0.016361907 -0.21017125 0.024386605 0.532459 -0.022265304 0.18876204 0.05017041 0.01994088
0.10659544 0.08606176 0.13718875 -0.028887406 -0.07683652 -0.20881869 0.12166055 0.0035592085
-0.033554766 0.028289508 -0.005676748 2.5738217e-26 -0.031243796 0.12786819 0.074313045 -0.10979509
-0.25196415 -0.102700904 -0.21938574 0.04087159 -0.02307392 -0.12008822 -0.079458535 -0.04117464
-1.0837089e-38 0.0455456 -0.036123723 -0.09173889 0.062299624 -0.006926726 0.1691181 -0.2953228
0.01003595 -4.8766734e-38 -0.048309516 0.11018294 -0.07149033 -0.2130231 -0.07490701 0.4584717
0.011785652 -0.055642754 -0.20015015 -1.3252063e-08 0.069722205 -1.0459463e-05 -0.27337703 -0.15647756
-0.030361459 -4.239662e-39 -0.016245632 -0.13555036 -0.025902249 0.000759455 -0.16072252 -0.07280854
0.039605748 -0.32318887 0.014828261 -0.11031612 0.29557636 -0.23813164 0.14655425 -0.0032789605
-0.005120408 -0.1981852 0.07681552 -0.023704926 -0.023377601 -0.03421555 -0.16643336 -6.3600644e-28
-0.0074319853 0.03815849 -0.001023405 3.4654881e-25 0.17410773 0.007929337 -0.028628899 -0.19834097
-0.027280018 -0.055062857 0.28200126 -0.108105496 -0.01476575 -0.040350493 0.05222192 -0.29351035
0.0005118696 -0.067559496 -0.046462208 -0.052791648 -0.007857156 2.873464e-06 0.018758953 -0.00447323
-0.016537856 1.3706167e-05 -6.9580354e-05 -0.01812043 -0.001225675 -5.6230655e-38 7.3521903e-07 0.00078085804
-0.005898471 -0.011157224 -0.02332096 -2.5041938e-05 -2.7106786e-08 -0.004655119 0.004494285 -0.0041501224
-0.0014941297 -1.1030413e-15 -2.2949799e-38 -0.00541432 2.4988585e-38 0.00016643535 -0.004517896 -0.0055673094
-0.0009928575 4.3221622e-05 -0.006341173 -9.659425e-39 -8.939518e-08 -0.0018991359 6.3508435e-07 -0.0012289927
-7.0660754e-08 -0.010426721 -8.5176996e-14 0.00017057238 -0.029526427 2.970589e-06 -1.4782132e-38 -1.3864055e-38
0.00036602587 -0.00013256914 -5.3948424e-09 7.977379e-39 -4.6219972e-11 -0.00036199758 4.5503757e-24 1.7301685e-05
-0.02500485 3.9642237e-07 -2.2892004e-07 5.6944064e-06 -0.0018313382 -0.010620881 -0.0004728853 1.0724118e-05
0.0051348335 1.7081945e-38 -0.0012759335 2.183961e-38 6.1804767e-10 6.013686e-07 -3.4757673e-38 -0.0006316205
-0.00025951493 -1.0258603e-38 0.002085819 -0.0047080913 -0.0067731673 2.1499242e-38 -0.0036105611 1.0456514e-14

linear3.bias f4 [60]
00000000: 404d 3d3f 18a7 f2bd 081b 5aba 6c0a 383f
00000010: 72a4 3fbd 7977 7d3e f782 95bc aeb3 d63b
00000020: c343 5ebe 9ea6 d1bd 46ae f9b7 9c9c 373f
00000030: 9fa2 f53e b12a 9cbc 50c1 ccaf 048e 003d
00000040: b8d3 e1ba 6283 02bb 3be6 b1bd ede0 3a3f
00000050: bd2e b8bd 8cba f2bd a87c c7bd 78e1 a7b9
00000060: c88e b8bd cd9b 2aba 49db 09bd 9ae0 99bd
00000070: 7828 21bd 49d3 a9b8 d4d5 033f 17e0 63bc
00000080: dc71 83bc 633d 9abd 3685 46bd 5069 b9bb
00000090: 5a1d 0f3f 507b 74bd 38ca d43d 73f4 7bbd
000000a0: 106b f9bb 159c ff3d 01bf 643e 6faa df3d
000000b0: 4a94 933e 8bd1 333e 0265 ba3e 671e 94bd
000000c0: d824 05bd e153 9b3e fc06 16be 8c6c 2bae
000000d0: aff9 3fbd d88d 69bd 20c0 ad3e 666d aabc
000000e0: 8584 88bc c3c9 863e 7dea ebbd 2e66 9d3d
0.73946 -0.11848277 -0.0008320068 0.718909 -0.046787687 0.24752606 -0.018250925 0.006552181
-0.21705537 -0.10236858 -2.9764265e-05 0.7172334 0.47975633 -0.019063326 -3.724474e-10 0.031385437
-0.0017229235 -0.0019914736 -0.08686491 0.7299946 -0.089932896 -0.11851987 -0.09740573 -0.0003202071
-0.09011608 -0.00065082015 -0.033656392 -0.075135425 -0.039345235 -8.097903e-05 0.5149815 -0.013908408
-0.016045503 -0.0753124 -0.048466884 -0.005658306 0.5590416 -0.059687912 0.10390133 -0.06151242
-0.00761164 0.12480942 0.22338487 0.109211795 0.28824073 0.17560403 0.36405188 -0.07232361
-0.03250584 0.30337432 -0.14651102 -3.8977307e-11 -0.046868976 -0.05702004 0.33935642 -0.020804118
-0.016664753 0.26325807 -0.115193345 0.07685505

linear4.weight f4 [30, 60]
00000000: 0571 f5bc 2b4c abbd df79 60bc 810b 693e
00000010: fe91 c7bc 65ff ee3d 9116 a0be 2d69 a6be
00000020: 5631 5cbd f4dd 8abd 17e3 13b8 ec35 963d
00000030: 1d0c ba3e cda1 2b3b 8c9f 99af a8e1 12bc
00000040: f46d 58ba 067b b83b 50ad 67bd 7255 20be
00000050: a0a4 f1be c032 663d 5c42 95bb 1539 0015
00000060: dc7a b23c 9ba4 913a 604a 19be bb00 c0bd
00000070: f31e 47bd 8813 4302 09ac 3b3d 49bb 123c
00000080: b589 54bd 6881 df3a f096 debd 7cbb 8fb3
00000090: c500 efbd 32ec f4bd 0aa5 643d b55c e2bd
000000a0: 197b 03bc 3bfd 873e 47a9 d2bc fe96 88be
000000b0: d46c 623e 0db4 a1be f835 b8be 953c 29be
000000c0: 2ffa 513d f55f c9be 847c a5bd 64c7 aab5
000000d0: 9456 813d fc74 cabc 8c56 bebe 94a4 ffb9
000000e0: c795 3fbc 5ced 673c bee2 1c3d 9e7c cdbd
000000f0: a293 53be 990c f83d 7be8 433b ccab b2be
00000100: df2f 253d f802 793d 1fe6 3b3e 5f95 b93c
00000110: 5c2b c8be 341b 9fbe 7d20 903c 1c2f 823d
00000120: 0d06 8f3e 0508 3dbb c2b5 7e25 8adb fbbd
00000130: 3621 13b8 e366 173b dee9 8d3d ef7f ce3e
00000140: 115d 253e 1bfc cbbe a8c4 87bd 5938 bc29
00000150: ace8 5cbd 6953 81ba ed1f 153e 7ccf ef3c
00000160: d19f 1f3e 404a 970f ce6a 6f3e 9bb6 2aba
00000170: 76cb 5d3d 29b4 17bd fc6e 15bc 47cf c53c
00000180: 2906 233e 0521 b3be f2f6 113d 6e43 8a3d
00000190: 6a45 9c35 9af2 39be 4a27 7cbd 3a7b 1bbf
000001a0: f472 0cbd 0d69 bbbd d295 883e cb03 e63c
000001b0: 93fc 08be c25e 7a3d 632d 8dbe 6151 29b0
000001c0: d345 833d db55 c73d 0761 9b3d 8e4d 8e3b
000001d0: c51a 19bb 1a8b 52be 49cd 6c3d 2002 b3be
000001e0: 1951 733d 27b6 16be 78fd 37bd 61ac f23d
000001f0: 6223 4a3d 8249 2cbe 6341 a53e fe5c b6be
00000200: 9699 c2be 2fd1 b83e 464c 873c 2985 663e
00000210: 226d a63e 7565 e8bc 2034 9227 1042 52be
00000220: cfd2 06bc c388 98bb de06 22bd d979 7b3d
00000230: a03b 87be 184a dcbe d221 3f3c fcc8 dbb6
00000240: 413d 8a3d 5b09 95bb ef7f e4bc f7e7 853c
00000250: adfe 6a3d de3d 6800 3d46 14be 8802 d5bb
00000260: 0279 04be 7a38 1c3c 443f 253d 993c dcba
00000270: 9086 f13d 452b c13e bea3 df3e 1ba2 f1bc
00000280: f9cf 383d f570 953e e8fd 25bd 66c6 d6be
00000290: ae27 dcbe d467 6c3b d823 bdbe 1e91 003d
000002a0: d1bc 893e 18be bfbe c1a1 17be bbbd b0b4
000002b0: 6958 5bbd 8822 833c 01af 0dbe 7ddc 313c
000002c0: b68f e63a bc29 27be 2526 d43c fd6e 0bbe
000002d0: 7611 c13c a311 013b d42e 7c01 6222 cdbd
000002e0: eb75 44a3 c948 a8bd c2ba 2fba 8ed3 ae3d
000002f0: cc84 983c bbe1 50bd 72cd a801 b913 6abd
00000300: 9ff8 6cbd e7a8 0dae 4a3b 1701 1120 cdbd
00000310: b2b7 3881 ee6a a41e fead a03b 45c5 a8bd
00000320: 375e 8733 7b6b 8cbc 2d92 bfba 9409 0301
00000330: 4637 7fbb 0ca6 172b fe60 2d3c 3fd8 d53c
00000340: 0092 4b81 ea84 ba81 d3e4 2cbd a97b bd80
00000350: badc e3ba b651 11b8 7647 a4b1 e715 d1ac
00000360: f6f2 663d c875 7ebd a38c 63bd 8d78 b6ba
00000370: 6e6b 3d80 a335 5ebd 35a0 823c 0b80 7c3c
00000380: 9e7d 2fbe 2958 d5bd d549 973d 89e3 373c
00000390: c49d 983c 78c5 333b 58c2 00bb 7036 3080
000003a0: c1f2 e3b9 0152 1eba f053 513c 5573 253a
000003b0: e619 0381 acad e33c b34c 02bc cc23 8aba
000003c0: 822f ad3c b0d7 15be c741 15b9 11be 803e
000003d0: 2bf6 673b db06 93be 0910 50be 8761 a1bd
000003e0: 51e3 a1bd bcb7 6ebe 5720 1b2a 89d7 b4bd
000003f0: 3366 87be 7f0a 67ba 6887 fe96 70b2 00bf
-0.029961118 -0.08364137 -0.013700931 0.22758295 -0.024361607 0.116698064 -0.31267217 -0.32502118
-0.053757988 -0.067806154 -3.5259025e-05 0.073345035 0.36337367 0.002618897 -2.7943903e-10 -0.008964933
-0.00082561304 0.0056299 -0.056561768 -0.15657595 -0.4719591 0.056200743 -0.00455503 2.5894424e-26
0.0217871 0.0011111678 -0.14969778 -0.09375139 -0.0486135 1.4331943e-37 0.045818362 0.008955785
-0.05188914 0.0017052116 -0.10868633 -6.6930596e-08 -0.11670069 -0.11959113 0.055821456 -0.11052839
-0.008024954 0.26560387 -0.025715483 -0.26677698 0.22111827 -0.3158268 -0.35978675 -0.16527016
0.051263984 -0.39331022 -0.0808039 -1.2724017e-06 0.063153416 -0.024713986 -0.37175405 -0.0004876001
-0.011693425 0.014155712 0.038302176 -0.100335345 -0.20661786 0.12111778 0.0029893208 -0.34896696
0.040328857 0.060793847 0.18349503 0.022654234 -0.3909558 -0.31075442 0.017593617 0.06356642
0.27934304 -0.0028843891 2.209257e-16 -0.12297733 -3.507846e-05 0.0023102097 0.06929372 0.4033198
0.16148783 -0.3984078 -0.06629306 8.358652e-14 -0.05393283 -0.0009866777 0.1456296 0.029273741
0.15588309 1.491835e-29 0.23380587 -0.00065121957 0.054149114 -0.03703705 -0.009120699 0.02414669
0.15920319 -0.3498613 0.035635896 0.067511424 1.1643108e-06 -0.18158951 -0.061560906 -0.60734904
-0.034289315 -0.09150896 0.26676804 0.02807798 -0.133776 0.061125524 -0.2757369 -6.159749e-10
0.06409802 0.097331725 0.07586866 0.0043427413 -0.0023361903 -0.20560876 0.057812963 -0.3496256
0.059403513 -0.14717923 -0.04491946 0.11849285 0.04935015 -0.16824916 0.3227645 -0.35617822
-0.38007802 0.36097094 0.016515862 0.22511734 0.32505137 -0.028368691 4.0579654e-15 -0.20533013
-0.008228972 -0.004654975 -0.03955733 0.0613955 -0.26412678 -0.4302528 0.011665778 -6.5501063e-06
0.067499645 -0.0045482344 -0.027893035 0.016345961 0.057371784 9.573085e-39 -0.14479919 -0.006500546
-0.12936786 0.009534949 0.040343538 -0.0016802727 0.11793244 0.37728325 0.43679613 -0.029496243
0.045120213 0.29187742 -0.040525347 -0.4194824 -0.42999023 0.0036072629 -0.3694141 0.031388395
0.26901868 -0.37449718 -0.14807798 -3.2920602e-07 -0.05355111 0.016007677 -0.1383629 0.010855791
0.0017590437 -0.16324514 0.025897095 -0.13616557 0.023567896 0.001969435 4.6318688e-38 -0.100163236
-1.0650151e-17 -0.08217008 -0.00067035493 0.085364446 0.01861801 -0.050996523 6.2008253e-38 -0.057147715
-0.05785429 -3.2209704e-11 2.7776858e-38 -0.10015882 -3.3927258e-38 1.74084e-20 0.004903554 -0.08240751
6.303565e-08 -0.017141094 -0.0014615707 2.4067772e-38 -0.0038942858 5.3876413e-13 0.010582207 0.02610409
-3.738996e-38 -6.851633e-38 -0.04221041 -1.740127e-38 -0.0017384507 -3.4646793e-05 -4.7811524e-09 -5.942569e-12
0.05638405 -0.062124044 -0.055554044 -0.0013921425 -5.640504e-39 -0.05425037 0.015945533 0.015411387
-0.17137763 -0.10417206 0.07387129 0.011223682 0.018629916 0.0027430933 -0.0019647088 -4.427632e-39
-0.0004347768 -0.0006039441 0.01277636 0.00063114363 -2.407948e-38 0.027792774 -0.007952857 -0.0010539233
0.021140818 -0.1463306 -0.00014234251 0.2514501 0.003539453 -0.28716168 -0.20318617 -0.0787993
-0.07904685 -0.23312277 1.3777986e-13 -0.088301726 -0.2644516 -0.0008813515 -4.1121367e-25 -0.50272274

linear4.bias f4 [30]
00000000: 21d0 063f 6e42 b03e 9efa 8e3e 8545 acbd
00000010: 1ba2 f73e 4fd6 bc3e 004b 1da4 9bde 4e3f
00000020: 9a02 e23d 71e6 39bd c6ef d23e e318 81ad
00000030: b0cd e73e a98c 013f 293b ef3e 3c1f 8f3f
00000040: d033 023f 2070 223f 48c0 f53e 9f5c 3f3f
00000050: b9df 93bc 7694 993d 7745 51bd 7296 803e
00000060: efad a23e 7ad4 e4bd 39c2 77ba 5ae9 793e
00000070: 8ebf f93d 6086 4a3e
0.5266133 0.34425682 0.2792558 -0.08411697 0.48365864 0.36882254 -3.4107476e-17 0.8080842
0.110356525 -0.04538578 0.41198558 -1.4676654e-11 0.45274115 0.50605255 0.46724823 1.1181407
0.5086031 0.6345234 0.4799826 0.74750704 -0.018051015 0.0749902 -0.051091637 0.2511478
0.31773326 -0.11173339 -0.00094512437 0.24405423 0.12194739 0.19777822

linear5.weight f4 [90, 120]
00000000: 458d 59be 6685 0d3c 625b 133e 4cbc 68bd
00000010: 2506 153e 2f10 d9bd 3eb4 3510 7dcf dabe
00000020: 7ead 963d f75a b33d 03e9 16bf 76ac 6400
00000030: 41aa a9be 3886 d0bd 10ca f1bd 23d7 8fbd
00000040: c232 dabd c762 ef3e d189 ed3e 5a31 17be
00000050: ddeb 5f3c e324 eabe e34b dbbc 75e1 34bd
00000060: 9295 023e b370 7abb 23a1 15b9 e1f5 d6be
00000070: ff1a aabe 5c46 29be 1189 01bf 29db 93be
00000080: 6624 f6be 9621 613c a752 a13d c8a9 75be
00000090: acd9 423a 49fe 78be 2d38 18bb 56a4 9ebd
000000a0: b047 aabd cb0f 7100 eddb 943d 4238 de3e
000000b0: 1151 bebe cd4c 2a3e 7936 26bf 1193 59be
000000c0: e653 143f 0a33 96be 4c65 6a3a c89f 603c
000000d0: fa85 26bc e6e8 ba3e 37db efbe a6c7 de3c
000000e0: 1c6e d93b f58a 24be f3ac 8f3d 69ed 6dbc
000000f0: 359f 1c3e c4dc c4bd 19ed b63e bbfb 993c
00000100: b4da ebbd 1fc0 54be 84b3 f21a 594f 6bbc
00000110: d33d fc3d 0f6b 0a3d 268b 633d 8c83 54a3
00000120: ae61 4e3e ceb9 bb3c a8de 07be 5334 913e
00000130: 73b5 38be a320 15bd 4e71 2b3e 9e6f cdbc
00000140: 0d15 1c3b 0955 d2bd 0bdb bb3c b2e5 e1bd
00000150: a14b 1e3e 3d9a dc3c b8f6 8dbb 896b 09be
00000160: 6839 a23e a951 4c3d 02a8 06bf aa2d 923e
00000170: f24c d9bd 6e43 84bc fd6d 523e eddb 92be
00000180: 7a55 fb81 51fd bcbd 00dd b7be 3161 4abd
00000190: f31d ccbe 59f8 5d91 6a52 f2be b6f5 b63e
000001a0: bd3c dd3b 080a 72be 2c86 70bc dd73 f7be
000001b0: be3c 1d3f b5e4 1e3d abc7 753a 6543 553e
000001c0: d3b7 89bc 2c90 5cbb 3dbf 83bd 6442 543c
000001d0: b01a 60bc 3cf3 d5bd 2cbf a3be 186e b73c
000001e0: efac 873d 1afd 873c fdfc 073e 4332 793d
000001f0: 0bc8 d33d dd52 523e f71f a081 60bc b2be
00000200: 758c 15bc 4f93 ebbc 328b 93be 4eac ca00
00000210: d24a d5bd 6735 80bd f406 7cbd 7bfe 0cbd
00000220: 1f90 bc3d 8b81 253e e262 843d 1a70 d93d
00000230: 3048 64bc 6bc9 483e 6ccf 6a3b 7064 d1b8
00000240: 2bd7 b03e 3794 b93c a2fe 68b9 4630 1a3e
00000250: 0055 87be 03da 2ebd 7479 933e c9b9 513e
00000260: b76e 233e f947 d13a 398b 293e e5fb 023f
00000270: 3c9f 7f01 2920 953d 1d0b 153b 89e2 c3bc
00000280: 3219 8b3c 634a aa00 ab44 d33d f9c5 16bf
00000290: 61e3 50be a4d4 71be ecd5 14be 65ab 103e
000002a0: 06b1 47bf 4de3 873e 6c99 43bc 47c0 2b3d
000002b0: 4c26 0c3b 91b5 dfbc 9ec0 bdbd a850 d338
000002c0: 5c5c 38a8 971f 53be 49e7 913d 68d4 5c3d
000002d0: 5d41 4f3e 17f1 f8bc 4292 06be b3e1 6936
000002e0: 6cd8 cebd e8ca 933d 4843 3300 8ad0 8ebe
000002f0: cd6f 833d 55f7 49bc 37c9 63bd ce9e ae00
00000300: 4e18 5e3c 019e bfbe 651a 353e c1f6 14be
00000310: 464f 0fbd 668b 983e 57ff 90be 516d 5cbe
00000320: c72c 38bb 2190 9abd 5d3c 01bd b221 913c
00000330: 5576 443d f62e ea38 2141 ae35 988c dbbd
00000340: b7ae a5bd d3ae d33b 4277 ce3d c1fd aebc
00000350: f823 5bbe ae1a 593a cac3 3bb9 0597 2b3e
00000360: 68f7 0c80 a5b5 44bd d44a 213c 6c5e 94bc
00000370: aedf 51bd 1f74 9081 dc34 cf3c 42d6 233e
00000380: 4f70 59be bc85 c2be 0a66 4b3c 3f85 c6be
00000390: 0c56 71be 53f5 fe3d 9780 83bb be0b b33c
000003a0: 6f84 bf3a f37b 7c3e b3b6 833c 4ce3 673b
000003b0: c55d 6ab9 fa30 6d3d 4968 c1be ce3f 6c3e
000003c0: 5695 80bd d0c1 62be c599 143e 1b89 8d3c
000003d0: 1ff6 d4be 9b37 12be 6a1c d500 28d6 173e
000003e0: 11c0 3c3b c505 123e 6eae 77be 1e9c eba2
000003f0: f1db 733e 52df b23e a066 c3be b614 a1be
-0.21245296 0.008637762 0.14390329 -0.0568202 0.14553125 -0.1059879 3.583481e-29 -0.42736426
0.0735731 0.087575845 -0.589493 9.245417e-39 -0.33137706 -0.1018185 -0.118061185 -0.07023456
-0.106542125 0.4675505 0.46394208 -0.1476492 0.013667074 -0.45731267 -0.026769584 -0.044160325
0.12752369 -0.0038214147 -0.00014269775 -0.41984466 -0.3322372 -0.16530746 -0.5059977 -0.28878143
-0.48074645 0.013740918 0.07877093 -0.23990548 0.00074329483 -0.24315752 -0.0023226843 -0.07746188
-0.083144546 1.0383077e-38 0.0726851 0.43402296 -0.37171224 0.1663086 -0.6492687 -0.21247508
0.5794052 -0.29335815 0.0008941486 0.01370997 -0.010163778 0.36505812 -0.46846935 0.02719481
0.0066354405 -0.16068633 0.07015409 -0.014521935 0.15295108 -0.0961242 0.35727766 0.018796792
-0.11516324 -0.20776413 1.0037888e-22 -0.01436218 0.123164795 0.033793505 0.055552624 -1.1520399e-17
0.2015445 0.022915747 -0.1326853 0.28360233 -0.18037967 -0.036408078 0.16742441 -0.025077637
0.0023816258 -0.102701254 0.022931596 -0.11030139 0.15458538 0.026929015 -0.0043323897 -0.13419928
0.31684422 0.049882565 -0.5260011 0.28550464 -0.10610379 -0.016145434 0.2054977 -0.28683415
-9.232549e-38 -0.09228004 -0.35910797 -0.049409095 -0.398666 -1.7510354e-28 -0.47328502 0.35734338
0.0067516253 -0.23636639 -0.014680427 -0.48330584 0.6142081 0.03879233 0.0009375761 0.2082649
-0.016811287 -0.003365527 -0.0643296 0.012955282 -0.013678238 -0.10446784 -0.3198179 0.022391364
0.06624781 0.01660018 0.13280101 0.06083895 0.103408895 0.20539422 -5.8820585e-38 -0.34909344
-0.009127726 -0.028756766 -0.28817135 1.8612581e-38 -0.104146615 -0.06260186 -0.06153007 -0.03442238
0.092071764 0.16162698 0.06464173 0.10617085 -0.0139332265 0.19608085 0.00358292 -9.9846045e-05
0.3453916 0.022653682 -0.00022220102 0.15057477 -0.26432037 -0.04268838 0.288036 0.20481028
0.15960203 0.0015966884 0.16557015 0.5116561 4.6950348e-38 0.07281525 0.002274222 -0.023911731
0.016979787 1.5638719e-38 0.10315832 -0.5889583 -0.20399238 -0.23616272 -0.1453473 0.14127882
-0.7800449 0.26540604 -0.011938434 0.041931417 0.0021385131 -0.027308257 -0.092652544 0.000100762874
-1.0234079e-14 -0.2061752 0.07124192 0.053913504 0.20239778 -0.030388398 -0.1314173 3.485108e-06
-0.10099873 0.07216436 4.707746e-39 -0.27893478 0.06417809 -0.012327035 -0.055611815 1.6036345e-38
0.013555599 -0.37425235 0.1768585 -0.14547254 -0.03498771 0.29793853 -0.2831981 -0.21526076
-0.0028102861 -0.07547022 -0.031551708 0.017716262 0.047964413 0.00011166737 1.2982965e-06 -0.107201755
-0.08089965 0.0064600497 0.100813404 -0.021361234 -0.2140044 0.00082818686 -0.00017906647 0.16756828
-1.190779e-39 -0.048024792 0.009844501 -0.01811143 -0.05123871 -5.306387e-38 0.02529376 0.15999702
-0.21234249 -0.37992656 0.012414465 -0.38773534 -0.2356798 0.12449136 -0.004013132 0.021856185
0.0014611612 0.24656658 0.016078329 0.0035383282 -0.00022350911 0.057908036 -0.37774876 0.23071215
-0.062784836 -0.22144246 0.14511783 0.017277291 -0.41594025 -0.14279024 1.9571154e-38 0.14827788
0.0028801004 0.14260013 -0.24187633 -6.3862173e-18 0.2381437 0.34936005 -0.38164234 -0.31461114

linear5.bias f4 [90]
00000000: 6333 393f c52f f7bd 9c7a 2bbe 7a40 273e
00000010: 5ead d73d b3fb 183d c66d ad3e 1e76 78be
00000020: 0ce9 933d c65c 3e3e f53c cebd 96e1 68bc
00000030: b3ae 76be 2f18 b3bd 2a82 a2bd e7d0 91be
00000040: f76a c23e 3d04 f13d 7ca5 33be 4c17 82be
00000050: 033d e0bd cf30 9dbe e3fa d5bd c843 8fbe
00000060: 8df6 5dbe 7f1e 823e f5cb 32bd a7d5 373e
00000070: d815 7cbe 2712 7f3d 3ef1 bd3e 53c7 ecbd
00000080: 97a3 333e f486 4ebe 15f2 c83e 52f0 ccbe
00000090: 962d 21be 71e1 36be 4e9e bebd a160 acbe
000000a0: b0a5 d8bd 58f6 59be 25aa b3be 6195 c2bd
000000b0: cf42 95be 4b9e 203c 2e8a 93bd fddb 96be
000000c0: c18a b83d 1110 06bc efd1 41be 3795 343e
000000d0: b589 74be d0a1 a6bd 5b9a c73c 8028 23bd
000000e0: 3c00 b43d acc8 463e a1cb 28be 2270 8ebd
000000f0: ba06 95be a114 3ebe 123d 083d c71b 71bd
00000100: 903f a3bd cb1b 05be 301b ef3d 60fd 90be
00000110: 71e4 7fbe 0913 adbe c806 78be 8a95 5bbe
00000120: 0118 60be 2363 903c 7da3 3dbd af31 7cbd
00000130: 4382 9abe c5ed 111e b240 26be ff5b abbd
00000140: 57dd 95be 8dac b3bd cf07 8b3e 5f06 b1bb
00000150: 7680 4cbe 7d85 e5bc b996 33be ee56 16be
00000160: 9d8e a0be 47d0 36bd
0.72344035 -0.12069658 -0.1674599 0.1633319 0.10531114 0.037349414 0.33872813 -0.24263808
0.072221845 0.18590078 -0.100702204 -0.01421394 -0.2409008 -0.08744847 -0.07934983 -0.28479692
0.37972233 0.117683865 -0.17543596 -0.254084 -0.10949137 -0.307013 -0.104482435 -0.279814
-0.21676083 0.25413892 -0.04365154 0.17952596 -0.24617708 0.06227317 0.37098116 -0.115614556
0.17542873 -0.20168668 0.39247194 -0.400271 -0.15740046 -0.17859437 -0.09307538 -0.33667472
-0.105784774 -0.21285379 -0.35090747 -0.09501148 -0.29152533 0.009803365 -0.0720409 -0.29464713
0.0901084 -0.0081825415 -0.1892774 0.17635046 -0.23880656 -0.08136332 0.024365595 -0.039833546
0.08789107 0.19412488 -0.16483928 -0.069549814 -0.29106694 -0.18562557 0.033261366 -0.05886438
-0.07971108 -0.12998883 0.116751075 -0.2831831 -0.24989487 -0.33803585 -0.24221337 -0.21443763
-0.21884157 0.017625397 -0.046298493 -0.06157082 -0.30177507 7.725406e-21 -0.16235617 -0.08367156
-0.2927043 -0.08773146 0.27154395 -0.005402371 -0.19970879 -0.028017754 -0.17537965 -0.14681599
-0.31358805 -0.044632223

linear6.weight f4 [60, 90]
00000000: 6f7f 8fbe 21a1 973d 0e14 e5bd 37cc 50bd
00000010: b1c6 8fbe b811 72bc 2abc 83be 39b4 9fbe
00000020: e902 07be d0ae c23c 66bb f8bd c434 a1ba
00000030: 1746 063e 72cc a1bc e3eb 833c a866 203f
00000040: a583 aebd 2b8f 073e 6f27 1b3e 91ad 033d
00000050: 44b1 92bc f438 dc3e c054 9abd 243c 20be
00000060: dae8 6e3b 0637 ddbe 96f3 09bd 2b1e afbe
00000070: 8940 123d 44c6 70bc 728b 62be 9fbd 36be
00000080: 49a4 043e 1146 d33d de80 06be 9ab0 87bd
00000090: ccb2 083e c426 78be 39c3 7abe ec36 2e3d
000000a0: 765c 42be b73c 88bd a7b2 0a3e 69b9 1e3e
000000b0: 85ab 8c3e e001 c0be dfe7 483c 0cc8 d43d
000000c0: 35b1 fbbe 5556 81be 3433 45bd 477a 97be
000000d0: 8c60 7c3c ab03 9fbd a620 643e de55 1dbd
000000e0: 7451 dbbe 0344 893e 3017 31bd dcf2 013d
000000f0: f713 b93e d98c 4e3e 5c46 bfbd 3a65 80bc
00000100: dced dfbc 22ff 293e 1f3b 033e e292 e83d
00000110: 800b 1bbe 6e96 853e 68f0 d7bd 68e4 3cbd
00000120: 7a48 233d 1c15 46be ddfe 333e 1ed7 febe
00000130: 40d7 83be 8a2e c29a 16eb 5e3e 8a41 fd3d
00000140: b1b5 623e b75e 5ebc 2bef 1dbe 9477 0f3d
00000150: ebd1 9d3e afbf c9bb df1d 853d b267 013d
00000160: 1518 13be a759 ad3d b681 b23c 7bbf a3bd
00000170: a768 acbd b461 a1be 43b8 b5be 8eaf bd3c
00000180: fa9e 893d 2d34 053f 0bc2 013e 5bdb 6b3e
00000190: d9d6 e4be 692b 92bc c6ec 74be ccc5 3fbd
000001a0: c6c0 81bd 26ec 7a3e 73d0 9fbe 9691 c6be
000001b0: 9a8b 3e3e 384d c13d dd29 fe3c 69f1 a8be
000001c0: c5a0 9a3e 3434 0f3e e4f7 77be 97a6 c7be
000001d0: 91f4 92bc a27f 593e 30d6 073f 4b21 19be
000001e0: 8816 ccbd 99f4 9dbe 2069 593c ad09 02bd
000001f0: c1a4 a0be 615a 49ba 78dc b2bd 8825 8f3e
00000200: 6850 4e3e 0464 183f 6e2f eabd cb83 893e
00000210: 3479 763e 2dae bb3e 09d1 66be c69a d83d
00000220: f77a ae3c b5de 7e3c 4455 debe 2f05 973e
00000230: 95ef a2be d436 393e 8290 5abd ad94 a43d
00000240: 5753 bbbd bbf2 9bbc 7d8f 59bf c161 a1bc
00000250: 89b8 b63e 1b72 27bd a8dd c9bc c9e5 30bf
00000260: fa6a 233e 2509 3c3e a9e9 003e b2b2 843e
00000270: 8d14 20be d3c4 46be 388e a0be 79ef 87bd
00000280: f79d f43e 22be 49bd 20de 8dbe 7bd1 66bb
00000290: ff6f 023e 3211 1cbf d831 6f3e 31be 7b18
000002a0: 06d7 32be c424 15be 31bb 023c 7b74 18bd
000002b0: a25b 9dbd 48d0 043e 604f e7be 0619 dab9
000002c0: 0dd0 e1bc ccf5 b8be 074d 963e 4c78 20bd
000002d0: c04d 3dbe d76d 883e 2cb4 8b3e ab93 02bf
000002e0: 4125 6c3e 7587 b0bd 71aa eb3d 0a89 703d
000002f0: 2515 21be cbd9 963e ac9d 31be b1fd f6bc
00000300: 78c5 bf3e 2033 d0bd 1a68 90bd 6a82 b83d
00000310: efe4 bcbe f32b 47bd 0068 0a3c 6aed 40be
00000320: 0095 25bd 9dc0 353e 7219 01bf 8a2c a93e
00000330: b1ec 5f3d 2e60 ad3e 0a6e dfbd ff6f afbc
00000340: 79ea 3bbe c098 6dbe d281 5a3e df47 cd3e
00000350: 4f79 863d 94bc cf3e 4613 513e 1386 a83d
00000360: 74dc 72bd 34ba 21be bda1 89bd 185e 6abe
00000370: 3fbc eb3d 3d5f 0a3f a55a 493e a652 cbbe
00000380: 1cf1 2bbe b9b3 52be 75af 8cbd 66f8 02bf
00000390: faed ddbe 99c4 bc3e 9639 d43d 706a 80be
000003a0: 43e9 8ebb 1955 55bf 969a 703d bdf5 afbd
000003b0: 9c0a 59be 9e2c bbbc 008a 9ebc 7e77 85bd
000003c0: 11d2 503d 4fe7 ebbd c11c 953d c0a7 1ebe
000003d0: dab7 ce3d 2ecd 7f3c 5945 d73d 23d9 e93c
000003e0: 61e3 c0bd 9436 c83e 1999 7d3e 3c46 853d
000003f0: 7a6f 923d e28c 663d d5cf f3bd 7b09 873e
-0.28026912 0.0740378 -0.11185466 -0.050976004 -0.28081277 -0.014774732 -0.25729495 -0.31192186
-0.13184704 0.023764998 -0.121451184 -0.001229905 0.13112675 -0.019750807 0.01610369 0.6265664
-0.08521203 0.13238208 0.15151761 0.032147948 -0.017906792 0.43012202 -0.07535696 -0.15647942
0.0036454708 -0.43206042 -0.033679567 -0.34202704 0.035706077 -0.014695708 -0.22123507 -0.17845772
0.12953295 0.103160985 -0.13135096 -0.06625481 0.13349456 -0.24233538 -0.24488534 0.042532846
-0.18980584 -0.066522054 0.13544713 0.15500416 0.2747461 -0.3750143 0.012262314 0.103897184
-0.49158636 -0.2526118 -0.048144534 -0.29585478 0.015403878 -0.077643715 0.2227808 -0.038411967
-0.4283558 0.268097 -0.043235004 0.03172575 0.36148044 0.20170917 -0.09339592 -0.015673269
-0.0273351 0.16601232 0.12815522 0.11356141 -0.15141106 0.2609133 -0.10543901 -0.046116263
0.03986404 -0.1934399 0.17577691 -0.49773496 -0.2575016 -8.031171e-23 0.21769366 0.12366016
0.22139622 -0.0135723865 -0.15423267 0.035026148 0.30824217 -0.0061568837 0.06499838 0.031593032
-0.14364655 0.084643655 0.021790367 -0.079955064 -0.08418398 -0.31519854 -0.35492143 0.023155
0.067197755 0.5203274 0.12671678 0.23032896 -0.44695166 -0.017842965 -0.23918447 -0.046819493
-0.06335597 0.24504146 -0.31213722 -0.38782948 0.18607941 0.094385564 0.031025821 -0.3299668
0.30200782 0.13984758 -0.24215657 -0.38994285 -0.017938884 0.21240094 0.530612 -0.14954107
-0.09965235 -0.30850676 0.013269693 -0.03174751 -0.31375697 -0.0007681009 -0.08733457 0.27958322
0.2014786 0.5952761 -0.11434828 0.26858363 0.24069673 0.36656323 -0.22540678 0.10576396
0.021298869 0.015556027 -0.43424428 0.29496142 -0.31823412 0.18087322 -0.05336047 0.0803617
-0.09146755 -0.019036641 -0.8498457 -0.019699933 0.35687664 -0.040880304 -0.024641827 -0.69100624
0.15958777 0.18362863 0.12589134 0.25917584 -0.1563284 -0.1941102 -0.31358504 -0.06637473
0.47776768 -0.04925359 -0.2770853 -0.0035220075 0.12738036 -0.6096374 0.23358858 3.2537012e-24
-0.17464837 -0.14564806 0.0079792 -0.03722046 -0.07683493 0.12970078 -0.45177746 -0.00041598844
-0.027565027 -0.36125028 0.29355642 -0.039177224 -0.1848669 0.266463 0.27285898 -0.51006573
0.23061086 -0.086195864 0.115071185 0.05872444 -0.15730722 0.29463038 -0.17345303 -0.030150266
0.37455344 -0.10166001 -0.07051106 0.090092495 -0.36893412 -0.048625898 0.008447647 -0.18840566
-0.0404253 0.17749257 -0.5042945 0.33041793 0.054669086 0.33862442 -0.1090966 -0.021415709
-0.18351163 -0.23202801 0.21338585 0.40093896 0.065661065 0.4057356 0.20417508 0.08228698
-0.05929227 -0.15793687 -0.06720302 -0.22887456 0.115105145 0.5405157 0.19663484 -0.39711493
-0.16791195 -0.20576371 -0.06869403 -0.51160276 -0.43345624 0.36868742 0.10362546 -0.25081205
-0.004361303 -0.83332974 0.058741175 -0.08591793 -0.21195453 -0.022848424 -0.019352913 -0.06516932
0.050981585 -0.11518728 0.07280875 -0.15493679 0.10093661 0.0156128835 0.10511274 0.028545922
-0.09418369 0.3910414 0.24765433 0.06507537 0.07150169 0.0562867 -0.11904875 0.2637442

linear6.bias f4 [60]
00000000: 3332 3abd 6e9f 06be 72b4 0c3e ac92 ae3d
00000010: ba35 03be fd0e 413c 08eb d0bd 4dbb fb3d
00000020: a1f2 8bb8 9e59 75b3 bace 823e a257 c7bc
00000030: 0875 abbd 0d5d 893e 3ccf 67be 5c69 cabc
00000040: 6008 413d 0e32 13bd c8f8 5d3d d0ad 143f
00000050: ae8f 12bd 7a32 46bc 7844 053f bb1d cb3d
00000060: 0950 f73e fea3 203e d5cb 40bd ee05 ae3d
00000070: 480f 623e 6aab e83e aeac 2abd 9210 293e
00000080: f262 a0ba 5387 663d 0a2a 9d3e 4294 0a3f
00000090: 474b 053e ffde 083d 08bc 0f3e abbb 8d3e
000000a0: 81dc cc3e 9cd7 d6bc 6802 71bd 5809 943e
000000b0: 85fb a8bc 4e01 023e 60d7 b8bb 4be9 f73d
000000c0: 2212 aabd 894b 7a3e ec80 1c3e 1abc 39bd
000000d0: 0a19 033c e5ca 76be ad29 69bd 762b 413e
000000e0: 22c9 39bd 2311 9c3e 1f51 12bd c70b 103e
-0.04545803 -0.13146755 0.1374071 0.08524069 -0.12813464 0.011783359 -0.10201079 0.12291584
-6.67323e-05 -5.7125014e-08 0.25548345 -0.024333779 -0.08371931 0.26828805 -0.22637647 -0.024708442
0.047127128 -0.035936408 0.054192334 0.58077717 -0.035781555 -0.0120969955 0.520576 0.0991778
0.4830325 0.15687558 -0.04706939 0.08497225 0.22076142 0.4544328 -0.041668586 0.16510227
-0.0012236519 0.0562814 0.30696136 0.54132473 0.13016997 0.03341579 0.14036572 0.27682242
0.4001198 -0.026225857 -0.058840185 0.2891338 -0.020627746 0.1269581 -0.005640909 0.12105044
-0.0830424 0.24442877 0.15283555 -0.045345403 0.008001575 -0.24100836 -0.05692451 0.18864235
-0.04535783 0.30481824 -0.035721894 0.14066993
