HW1/saved models/Model 7 - Split image-16, lr=0.001, wd=0.0001, bs=64.pkl (torch_old, 720302 bytes, 12 tensors)

linear1.weight f4 [285, 49]
00000000: d045 7fb8 0ce8 16b9 7482 1c3a 87f3 f3b9
00000010: da4b c0b9 c476 39b9 261e 63b8 d684 91b9
00000020: fa19 4ab8 6241 5bb8 0e24 02ba 3665 86b9
00000030: 4a0b a5b9 b8b6 9139 e1c6 e2b7 fde9 6cb9
00000040: b37c c2b8 6360 0939 2eb3 3439 62e0 d8b9
00000050: c492 b2b9 5f86 88b8 ffe8 2ab9 b961 beb8
00000060: 4a14 9e39 4a1c e038 1678 e9b8 0413 11ba
00000070: 6277 aeb5 1e33 4039 7508 7137 4206 52b9
00000080: 168c 44b8 561e 44b9 efca 03ba 8428 9f39
00000090: 638a d738 f751 fbb8 7583 ddb9 7bb7 a239
000000a0: 56d6 0d3a 9c01 3fb8 1587 50b9 24ea 8cb9
000000b0: bfe7 06b9 9f68 deb9 c9e3 c3b9 f61d 8a39
000000c0: 489e 71ba bbc2 70b1 e734 dbb2 d95e 16b2
000000d0: 559f b3b0 e77f 5d30 bd7e 55af 6b82 e2b2
000000e0: 40e9 da31 1da4 f5b2 cd1e 59af 4071 2f2e
000000f0: d595 a22f f2c9 a8b1 a617 91b2 9cff c3b2
00000100: a142 9131 9a03 0ab2 fc3d 4cb0 2350 82b0
00000110: 17a2 da31 2fe7 6f31 469e a032 9e6d 9133
00000120: 9a13 98b1 58af d0b0 e995 94b1 3970 8930
00000130: 5b2e f8b1 fbad ce31 76a9 85b1 8c7d 56b1
00000140: f930 a5b1 dbea 20b1 cdd8 2a31 0f2b acb1
00000150: 6bbb 2bb2 70f9 dfb1 3148 a4b1 6465 9fb2
00000160: b8c2 5433 9a93 eb33 2996 9834 9510 3ab3
00000170: 754c d6b2 4edd 23b3 7474 dbb2 dde0 a8b2
00000180: f6a6 b7b2 fd66 f7b2 c78c 49be 81a4 e1bc
00000190: 432f b4bd 77fe 083d b46a 153e 83f2 493e
000001a0: 88d4 d3be 9dd7 34be d911 90bd b019 c6bc
000001b0: 1576 e43d 8bcd 163e b9ca 3e3e 8510 a8be
000001c0: 21b0 8abd f027 cd3d 0ccb fc3d d191 673e
000001d0: 19a4 7d3d 198c 243e 111a 69be 2f61 d33d
000001e0: 34bf f13d e987 b63d 1e1e 453e 8d80 e83d
000001f0: a2b9 343c 5650 afbe adb2 703d d436 ba3d
00000200: 2919 463d 3531 173e c770 ad3e 1d35 44bc
00000210: 7ea5 9fbe 0043 3e3d e0c2 173e 827b f73d
00000220: 24e2 6b3e 41e9 0f3c c6bd ddbd e018 80bd
00000230: 355e 093e 68fd 943d ddb4 79be 75fd debd
00000240: 883d 72be a9d9 a8be 58d8 a7be 23a7 9fbb
00000250: 31ff abbb 0a6f b93a 83c1 b5bb 2f7a 53bb
00000260: fe25 8ebc 3b0e 28bb 7fde 45bc 3450 3cbb
00000270: 5248 03bc a1d4 e4bb 793b ba3a 6c2d 9c3b
00000280: d407 9b3b fab9 03bc 1f79 213c 9eea 203b
00000290: 75b6 3abc d35c ec3b ba24 d43a 3f86 13bc
000002a0: 6cfa 803b ff2a 083c c7c2 c5b7 958f e6bb
000002b0: 1f33 fb39 cfe4 673a 1bf3 22bc 26b8 53bc
000002c0: 4078 7fbb 85f7 01bb f99f aabb 3ef4 33bb
000002d0: 2b74 9dba 5f18 08bb a063 bf3b 6e9b 35bb
000002e0: a670 7e3a 2bae bbbb d4bc 0abc 1432 0ebb
000002f0: 03cb 36bb b5b1 96bb 3cb9 603b b26b 1fbb
00000300: 7e89 a7bb 6288 313b e006 383b be8a d4ba
00000310: 4296 033d df09 bc3c ff1a 4abd 2578 293c
00000320: e811 c9bc 9a0e 283b f1bb f23c f6d9 2ebd
00000330: 2f8f 7e3c 8817 393d f995 b3bc 9328 07bd
00000340: ed01 053c 472a 143c 535b 4dbd cae8 25ba
00000350: 88e2 e73c b72f c33c 7b6a c7bc 7a0f 45bc
00000360: acbd 973b 4091 0ebd 6add 4fbd 1124 68bc
00000370: b281 693d 585e 883c 8c65 edbb 7dce da3c
00000380: a0d2 6a3d 0199 82bd 567c 5fbd 466d 2bbd
00000390: b785 20bd 66fc 25bd 298a 84bb aa4f b63d
000003a0: b943 c2bd 21d4 60bd 8b0f 05bc 7de8 77bc
000003b0: f8e6 093d 7bb7 01bd fae5 0b3e 9ca5 e039
000003c0: e811 93bd abb9 56bb edc6 843b 6124 163d
000003d0: f9c9 b2bc 650b b9bc 23ef 22bc 1f21 ebbb
000003e0: 3fbe ccbb 04ad 74bc 9a69 9cbc d092 acbb
000003f0: df55 8bbc 1bf3 6e3a cdf8 e53a 0391 92bc
-6.0861756e-05 -0.00014391559 0.0005970367 -0.00046530014 -0.00036677608 -0.00017687218 -5.4149095e-05 -0.00027755526
-4.8184746e-05 -5.227456e-05 -0.0004964479 -0.0002563388 -0.00031479663 0.0002779269 -2.703391e-05 -0.00022593881
-9.273868e-05 0.00013101245 0.00017232887 -0.0004136591 -0.00034060155 -6.510014e-05 -0.00016299261 -9.078108e-05
0.00030151225 0.000106864216 -0.000111326735 -0.00055341446 -1.2998755e-06 0.0001832959 1.4366688e-05 -0.00020029492
-4.6860507e-05 -0.00018703318 -0.0005027493 0.0003035703 0.000102777754 -0.0001198388 -0.00042250348 0.0003103575
0.00054106617 -4.5539447e-05 -0.00019886748 -0.0002687733 -0.00012865568 -0.00042421088 -0.00037363012 0.00026343734
-0.0009217006 -3.5035288e-09 -2.5519013e-08 -8.752715e-09 -1.3069249e-09 8.058109e-10 -1.9417264e-10 -2.636917e-08
6.3711525e-09 -2.8596384e-08 -1.9746978e-10 3.989098e-11 2.957409e-10 -4.912402e-09 -1.6890976e-08 -2.2817225e-08
4.2276302e-09 -8.033476e-09 -7.430285e-10 -9.481521e-10 6.3630625e-09 3.491049e-09 1.8698426e-08 6.772028e-08
-4.4260107e-09 -1.5183828e-09 -4.3244097e-09 9.999958e-10 -7.22302e-09 6.0151684e-09 -3.890075e-09 -3.1212464e-09
-4.8076996e-09 -2.3416564e-09 2.4861493e-09 -5.010754e-09 -9.996124e-09 -6.518512e-09 -4.7812354e-09 -1.8556143e-08
4.9537192e-08 1.0969889e-07 2.8421462e-07 -4.332158e-08 -2.4947648e-08 -3.815267e-08 -2.5547912e-08 -1.966003e-08
-2.1379929e-08 -2.8801418e-08 -0.19682609 -0.027544262 -0.08798077 0.0334458 0.14591485 0.19721417
-0.41373086 -0.17660375 -0.07034654 -0.02418217 0.11155335 0.14726846 0.1863202 -0.32825103
-0.06771875 0.10017383 0.123434156 0.22614218 0.061924074 0.16069068 -0.2276385 0.10321271
0.11804047 0.089126416 0.1924977 0.11352644 0.011030586 -0.3424098 0.05876415 0.09092489
0.04836384 0.14764865 0.33875105 -0.011975554 -0.31180948 0.046450615 0.14820433 0.12084104
0.23035485 0.008783639 -0.10827212 -0.062547445 0.13414843 0.07274896 -0.243854 -0.10888187
-0.23656285 -0.32978562 -0.32782245 -0.004872219 -0.005248927 0.0014147472 -0.00554675 -0.0032268872
-0.0173521 -0.0025643248 -0.012076973 -0.0028734328 -0.008012848 -0.006983355 0.0014208398 0.004766157
0.004731158 -0.008039946 0.009855538 0.0024553905 -0.01139604 0.007213214 0.0016185262 -0.009004175
0.0039361026 0.008311032 -2.357493e-05 -0.0070361593 0.0004791254 0.0008846046 -0.009945656 -0.012922322
-0.0038981587 -0.001983137 -0.0052070585 -0.0027458812 -0.001201277 -0.002076648 0.0058407336 -0.0027711052
0.0009706117 -0.0057275495 -0.008467872 -0.002169733 -0.0027892 -0.004598821 0.0034290096 -0.0024325666
-0.005112826 0.0027089347 0.002808027 -0.0016215665 0.03212572 0.022953926 -0.04934215 0.010343586
-0.024544671 0.0025643469 0.029630633 -0.042688332 0.015537067 0.045188457 -0.021922098 -0.03299768
0.008118135 0.009043283 -0.05013592 -0.0006328939 0.02830626 0.023826463 -0.024342766 -0.012027616
0.004630765 -0.03480649 -0.050748266 -0.014168755 0.057008453 0.01664655 -0.0072447713 0.02670979
0.057329774 -0.063768394 -0.054561935 -0.04185226 -0.03919002 -0.04052391 -0.0040447903 0.089019135
-0.09485573 -0.054889802 -0.0081213815 -0.015131113 0.033667535 -0.03166912 0.13661948 0.00042847998
-0.0718115 -0.0032764475 0.004052034 0.036655787 -0.021824824 -0.022588441 -0.00994471 -0.007175579
-0.006248265 -0.014933828 -0.019093323 -0.005266525 -0.01700872 0.0009115205 0.0017545462 -0.017891413

linear1.bias f4 [285]
00000000: 3dd7 38bc 87b8 e1b7 a216 a1be 6954 8fbd
00000010: 0fb7 40be 92ca 0bbe 6293 eab7 c415 a4bd
00000020: 28cc e8be 2315 0ca5 2056 cdbe 54ee 00be
00000030: 44c3 33be 6c58 98bb ce7c 8aa3 2134 a9be
00000040: f208 7dbe 13ad 3bbb 6ce5 7ebd e544 918a
00000050: 8c5d c4be 45f9 70be 03e0 6dbd b9a5 70be
00000060: 7860 6fa6 bfec 1cbb 3297 50be f53e faa8
00000070: fcc0 2ebe a27a 373e 6222 48be e3e3 97bd
00000080: f863 febd e8dd 8bbe d259 5fbb 1692 79be
00000090: 4de0 d8be bdb4 b7bb 3938 09be 111c eebb
000000a0: f894 56be bde2 69be f0d8 41be ce20 d6bd
000000b0: 051a b0be a450 efbe da7a d7be 32e5 7ebe
000000c0: 2d2a f6bd d1bc 33bc d437 7faa 9d25 d2be
000000d0: c307 16be 82d8 11bc ac4c 78b7 d21d 92b1
000000e0: 5922 16be 6828 dfbe 7e4b 33bc aa99 29be
000000f0: 5a81 98be c4a2 93be e63b 92bd a7a2 90be
00000100: 73fc efa2 4b56 eaab 2fbf 08aa 3581 20bd
00000110: 5540 83be 5121 2bbe 4202 6dbe efd6 0ebf
00000120: a7fe 0fbf 08cc b7be 7d19 a7bd f9d0 6ebe
00000130: 2652 12bb 4b94 90b5 ed06 a3be 6362 59be
00000140: 2305 9bbe ebf9 54be 8c5c 8cbe 37d2 b5be
00000150: c62c 7bbe 574b 27be 5b3a bab5 f894 c3bd
00000160: 12bc bdbe d6a6 50a9 241c 6eb6 79de 97be
00000170: c767 9dbe fd9c 9bbe cdd5 5cbe 42c7 15be
00000180: 3673 30ba 14a7 2dba e449 bcbc 9b59 85be
00000190: 2ff1 a3be 5116 fcbb d620 68be 8b64 9abe
000001a0: 27af d295 eed3 3ebe 012d f5bd b8a9 c7ba
000001b0: e770 0ebf ea6c 3ebe 66c2 98be fd1b b6be
000001c0: 7aaf 75be 4eb4 41be 68a2 69bd 3ad9 64be
000001d0: b838 70b8 ccac 5bbe 769e 26be d019 a4be
000001e0: 58e7 93be 9e26 0ebe 21e2 82be 7c19 6dbe
000001f0: ce51 6dbe c245 4fbe 1c06 9bbe 7310 69bd
00000200: d8c0 83be ce2f 82bc b94b 8fbd 29ee 9ebe
00000210: b75c 89a7 d6a3 94be 260e b4ba 08c0 75be
00000220: a664 3bb7 86d7 2bb8 9262 84be 63df 5cbe
00000230: 9597 8ebe 968d 9cad 079f b7bd d4d7 c1bd
00000240: f791 d6bd d286 06bf fa69 1cb8 bc5b abbd
00000250: 13e5 a8be 9161 0abd 9445 c0be 1cb6 7dbe
00000260: 0bb1 abbe 7f9b 85be e7b5 20be 1efd 8bbe
00000270: 9414 ebb0 5f29 adbe 978a 849f e8c8 f5b4
00000280: 2d8a deba 76fc cbbe b2a0 b7be b016 f5be
00000290: 61be 91be 63a3 6ebe 7057 ecbe 1d65 51be
000002a0: 38dd f7a4 b2dd f5bd 87c1 a0be decb 90be
000002b0: 19a5 f7be b339 56b2 f455 e3bd aca4 d9be
000002c0: a054 98be 32d7 afbe 9e62 a9b1 f7d1 72be
000002d0: 984a 9fbe 829d 15bf 20c4 1cbf 4e20 fcbd
000002e0: 5016 62be 56f9 c2b8 7db5 a1be 3666 b5bd
000002f0: 7879 57be 8f61 97bd 25eb f5bc c8a0 8ebe
00000300: af2b 83be 285d 03be 3283 bebe b7dd 96be
00000310: 191f 1bbc 2da2 a6be aa2c 58be 0820 05be
00000320: a03d 5abd 037d 56bd a14e 65be 510f a1be
00000330: a56a cabe 4ba5 65be 1753 8cb6 63b4 9aa8
00000340: 0a11 89bd e570 93be d500 23be e469 e5ba
00000350: fafd b9be 4a91 0ebb efb2 f3be 883f a2bd
00000360: 39d9 9dbe 869e 3fbd b173 3dbe 39ec 32be
00000370: b419 5aae 4d09 b6bd 0c4a 7abe bb15 95be
00000380: 8339 61be 738f e2be 3a0b e3be e31d fab1
00000390: b0ec 74be 98f3 cabd a02f 56be 6fde 7bbe
000003a0: 8913 3dba 417c dcbb 4bd4 07be 88c0 61be
000003b0: 508a dbbd 0a8f 123c f555 82be c109 00bf
000003c0: 9b40 8abe 00da 0abf 754d 6fbd 4c73 62be
000003d0: 77e9 88be f609 57aa 5564 9abe 3c16 abbe
000003e0: 09a8 ebbe 2137 3abe ebc4 03be 3892 b7be
000003f0: 4565 a7b5 0fd5 d0be d95a 0dbe 9c22 9abc
-0.011281786 -2.6908017e-05 -0.3146258 -0.06998522 -0.18819831 -0.13651493 -2.7963604e-05 -0.08011964
-0.4546826 -1.2150226e-16 -0.4010477 -0.12590915 -0.17554957 -0.0046492126 -1.5014847e-17 -0.33047584
-0.24710444 -0.0028637096 -0.062230512 -1.3988907e-32 -0.3835262 -0.23532589 -0.058074962 -0.23500718
-8.305052e-16 -0.0023944823 -0.20370176 -2.7782879e-14 -0.17065805 0.17917874 -0.19544366 -0.07416513
-0.12421411 -0.2731774 -0.0034080637 -0.24372134 -0.42358628 -0.0056062625 -0.13400353 -0.0072665294
-0.20955265 -0.228404 -0.18930411 -0.10455476 -0.3439485 -0.4674121 -0.42085916 -0.24892119
-0.12019763 -0.01097031 -2.2667919e-13 -0.41044322 -0.14651398 -0.008901717 -1.47998035e-05 -4.2525494e-09
-0.1466154 -0.43585515 -0.010943292 -0.16562524 -0.29786187 -0.28835118 -0.07140331 -0.28249094
-6.504837e-18 -1.6650651e-12 -1.2145557e-13 -0.03918572 -0.2563502 -0.16711928 -0.23145393 -0.5579671
-0.56247944 -0.3589785 -0.081591584 -0.23321904 -0.0022326796 -1.0771995e-06 -0.3184122 -0.21228938
-0.30277357 -0.20798461 -0.27414358 -0.35511944 -0.24528798 -0.16337334 -1.3875064e-06 -0.09549898
-0.3705755 -4.6329985e-14 -3.5481144e-06 -0.2966192 -0.30743238 -0.3039321 -0.21565934 -0.14626792
-0.0006731035 -0.0006624323 -0.022984453 -0.26044926 -0.32019946 -0.00769309 -0.22668776 -0.30154833
-8.5094666e-26 -0.18635532 -0.119714744 -0.0015233075 -0.55641025 -0.18596235 -0.29835814 -0.35568228
-0.2399272 -0.18916437 -0.05703965 -0.2234849 -5.7273282e-05 -0.21452636 -0.16271386 -0.32050943
-0.2888744 -0.13881919 -0.25563148 -0.23154253 -0.23175737 -0.20241454 -0.302781 -0.056900453
-0.25733066 -0.015891936 -0.06996865 -0.31041077 -3.812566e-15 -0.29031247 -0.0013737127 -0.23999035
-1.1169503e-05 -4.09703e-05 -0.25856453 -0.2156959 -0.27850023 -1.7798023e-11 -0.08965879 -0.09464994
-0.10477059 -0.5254947 -3.7291997e-05 -0.08367106 -0.3298727 -0.033784453 -0.37553084 -0.247765
-0.3353351 -0.26095197 -0.1569439 -0.2734155 -1.7104349e-09 -0.33820626 -5.613345e-20 -4.5780985e-07
-0.0016978435 -0.3984105 -0.35864788 -0.47868872 -0.2846556 -0.23304515 -0.4616046 -0.20448728
-1.07493934e-16 -0.12005176 -0.3139765 -0.28280538 -0.48368147 -1.2469559e-08 -0.11100379 -0.42508447
-0.29752064 -0.34343868 -4.929759e-09 -0.23712908 -0.31111598 -0.5844346 -0.61236763 -0.12310849
-0.22078824 -9.297083e-05 -0.31583777 -0.08857386 -0.2104243 -0.07391655 -0.030019352 -0.2785704
-0.25619265 -0.12828505 -0.3720947 -0.2946603 -0.0094678635 -0.32545605 -0.21110788 -0.130005
-0.053281426 -0.052365314 -0.22393276 -0.31456998 -0.39534488 -0.22426336 -4.181998e-06 -1.7175665e-14
-0.06692703 -0.2879707 -0.15918286 -0.0017502871 -0.3632658 -0.002175408 -0.47597453 -0.07922274
-0.3082979 -0.04678204 -0.18501164 -0.17472924 -4.959029e-11 -0.08888493 -0.24442309 -0.29118142
-0.21994595 -0.44250068 -0.44344503 -7.2793553e-09 -0.23918414 -0.09909743 -0.20916605 -0.2459657
-0.0007212689 -0.0067286794 -0.13264577 -0.22046101 -0.107197404 0.008945236 -0.25456205 -0.50014883
-0.27002415 -0.5423889 -0.05842348 -0.22114295 -0.2674062 -1.9099292e-13 -0.30154672 -0.334154
-0.46026638 -0.18185093 -0.12868087 -0.35853744 -1.2471943e-06 -0.4078755 -0.13804187 -0.018815331

linear6.weight f4 [10, 4560]
00000000: a931 72a7 88f9 7a99 fb78 5838 f020 2bbc
00000010: baf7 8a3c 32fa 6f39 cbe7 3180 499e 3238
00000020: 0f2e 5bbc 52eb 1c00 40da fe3c e428 75bb
00000030: 36cb a6bb 6ed0 3aad effd 0880 e958 65bc
00000040: 5187 fdbc b6e0 0e80 d46b 3cbb e2a2 1780
00000050: 6070 06a0 6715 ccb9 f3f9 82b8 7e6d 0a3d
00000060: 273d 3200 afee 712a a0d2 a539 c6d5 0000
00000070: f040 fe3b 6f7d b93d 4112 da38 20d9 fd28
00000080: 58d6 f8bb 1ae1 ef3a f51b db27 5514 efa6
00000090: 66e5 e8b7 9a8c 80ae 37b3 953c bdeb a132
000000a0: 6f94 8738 32c1 1e3c 57d0 f038 4b1c cbb7
000000b0: 1aee 0cbd 8858 ccbc e0a9 35bc 83d1 523c
000000c0: dbde 7238 1f05 12a5 7199 2500 b4de 56bc
000000d0: d46e e5bb 7f0f 7107 fe87 002a 9513 1700
000000e0: a695 e237 841b 7dbb 6252 1b8f 89f2 8839
000000f0: e465 cfbc b9c4 d9b9 8822 d03a c533 a7ba
00000100: ba49 2080 32cf 2080 a586 0480 4181 9732
00000110: 7ef4 c2bb 0796 cf3c 759f f138 f7f3 cabb
00000120: 8396 06bd dc76 1cbc 59e1 9b3a b348 01b5
00000130: 2a35 a720 8004 ae98 6da9 1cbb 2702 5f3c
00000140: 3817 0dbd 5164 1ab8 fd29 4ebc 37f1 98bc
00000150: 79ee d1bc 258c 7fbb 351d 2480 e994 403b
00000160: c114 713c 9644 1780 cc49 b789 af31 8639
00000170: 2e42 083c 60c0 fdbc f31b 8bbc 2788 0ab9
00000180: 23ae 1200 59dc 0ca6 131a 17b6 39da b0b1
00000190: b03b 3d3b 1a0e 7232 9d80 8a36 af9c 9ab8
000001a0: 39ba 1100 a138 04bc 149e 3a3b 1eae 2da3
000001b0: 0df8 9a3c d05a ea3b abfe b03c e0af 7334
000001c0: 1635 18bc e97d 9bbc f6ca f830 16f0 d5bc
000001d0: dfc7 8ca7 f75b a93b 7454 4d3a b988 083a
000001e0: 3ce5 abbc 8580 1a34 9515 20bd 52c5 b4b8
000001f0: 5b73 fd3a 0fa7 943b 69ad 25ba c030 433a
00000200: 9e16 edb9 5341 0fa7 d9d3 f5b9 1be7 ccbc
00000210: 9924 0180 d384 b136 310f cb1d becc a43b
00000220: be82 0200 481b 0e00 87f8 753b f172 a4b9
00000230: 07ba c3a7 183e 3080 47f3 d7b8 0f4f 09b8
00000240: e4a8 8d3c 7dd1 a5bc 3542 0b00 0da2 8b39
00000250: 55ed 76bb 3033 28ba 83c7 8ab8 1bad 8db8
00000260: c652 103c 2c2c b435 eea6 51bc a9ef 23ba
00000270: 6448 1700 ba4b c73a 5f05 1a00 faf2 699e
00000280: 3ead 0d1b 4b5b 2fbb 0bb8 c739 fd93 12a0
00000290: 6a4c 93ba 2a19 2a3c 93c1 0cbc de51 63ba
000002a0: 6e15 1700 0c8f d738 c127 e03a 4a65 7fbc
000002b0: 3a54 9a3b bf4d 0d90 10d2 7bbc 1016 0e3b
000002c0: 3ca5 81bc 7f8f 83bb 3bbd 1c00 b9a8 91bb
000002d0: 4249 4abc 421f 8b3a fbdc cd3a ad37 a63a
000002e0: 4cc6 8cb8 7528 0080 7989 3a33 25a4 d6bc
000002f0: fbd6 7039 5772 19b8 0341 d537 7b46 c83a
00000300: b0c4 13bc b29a 1a3b 8541 29b9 bb1f c5b9
00000310: 2ab5 7ca9 f0b4 553b afcd 823a 438f b6b8
00000320: 6832 4437 07d3 ebb7 4b58 0439 7dc6 82b6
00000330: 1b3e 26b9 ddca 3cbb dd0b 1700 098f 0c80
00000340: ebc6 e239 eb72 02bd 25f1 3038 ff8f a901
00000350: 57a9 113d 3404 8d85 4f93 a03c 6af6 02b7
00000360: 9620 ba3c 77e7 bf35 0522 dfb6 6d9b c2bb
00000370: 2b2c 1a80 498f 48bc cca9 afb8 aa18 8dbb
00000380: 0fd9 0b39 6fef 70bb a2ed 0e3c c115 4809
00000390: 3dc0 cdbc a7b4 71bc 20dc 1da4 35bd c7bc
000003a0: 9cec a6b2 5a9f 60b1 1b64 5bb8 b1c6 233a
000003b0: 89bf cc3b a811 32ba 6ea4 403c 415d e3bb
000003c0: 927e 0a3c 16c2 a33b 90f1 46ba 5b46 9b39
000003d0: 1729 ffbb 5738 1700 f5d0 23a0 b9ef b431
000003e0: c6fc 423c d2f2 2cb8 2b03 85bb 54ce 6abb
000003f0: bacf 4800 307e e73b 7889 c2b7 4019 76a7
-3.3611167e-15 -1.29750895e-23 5.1611085e-05 -0.010444865 0.016963828 0.00022886021 -4.583091e-39 4.258592e-05
-0.01337768 2.655811e-39 0.03110993 -0.0037408406 -0.0050901426 -1.0619157e-11 -8.25778e-40 -0.013998249
-0.030948313 -1.366308e-39 -0.0028750794 -2.170648e-39 -1.1387423e-19 -0.00038925858 -6.24544e-05 0.033795826
4.613712e-39 2.148791e-13 0.0003162818 7.6687e-41 0.007759206 0.09057128 0.0001039845 2.8182805e-14
-0.007593911 0.0018301338 6.081502e-15 -1.6589467e-15 -2.7763377e-05 -5.845742e-11 0.018273933 1.8850068e-08
6.4649495e-05 0.009689616 0.00011482898 -2.421266e-05 -0.03440676 -0.024944559 -0.011087865 0.012867334
5.7904846e-05 -1.2665216e-16 3.452958e-39 -0.01311462 -0.007001737 1.8135379e-34 1.1415866e-13 2.119241e-39
2.7010985e-05 -0.0038621137 -7.657956e-30 0.00026120644 -0.02531714 -0.00041536035 0.0015879432 -0.0012756517
-2.965184e-39 -3.013064e-39 -4.15643e-40 1.7637491e-08 -0.005949556 0.025340093 0.00011521477 -0.0061936337
-0.032858383 -0.009549823 0.001189272 -4.8162036e-07 2.8326081e-19 -4.498249e-24 -0.0023904697 0.013611353
-0.03444597 -3.6809888e-05 -0.012583253 -0.018669708 -0.025626408 -0.0038993445 -3.316555e-39 0.0029385632
0.014714421 -2.13682e-39 -4.4125046e-33 0.0002559549 0.00831656 -0.03097552 -0.0169811 -0.00013211426
1.715507e-39 -4.8870884e-16 -2.251593e-06 -5.147083e-09 0.0028874688 1.408946e-08 4.127693e-06 -7.372477e-05
1.628008e-39 -0.008070142 0.002847557 -9.4152195e-18 0.018917108 0.007151939 0.02160581 2.2695122e-07
-0.00929 -0.018980937 1.810206e-09 -0.026115458 -3.9074507e-15 0.0051684338 0.0007832714 0.00052083615
-0.02098333 1.4389123e-07 -0.039083082 -8.6198226e-05 0.0019336747 0.0045365165 -0.00063200906 0.0007445924
-0.00045221014 -1.9880649e-15 -0.0004688788 -0.025012543 -1.04964e-40 5.290474e-06 5.374936e-21 0.00502929
2.30572e-40 1.295484e-39 0.0037532167 -0.00031366156 -5.4325064e-15 -4.430379e-39 -0.00010297313 -3.2736974e-05
0.017292447 -0.020241493 1.033941e-39 0.00026632883 -0.0037678082 -0.0006416319 -6.617515e-05 -6.755647e-05
0.008808797 1.3423901e-06 -0.012796147 -0.00062536687 2.138185e-39 0.0015205063 2.38965e-39 -1.2385164e-20
1.1719224e-22 -0.0026757296 0.0003809336 -1.2415646e-19 -0.0011237983 0.010381976 -0.008591074 -0.0008671562
2.119904e-39 0.000102786435 0.0017101691 -0.015588114 0.0047097476 -2.786724e-29 -0.015369907 0.002168063
-0.01582586 -0.004014909 2.639277e-39 -0.004445162 -0.012346568 0.0010614174 0.0015706116 0.0012681388
-6.712656e-05 -1.4513e-41 4.343153e-08 -0.026201317 0.0002296827 -3.658453e-05 2.5421852e-05 0.0015279794
-0.009019062 0.002359074 -0.00016141504 -0.0003759841 -5.6112375e-14 0.0032609068 0.0009979511 -8.705121e-05
1.16942465e-05 -2.811245e-05 0.00012621393 -3.897409e-06 -0.0001585413 -0.002880744 2.116472e-39 -1.153337e-39
0.00043254285 -0.031847876 4.2186253e-05 6.228742e-38 0.035561886 -1.326112e-35 0.019601492 -7.805977e-06
0.022720616 1.4297974e-06 -6.6498783e-06 -0.0059389384 -2.403567e-39 -0.012241193 -8.3762774e-05 -0.0043059187
0.00013336934 -0.0036763807 0.008723648 2.4084353e-33 -0.02511608 -0.0147525435 -3.42304e-17 -0.024382213
-1.9432541e-08 -3.268687e-09 -5.23069e-05 0.0006247564 0.0062484187 -0.0006792792 0.011757953 -0.006938607
0.008453028 0.004997502 -0.0007589096 0.00029616323 -0.0077868807 2.132427e-39 -1.3875775e-19 5.265943e-09
0.011901086 -4.123414e-05 -0.0040592155 -0.0035828548 6.686674e-39 0.0070646033 -2.3190616e-05 -3.4153046e-15

linear6.bias f4 [10]
00000000: 4190 053d 0243 933d 4123 80bc 77ee 69bd
00000010: 7311 0bbd 1597 12ba 041e 5b3b be2a 01bd
00000020: 271d 743c 1524 623c
0.032608274 0.07190515 -0.01564181 -0.057112183 -0.033952188 -0.0005591971 0.0033434639 -0.031534903
0.014899529 0.013802548

exp_avg f4 [285, 49]
00000000: 847e d5b1 eaf7 7bb2 4884 8233 8bc6 4bb3
00000010: 674f 21b3 0e20 9cb2 2931 beb1 9af5 f3b2
00000020: 2445 a9b1 7044 b7b1 8ef4 59b3 8b0e e2b2
00000030: 0d09 0bb3 c337 f432 8106 3fb1 af5c c7b2
00000040: 0274 23b2 1734 6732 dbec 9732 4131 36b3
00000050: 4e92 15b3 2b3a e6b1 99c7 8fb2 ab24 20b2
00000060: 0ae3 0433 d252 3c32 eec5 43b2 eef3 72b3
00000070: 189c 12af ee6c a132 45a3 ca30 0787 b0b2
00000080: 8d03 a5b1 3a04 a4b2 8458 5cb3 ec9e 0533
00000090: 2f13 3532 1b67 53b2 e218 3ab3 e93b 0833
000000a0: 87d8 6c33 7e9b 9fb1 aa43 afb2 870e edb2
000000b0: 37f9 62b2 a285 3ab3 2bae 23b3 5f50 e632
000000c0: 248d c9b3 cc9f d8aa 363b 42ac cbe5 85ab
000000d0: 4dea 21aa 9072 c729 b32a bfa8 2d5e 48ac
000000e0: 20f4 412b c170 58ac 9f48 c1a8 91e1 9d27
000000f0: 8ad6 1129 428a 15ab 1d4c 00ac 1d54 2cac
00000100: 0682 fe2a b468 75ab 1f3a b7a9 f4c5 e7a9
00000110: 92eb 402b d7e7 d52a 7310 0d2c 02ad ff2c
00000120: a1a5 07ab b79f 3aaa 1c20 04ab 78f2 f429
00000130: 5b28 5eab b458 352b 1408 eeaa 05a0 bfaa
00000140: c93f 13ab 6742 8faa 63cb 982a b7a0 19ab
00000150: f5c9 97ab 3ffa 46ab 84bd 11ab f0cf 0cac
00000160: f8ff ba2c 31c1 4e2d 75e7 042e 5e9c a4ac
00000170: d6aa 3dac 17df 90ac 6e08 42ac 8764 15ac
00000180: f159 22ac 0a95 5bac bfe8 eb39 183d 95b9
00000190: 1482 ebb9 7bf2 22ba fc71 76b9 1324 85b9
000001a0: 2acc 8aba 6342 463a d10e 8ab9 a102 35ba
000001b0: 470c 13ba df19 b9b9 d60d 6fba 8a02 a8ba
000001c0: 486b 04b9 9b49 51ba f55e 70ba cc98 7cba
000001d0: e3d6 acba 6c07 ccba 2e51 82ba 0f48 f4b9
000001e0: c21c 5cba 8981 85ba cdae b7ba 57dc e4ba
000001f0: d63b a4ba 123a b3b9 a840 47b8 b13c b7b9
00000200: 5014 00ba 7cd8 89ba a59e abba 7406 aeba
00000210: 544d 68ba 9511 223a c62e 193a 1b6f 193a
00000220: d0b9 3539 1b34 dd38 0773 93b9 b4dd 05ba
00000230: af63 883a bbf8 753a bfb3 7c3a 589e 763a
00000240: 5ca8 6e3a 550e 0ab9 47b3 29b9 ff57 02b5
00000250: e9cd efb4 7d7f 4e34 c106 19b5 1e9c b4b4
00000260: b2b0 ebb5 b854 92b4 a7a1 a4b5 13bd 6ab4
00000270: f29e 43b5 0cd0 3fb5 2c09 0c34 b236 f934
00000280: f85f f734 3c60 59b5 f310 8f35 4dac ad34
00000290: 4874 9bb5 bd9a 3e35 041e 1e34 203b 76b5
000002a0: 96ff f834 7e6c 7635 4eca 2033 a355 41b5
000002b0: 8af8 1033 6b23 a133 5ebf 87b5 9d06 b0b5
000002c0: f3fa d8b4 c1c6 62b4 5cbc 0fb5 9383 9ab4
000002d0: f951 0eb4 c5d4 6cb4 c35d 1a35 37d3 9bb4
000002e0: a535 b833 24ca 1db5 22c0 67b5 7ce6 76b4
000002f0: 33e8 9cb4 5c63 feb4 eb9f b234 2b8f 89b4
00000300: 3022 0db5 b7db 8b34 f133 9134 dca9 3bb4
00000310: b25f 3638 e1e8 4636 fb7a e3b5 07e5 9ab7
00000320: f67d 24b8 5ef1 1db8 4634 5cb8 4687 2838
00000330: b460 e437 80b0 f137 3c47 22b7 ce85 10b8
00000340: 94f9 f6b7 d442 4bb8 037d ba35 074b a637
00000350: 882c e837 ca42 7737 a51c 94b7 710c bbb7
00000360: 0c15 44b8 18c6 abb6 100a b1b7 b713 31b7
00000370: e379 3936 3246 d0b6 2462 d0b7 67e2 44b8
00000380: 0dea 8436 f725 c438 5167 a737 e03f a0b7
00000390: 17a6 2eb7 a575 c3b7 576b 33b8 ee84 9038
000003a0: 1df6 d938 20ab de37 f480 11b7 07c0 c538
000003b0: 2a4a 3038 3bf6 d2b7 60dd 6c38 2344 a938
000003c0: 3096 d036 ecd7 5438 3226 0039 a66b ef38
000003d0: 9413 9037 b7b5 8fb6 f367 8ab5 3614 dab4
000003e0: e4a2 30b5 7955 b0b6 47e7 7b37 a83f b737
000003f0: b0b3 90b5 0415 4d35 4ab2 e735 e794 9cb6
-6.213499e-09 -1.4666492e-08 6.0776586e-08 -4.7445194e-08 -3.755795e-08 -1.8175367e-08 -5.5353166e-09 -2.840061e-08
-4.9264077e-09 -5.3337814e-09 -5.074667e-08 -2.6316476e-08 -3.237169e-08 2.8430696e-08 -2.7797855e-09 -2.3208797e-08
-9.514226e-09 1.34578135e-08 1.7686423e-08 -4.2419973e-08 -3.482483e-08 -6.700494e-09 -1.6738158e-08 -9.321563e-09
3.0940136e-08 1.0961871e-08 -1.1395498e-08 -5.656687e-08 -1.3334078e-10 1.8792402e-08 1.4743838e-09 -2.05505e-08
-4.8025357e-09 -1.9094035e-08 -5.1303246e-08 3.1111014e-08 1.05399485e-08 -1.230526e-08 -4.332913e-08 3.1719456e-08
5.5144962e-08 -4.6451865e-09 -2.0403451e-08 -2.7597038e-08 -1.3211596e-08 -4.3428038e-08 -3.81098e-08 2.6812073e-08
-9.385465e-08 -3.848019e-13 -2.7601927e-12 -9.513999e-13 -1.4380962e-13 8.857249e-14 -2.1223778e-14 -2.8473987e-12
6.8906165e-13 -3.0758037e-12 -2.1458799e-14 4.3820813e-15 3.238255e-14 -5.3127305e-13 -1.8232145e-12 -2.4489362e-12
4.5209686e-13 -8.718679e-13 -8.136915e-14 -1.02928e-13 6.853902e-13 3.7997272e-13 2.0046436e-12 7.2667436e-12
-4.819149e-13 -1.6575531e-13 -4.694038e-13 1.08778383e-13 -7.892625e-13 6.442722e-13 -4.2282898e-13 -3.4039451e-13
-5.231341e-13 -2.544798e-13 2.7141752e-13 -5.4579556e-13 -1.078525e-12 -7.0691017e-13 -5.1777354e-13 -2.0010625e-12
5.314856e-12 1.1752641e-11 3.02189e-11 -4.6785206e-12 -2.6953348e-12 -4.117494e-12 -2.7573738e-12 -2.1229977e-12
-2.3071512e-12 -3.1204505e-12 0.00044996102 -0.00028465013 -0.0004491961 -0.0006215942 -0.0002350285 -0.00025394614
-0.001058941 0.0007562993 -0.0002633245 -0.0006904994 -0.00056094344 -0.00035305225 -0.0009119188 -0.001281814
-0.00012628466 -0.00079836854 -0.0009169423 -0.00096358056 -0.00131866 -0.0015566177 -0.0009942406 -0.00046592994
-0.0008396619 -0.0010185699 -0.0014013887 -0.0017460686 -0.001253004 -0.00034184806 -4.7505513e-05 -0.000349497
-0.00048858393 -0.0010516788 -0.0013093544 -0.001327707 -0.00088616204 0.00061824295 0.00058434566 0.0005853043
0.00017330726 0.000105478066 -0.00028123727 -0.00051065837 0.0010405685 0.0009383072 0.00096398214 0.00094077503
0.0009104067 -0.00013166045 -0.00016183882 -4.8556825e-07 -4.4667038e-07 1.9231625e-07 -5.700677e-07 -3.3641203e-07
-1.756029e-06 -2.725626e-07 -1.2265999e-06 -2.1861733e-07 -7.2874457e-07 -7.145579e-07 1.3041853e-07 4.641966e-07
4.6077162e-07 -8.097884e-07 1.0659263e-06 3.2349126e-07 -1.1582242e-06 7.100569e-07 1.4725816e-07 -9.172818e-07
4.6379563e-07 9.180002e-07 3.7436898e-08 -7.202272e-07 3.3753658e-08 7.503589e-08 -1.0113979e-06 -1.3114947e-06
-4.0415725e-07 -2.1120196e-07 -5.354575e-07 -2.8780468e-07 -1.3254602e-07 -2.2056618e-07 5.750591e-07 -2.902468e-07
8.5779256e-08 -5.878121e-07 -8.6333796e-07 -2.2994385e-07 -2.9226211e-07 -4.738348e-07 3.327144e-07 -2.5622407e-07
-5.257634e-07 2.605063e-07 2.7046147e-07 -1.7477527e-07 4.3481305e-05 2.9639853e-06 -1.694861e-06 -1.846488e-05
-3.9217957e-05 -3.7656508e-05 -5.250077e-05 4.0180304e-05 2.7224749e-05 2.8811628e-05 -9.672538e-06 -3.445689e-05
-2.9441704e-05 -4.846121e-05 1.3894463e-06 1.982368e-05 2.7677292e-05 1.4737898e-05 -1.7656314e-05 -2.229793e-05
-4.6749643e-05 -5.1192583e-06 -2.110473e-05 -1.0554612e-05 2.7638096e-06 -6.207055e-06 -2.4841233e-05 -4.6940895e-05
3.9611537e-06 9.35308e-05 1.9956062e-05 -1.910323e-05 -1.0409879e-05 -2.3300594e-05 -4.2776894e-05 6.891215e-05
0.000103932085 2.6544149e-05 -8.672698e-06 9.42946e-05 4.203074e-05 -2.514861e-05 5.6472956e-05 8.0712394e-05
6.216367e-06 5.074583e-05 0.0001222126 0.00011416459 1.7175254e-05 -4.2828865e-06 -1.0312054e-06 -4.062037e-07
-6.5802146e-07 -5.255159e-06 1.5014614e-05 2.1844942e-05 -1.0781132e-06 7.6399033e-07 1.726273e-06 -4.666497e-06

exp_avg_sq f4 [285, 49]
00000000: 5139 2831 c662 4831 2e81 6131 c76f 3d31
00000010: 9341 0131 4c1f c630 08a0 1531 f776 0931
00000020: 4189 1331 fa94 3131 3d27 1631 1f11 d430
00000030: 8d72 bc30 39c3 0c31 266e bd30 b172 cb30
00000040: b845 df30 9c71 cb30 2fda d830 c39d e630
00000050: 9ce4 1231 9358 b130 709d cf30 e03a d130
00000060: 2c45 db30 52a0 e130 7f68 0531 b4d5 1631
00000070: a846 e130 51ac ea30 06e6 d930 11bd dd30
00000080: c3c7 f130 5daf 2831 86ad 2f31 0e29 f230
00000090: 9b25 e630 2d3b d130 19bb e530 9854 1831
000000a0: 73a2 4631 e2cd 3631 5838 de30 d6d3 d130
000000b0: 8614 d030 8f07 0431 44a8 3731 b041 6631
000000c0: ab41 5a31 0f84 202f 55d7 5b2f d93f 452f
000000d0: 1524 1b2f fb3f 1e2f 880c 302f 836e 642f
000000e0: f73f 5c2f 94f6 7a2f 055e 462f fc01 202f
000000f0: 9e1a 2a2f e66f 5c2f ab83 662f 7f6e 842f
00000100: bbb6 912f 46ea 4b2f 34b1 292f 4bd1 4a2f
00000110: 004f 722f 9cd2 3f2f 3446 882f 9729 852f
00000120: 5058 3e2f 6086 342f 9e2d 4b2f 842a 422f
00000130: 191c 312f d0af 8b2f 4561 452f 722e 382f
00000140: 4ef0 402f e41e 462f 5f52 342f a6d1 3c2f
00000150: 4cd3 682f 7255 4f2f 80f1 552f 49b4 6b2f
00000160: 5ea4 852f 87be 8a2f f3a0 ab2f 56ca 632f
00000170: b0a0 612f c372 672f 180c 672f 4944 642f
00000180: c1ed 672f 4eb8 532f 1310 b836 27b7 0437
00000190: fa8c 4d37 6a83 7b37 88df 7e37 3759 6f37
000001a0: d786 3c37 d186 e436 a468 2c37 c2de 7337
000001b0: 9fe3 8537 1484 8e37 2ff2 7437 ffb6 3137
000001c0: 0a7b 0c37 f4ea 5d37 1297 8b37 5d02 9337
000001d0: ede1 8337 9834 4637 e3fe 0237 98bc 2437
000001e0: dcc9 6d37 273c 8f37 93ca 8337 6ac0 3e37
000001f0: f880 f036 539a a636 7a15 1c37 c5d8 5237
00000200: 4e5f 6437 44a8 3937 122c f936 6000 8836
00000210: bea2 3036 8b8a 1b37 3881 2337 b606 2b37
00000220: ee58 ff36 2e05 ac36 0149 5f36 2150 2736
00000230: f6cc 0e37 ea16 0537 e289 f736 c077 bf36
00000240: 4cb7 9036 7b77 6736 28f1 4e36 159e fd32
00000250: dcbb 1933 0c70 0133 9d9e d232 3444 f632
00000260: 69db 1f33 322d 4433 1afa 0533 5cc7 1c33
00000270: 9c71 f932 5648 db32 4a3f 0833 83be 5133
00000280: 8eea 6033 081a 1833 4d4d 2633 6c83 0933
00000290: 3e69 0833 7933 3433 e6a7 6233 0927 4633
000002a0: 3c01 1233 03d7 1433 225e fe32 e2c4 1233
000002b0: 6111 3033 69ec 4433 fbb2 2733 16a4 1133
000002c0: cd9e 1333 a9bb 1533 15f6 0633 fbee 1e33
000002d0: 9e70 1b33 1f98 1633 38ad 3233 8252 3333
000002e0: 2ec2 2633 d42c 0633 bec5 0933 ce6b 1233
000002f0: 6dc2 0c33 a72b 4533 f994 4d33 3442 3333
00000300: e1ef 1b33 6875 2433 b2b9 2533 159c 2133
00000310: 1467 bd34 7f4f a934 81ad 9534 e508 5a34
00000320: 7731 0034 a14c ef33 8d01 0534 7fcd 9f34
00000330: 4b10 a334 85ad 9134 df62 2e34 f80b c933
00000340: ce7d cb33 ff53 f733 abc0 9134 128e 8d34
00000350: 9b6f 5c34 d2d0 1d34 35c6 e933 cb69 ca33
00000360: 3eb8 fa33 5234 9f34 3237 6f34 8ba2 0634
00000370: 3cbf f633 a255 de33 5e74 e333 850b 0134
00000380: 8980 d134 9ce0 4e34 3ffc 8433 95b5 a033
00000390: 6db1 ca33 506d e333 05b8 fc33 efa9 f134
000003a0: 6e04 2d34 d2bc 4033 747e 8233 9a80 d033
000003b0: 6488 1234 ef44 0534 9b20 0a35 188d 8634
000003c0: c830 fb33 8cc1 e533 2070 1e34 493a 3d34
000003d0: d2c3 1d34 8bde d133 4a43 df33 a8db 3034
000003e0: 4fec 3834 84b1 1134 b113 f533 3c3a f433
000003f0: e4fa 0334 0a50 1a34 ddcf 4c34 18c8 1d34
2.4479798e-09 2.9159977e-09 3.281524e-09 2.7566658e-09 1.8809245e-09 1.4415291e-09 2.177332e-09 2.0003748e-09
2.1469335e-09 2.5841573e-09 2.1850177e-09 1.5429896e-09 1.3711358e-09 2.0483653e-09 1.3782866e-09 1.4802791e-09
1.6245201e-09 1.4802484e-09 1.577808e-09 1.6779541e-09 2.1375746e-09 1.2903619e-09 1.5105979e-09 1.5223485e-09
1.5954007e-09 1.641647e-09 1.9413446e-09 2.194935e-09 1.6390986e-09 1.7074716e-09 1.5854205e-09 1.6133602e-09
1.7591834e-09 2.45469e-09 2.5564488e-09 1.7619486e-09 1.6745391e-09 1.522357e-09 1.6715119e-09 2.2166997e-09
2.8905134e-09 2.6601517e-09 1.616864e-09 1.5266959e-09 1.5139825e-09 1.9212825e-09 2.6725653e-09 3.3506744e-09
3.1760503e-09 1.4598832e-10 1.9994435e-10 1.7939729e-10 1.4109987e-10 1.4392747e-10 1.6011559e-10 2.0775741e-10
2.0031608e-10 2.282497e-10 1.8041398e-10 1.455262e-10 1.5470866e-10 2.0048638e-10 2.0965156e-10 2.4089172e-10
2.6505184e-10 1.8545973e-10 1.5433416e-10 1.8446149e-10 2.2037838e-10 1.7446172e-10 2.4788138e-10 2.422211e-10
1.7311774e-10 1.6418644e-10 1.8478949e-10 1.7659302e-10 1.6108039e-10 2.5408875e-10 1.7951603e-10 1.6751203e-10
1.7547672e-10 1.801897e-10 1.6400169e-10 1.7172982e-10 2.1175345e-10 1.8856897e-10 1.9458035e-10 2.1437176e-10
2.430935e-10 2.5237432e-10 3.121908e-10 2.0717414e-10 2.0520718e-10 2.1050099e-10 2.1013624e-10 2.0760739e-10
2.1093795e-10 1.9255816e-10 5.4854986e-06 7.910457e-06 1.2251776e-05 1.4991363e-05 1.5191625e-05 1.4266282e-05
1.1237068e-05 6.810624e-06 1.0276362e-05 1.45357935e-05 1.596083e-05 1.6989223e-05 1.4599921e-05 1.0592629e-05
8.3732975e-06 1.3227331e-05 1.6640439e-05 1.7524866e-05 1.5721622e-05 1.1813965e-05 7.807949e-06 9.819072e-06
1.41733e-05 1.7074939e-05 1.5710748e-05 1.1369682e-05 7.1675713e-06 4.965151e-06 9.303325e-06 1.2567446e-05
1.3612049e-05 1.1066037e-05 7.4259087e-06 4.0531595e-06 2.6320772e-06 9.270977e-06 9.745643e-06 1.0193957e-05
7.609945e-06 5.1266024e-06 3.3272083e-06 2.493158e-06 8.511581e-06 7.932753e-06 7.3772253e-06 5.7061843e-06
4.312873e-06 3.449123e-06 3.0836763e-06 2.9524964e-08 3.5793946e-08 3.013706e-08 2.4519347e-08 2.8669184e-08
3.7219625e-08 4.567591e-08 3.119394e-08 3.6502897e-08 2.9039079e-08 2.552785e-08 3.172253e-08 4.8834874e-08
5.236739e-08 3.5413933e-08 3.872019e-08 3.2017326e-08 3.1760685e-08 4.195633e-08 5.2772428e-08 4.613597e-08
3.3994397e-08 3.4654487e-08 2.9612298e-08 3.4172338e-08 4.0994e-08 4.584982e-08 3.90455e-08 3.390968e-08
3.4370533e-08 3.4862442e-08 3.1423117e-08 3.7004593e-08 3.6191175e-08 3.506295e-08 4.1601396e-08 4.1751726e-08
3.8826492e-08 3.1240077e-08 3.2077644e-08 3.409132e-08 3.277312e-08 4.590734e-08 4.7865772e-08 4.1736897e-08
3.630692e-08 3.8291006e-08 3.8585945e-08 3.762769e-08 3.5278993e-07 3.1536544e-07 2.7879653e-07 2.0306068e-07
1.1938924e-07 1.11432435e-07 1.2387154e-07 2.9765576e-07 3.037297e-07 2.7134607e-07 1.6240982e-07 9.361969e-08
9.475808e-08 1.15171126e-07 2.714854e-07 2.6366666e-07 2.0529698e-07 1.4697733e-07 1.08859616e-07 9.4256016e-08
1.16750456e-07 2.9654126e-07 2.227869e-07 1.2538855e-07 1.1490053e-07 1.0353257e-07 1.0591678e-07 1.2018252e-07
3.9022805e-07 1.9266957e-07 6.192612e-08 7.48361e-08 9.4386316e-08 1.0590395e-07 1.17681374e-07 4.501339e-07
1.6113492e-07 4.4875215e-08 6.0765984e-08 9.709147e-08 1.3646928e-07 1.2411668e-07 5.1456453e-07 2.5062104e-07
1.16969716e-07 1.06988495e-07 1.4755688e-07 1.76232e-07 1.4693003e-07 9.772801e-08 1.03964865e-07 1.6471188e-07
1.7222304e-07 1.3568757e-07 1.14122834e-07 1.1372728e-07 1.2291599e-07 1.4371486e-07 1.9074601e-07 1.4694558e-07

exp_avg f4 [285]
00000000: ee96 99b5 6fe8 41b1 28f5 23ba 66bf eab6
00000010: 520f 8138 de10 9cb6 a0e2 49b1 e06a 07b7
00000020: 0457 4e39 6255 8e9e 35d0 a139 4910 193a
00000030: 9136 4839 83b8 ffb4 e43b 0f9d 7b32 a6b8
00000040: 9789 fd37 855a 9db4 da52 c0b6 2c7d 9b84
00000050: bcf5 313a b693 1438 9a3e 95b6 0bee e638
00000060: 185d ee9f c708 84b4 eac9 9f35 f624 74a2
00000070: f254 9f38 f00e 3b3a 968c 1438 50f3 f5b6
00000080: 13a2 6db6 52bf db39 79d6 bab4 5602 29ba
00000090: b407 27b9 bc48 19b5 e72a e237 b488 46b5
000000a0: e401 9f38 709e abb8 5503 08b8 0943 31b7
000000b0: c2eb 59b9 7e8a f338 e319 f238 a5d7 6239
000000c0: e684 c0b7 cf76 95b5 4beb f4a3 9879 9f38
000000d0: 0c58 b0b7 0b6f 72b5 6da7 d6b0 b5ab 03ab
000000e0: b50c 3db7 b2aa 1839 c01e 95b5 65b0 b0b6
000000f0: ebb6 8c39 9ff2 a639 0551 f0b6 ea8a cbb8
00000100: 6ff5 789c fb81 5ea5 5b6e 83a3 1c84 84b6
00000110: ff18 a3b8 e356 ed35 8ba6 b0b9 f3df 77b9
00000120: 4341 c3b9 54a8 2c38 d1d6 24b7 5e75 87b8
00000130: 4fc5 74b4 165c fdae 0159 f337 1640 8cb9
00000140: 8ec4 f0b8 39fc fcb8 4f83 03b8 58c9 1338
00000150: cf02 0eba a8d4 8e37 89bf 22af 9d70 65b6
00000160: b934 6639 3372 caa2 f49d cfaf 4fbc df38
00000170: 37b1 fdb8 f694 eeb8 a7fb dc39 3b60 a339
00000180: b388 95b3 f6e9 92b3 75f3 1bb6 96c0 183a
00000190: 6afe d638 3582 52b5 9a08 7538 c4ab ceb9
000001a0: fb9c 848f 503d 5b3a 13c0 4cb7 c914 28b4
000001b0: b138 26b9 e5b8 8a38 35e7 f9b9 8b81 8a36
000001c0: b4ee d539 d1d4 f238 ffb4 c0b6 1288 db37
000001d0: 9f8f cdb1 0046 02ba 1bfc 9fb8 10e6 cc38
000001e0: 0b36 abb9 2b91 10b9 8f87 d038 a210 1a39
000001f0: 310c 1d39 40d7 6238 3ee2 7cb9 015b a7b6
00000200: 63fd 4ab8 d16f d8b5 b252 24b7 12ae 8cb9
00000210: 3fe4 07a1 b2d4 c237 3e76 17b4 dbe5 9039
00000220: 8ac7 a1b0 b645 93b1 5ced 6239 596e 93b9
00000230: 2f6c 8cb9 2cec 12a7 ae03 15b7 f43d 7438
00000240: 93a0 19ba 0fe7 ffb8 5ef8 85b1 c3ff 05b7
00000250: 7836 8ab9 ff9e 65b6 705d d1b7 2e9c 3239
00000260: f2d7 a6b8 3115 b0b8 d4f7 f139 ca25 6d38
00000270: 4350 55aa 11c1 f839 0a9c 0f99 192a 58ae
00000280: 45b6 3ab4 60c7 8bb9 b03c 57b8 34ca 4ab9
00000290: aac0 3939 8324 57b8 5506 21b7 2268 9437
000002a0: 4d7e 7b9e db2b 86b7 5c90 19b9 781a 8e39
000002b0: c2a9 1c39 7dd0 c1ab c4a2 b638 7920 c539
000002c0: 7861 54b8 8582 a139 8f29 19ab faed 8139
000002d0: b6cf 1a39 890d 5339 a99d 7e38 8028 bbb7
000002e0: 88a7 cbb7 2c7b 26b2 200e adb9 c558 fab9
000002f0: 8bc0 12b9 57a6 eeb6 a6c9 4bb6 a13c 7d39
00000300: 7fe5 92b9 9123 2339 10c6 a739 cece 1bb9
00000310: 0d77 81b5 d3f4 9eb9 5826 6eb8 c6dd 5bb7
00000320: b42c b4b6 a934 b5b6 48d5 cfb7 b106 fb37
00000330: 3138 f538 df10 0437 556b f3af 4694 17a2
00000340: da12 e2b6 deaa 983a 4e52 0639 1e4a 40b4
00000350: 0b93 1fb7 a62e 6fb4 014b 8fb9 8fc8 05b7
00000360: 0588 9fb9 db02 42b6 4d6c a638 3754 07b9
00000370: 5d40 cba7 d7c0 eb37 700e 43b9 4872 c738
00000380: 26e7 d1b8 8b18 23ba e754 1fba 7dc0 60ab
00000390: 0576 95b8 ec3a 16b8 7e93 d936 aa71 4ab8
000003a0: 51e4 9eb3 370f 37b5 f74c 3b39 2847 0db7
000003b0: a3ad 34b7 b27f fcb7 aac6 cb39 855e 65b7
000003c0: c605 d8b9 e921 db38 55a4 c5b6 ce75 d4b7
000003d0: 1dcd 8938 eda2 cfa3 2139 33b9 0dcc a238
000003e0: 78b7 7638 a2c0 4f36 775a 28b9 4959 7237
000003f0: 6855 12af f4e7 bc38 6d30 59b7 701c 00b6
-1.1443315e-06 -2.821732e-09 -0.00062544877 -6.996025e-06 6.154053e-05 -4.651126e-06 -2.937817e-09 -8.071511e-06
0.00019678107 -1.5070148e-20 0.0003086344 0.00058389135 0.00019093814 -4.76317e-07 -1.8956855e-21 -7.9248995e-05
3.022402e-05 -2.930939e-07 -5.731691e-06 -3.6555277e-36 0.00067886314 3.5423516e-05 -4.447834e-06 0.000110115936
-1.0095093e-19 -2.4593302e-07 1.1905188e-06 -3.3087733e-18 7.597533e-05 0.000713571 3.541688e-05 -7.3298943e-06
-3.5410092e-06 0.0004191348 -3.480125e-07 -0.00064471865 -0.0001592923 -5.7102784e-07 2.6961277e-05 -7.3959677e-07
7.582063e-05 -8.183427e-05 -3.242803e-05 -1.056563e-05 -0.0002078256 0.00011612939 0.00011544281 0.00021633373
-2.295007e-05 -1.1135943e-06 -2.6554183e-17 7.6043594e-05 -2.1021835e-05 -9.0313614e-07 -1.5618135e-09 -4.677884e-13
-1.1268236e-05 0.00014559439 -1.1110315e-06 -5.2657438e-06 0.00026839165 0.00031842754 -7.1619893e-06 -9.705669e-05
-8.237353e-22 -1.929947e-16 -1.4249786e-17 -3.949286e-06 -7.7771016e-05 1.7683163e-06 -0.0003369342 -0.00023639183
-0.00037241922 4.1164763e-05 -9.825178e-06 -6.459163e-05 -2.2796051e-07 -1.1521466e-10 2.9009303e-05 -0.0002675063
-0.00011480703 -0.000120632765 -3.1355125e-05 3.5235047e-05 -0.00054172886 1.7026745e-05 -1.4801861e-10 -3.4189209e-06
0.0002195415 -5.4873123e-18 -3.7765313e-10 0.00010668544 -0.00012096989 -0.000113764705 0.00042149166 0.0003116148
-6.9632186e-08 -6.841212e-08 -2.323851e-06 0.00058270374 0.000102517035 -7.842057e-07 5.8420563e-05 -0.00039419357
-1.3076672e-29 0.0008363323 -1.2204068e-05 -1.5653781e-07 -0.00015852113 6.614792e-05 -0.00047665244 4.1278013e-06
0.00040804374 0.000115790994 -5.7431166e-06 2.6170197e-05 -5.982613e-09 -0.0004969537 -7.628669e-05 9.7703305e-05
-0.00032655927 -0.0001378699 9.943463e-05 0.0001469278 0.00014977228 5.4083066e-05 -0.00024116875 -4.987582e-06
-4.8396538e-05 -1.6125797e-06 -9.794416e-06 -0.00026832573 -4.604186e-19 2.3225646e-05 -1.4105987e-07 0.00027637076
-1.1771004e-09 -4.2861883e-09 0.00021641463 -0.0002812024 -0.00026783484 -2.03896e-15 -8.881949e-06 5.823183e-05
-0.0005860414 -0.000122023856 -3.8990455e-09 -7.986967e-06 -0.00026361994 -3.4216207e-06 -2.4958252e-05 0.00017033584
-7.95572e-05 -8.396281e-05 0.00046151748 5.6540397e-05 -1.8946047e-13 0.00047446092 -7.4244386e-24 -4.9150104e-11
-1.7388909e-07 -0.00026660692 -5.1316514e-05 -0.00019339548 0.00017714748 -5.1294e-05 -9.597822e-06 1.7691465e-05
-1.3313948e-20 -1.5994467e-05 -0.00014644995 0.0002710407 0.00014940559 -1.3771342e-12 8.708754e-05 0.00037598962
-5.0635514e-05 0.00030805558 -5.4414193e-13 0.00024782104 0.00014763963 0.0002012757 6.070515e-05 -2.2310996e-05
-2.4277499e-05 -9.690478e-09 -0.00033007655 -0.00047749854 -0.00013995373 -7.1123172e-06 -3.0366732e-06 0.00024150546
-0.00028018278 0.00015558141 0.0003200029 -0.00014858993 -9.645897e-07 -0.00030318517 -5.6779332e-05 -1.3105053e-05
-5.369622e-06 -5.400351e-06 -2.477564e-05 2.9924648e-05 0.00011692977 7.871741e-06 -4.4277707e-10 -2.0542811e-18
-6.7375195e-06 0.0011647602 0.00012809897 -1.7908357e-07 -9.511375e-06 -2.227558e-07 -0.00027330968 -7.974114e-06
-0.00030428186 -2.8909915e-06 7.9356694e-05 -0.00012905976 -5.64136e-15 2.8103981e-05 -0.00018602028 9.510346e-05
-0.00010008951 -0.0006221614 -0.000607802 -7.984792e-13 -7.1268565e-05 -3.5817662e-05 6.4842743e-06 -4.826641e-05
-7.398979e-08 -6.8194953e-07 0.00017862381 -8.420822e-06 -1.0769264e-05 -3.0100204e-05 0.00038867194 -1.3671471e-05
-0.00041203032 0.0001044905 -5.8901883e-06 -2.5327226e-05 6.5708744e-05 -2.2511987e-17 -0.00017092052 7.7627694e-05
5.882184e-05 3.095753e-06 -0.0001605543 1.4445112e-05 -1.3308965e-10 9.007743e-05 -1.2945483e-05 -1.909004e-06

exp_avg_sq f4 [285]
00000000: 033d af31 0b9b 0930 d8c0 a036 5f01 a733
00000010: 8ae8 1f34 293d 8a34 e433 0030 5f78 9e32
00000020: efa9 2136 a646 2a2e c92d 1737 f46a 1434
00000030: 36d9 e136 5dad 2a31 fa99 182e 9f04 d035
00000040: 5134 9335 51d9 0631 26df c233 8c35 5a2d
00000050: f4b5 5c36 387e a535 1fda 0033 5be2 1737
00000060: ac19 442e d85c cd30 2379 8634 f942 672e
00000070: 96fe db33 e1fc ab37 0560 8a35 3cf7 cf32
00000080: 65b8 1a34 4959 e036 99cf 2431 38d2 6436
00000090: c1a0 3c36 3d03 5431 24b7 3434 7f61 6531
000000a0: bb7b 7434 2cf9 d734 3d69 0d35 c2d2 8e33
000000b0: 4993 dc36 957f 0a36 2037 af36 f089 0336
000000c0: eb49 0734 240a 9e31 bcbc 862e 5ace 0636
000000d0: 7e78 1934 9a83 a931 5db1 da2f ec08 1c2f
000000e0: 76d3 b533 e3bd 1e36 a3cb 9531 3afc 0e34
000000f0: 0b18 ca35 d431 9636 0cfd c633 039e 8836
00000100: aff9 152e 0455 962e 80b6 842e 0ab0 8e32
00000110: cfb9 f735 5a6f 9234 e0b6 af34 89c2 5f36
00000120: edbb 5e36 bdaa d435 7559 4d33 77c2 2435
00000130: 57ba 2631 8e04 912f 5df1 b435 e14e 4e36
00000140: 3bdd 5736 7f62 b634 df3a 8536 bc56 9c35
00000150: 217d 2b36 f81b e433 50cd 9b2f 5014 d634
00000160: e455 0436 3ed8 722e 934c a62f a162 1236
00000170: 8078 f735 700c 7036 d833 cf36 7bd3 fa35
00000180: c210 8230 5d72 8f30 9b9c 0332 92ae 3936
00000190: a237 e135 8839 4331 e58c 7135 4d2c db35
000001a0: 81a0 992d 08b2 0637 28fd 8833 30dd c530
000001b0: 34bb de36 94b3 3836 2472 8036 f35d 2d36
000001c0: 06bd 8336 cf33 6834 ad88 bb32 1f3b 5f36
000001d0: ce96 2130 5b01 3c36 0ef2 8f36 b7fe 5636
000001e0: e0ac 0736 048a 0936 cfc2 0736 6a27 4735
000001f0: 7f44 e235 e1b6 5e34 b38e 7836 98ff a432
00000200: 8713 0836 3422 a631 407e 6432 e53d ae35
00000210: 8227 4e2e dcfc 4536 57bb d030 ca5d 9835
00000220: 14e9 e42f 397a 1730 bc3f 7d36 e499 c135
00000230: 64df e335 3aac ab2e 2c7b c432 dd12 ef35
00000240: 292e 3437 9a8d 5136 b24f 1b30 88a3 3933
00000250: 6f9d 8d36 2973 5332 d51e 7c35 117e 2d35
00000260: a207 c135 d471 3a36 e8ba 8536 e288 9935
00000270: e135 0a2f c8f5 9535 8d0a f12d be77 832f
00000280: 8ff6 fe30 c9fd 2736 28c3 9435 cdbf 7636
00000290: 7d47 a635 5b65 8835 7a1e 1836 3eae 9135
000002a0: 90da 2b2e 0256 1634 120f 3336 12b5 0e36
000002b0: 58a5 4736 3563 112f e773 b834 1524 7e36
000002c0: 2795 9136 4acc 3236 92c9 122f d786 9235
000002d0: c937 3036 229a 6136 d2f6 c436 0596 9934
000002e0: 7283 8e34 59d9 3130 3712 6135 3668 ce36
000002f0: 4c75 bd34 014e 6c32 21c5 0432 6aa6 dd35
00000300: 8780 a836 2aa7 9b36 238c 8336 37e8 3a35
00000310: cb47 4e31 cd09 8336 48aa a336 38d1 3233
00000320: d49d 9032 dbf3 0b33 540d 7835 82b7 d735
00000330: 9fb6 1236 9e30 dc34 299d c32f 1df6 5e2e
00000340: 95c4 2733 040a 5e36 f9e8 3536 6c93 e330
00000350: 527d 5c36 748f 0131 1da3 e336 03be cb32
00000360: 747b 8936 7198 6132 750b 9b36 97d8 9836
00000370: 6e38 bb2e 993c 7335 3731 1635 a79d 0036
00000380: a6b2 2036 e7ed 4436 560b b136 fa70 242f
00000390: 0541 e935 1efc 2b34 3e57 c736 7033 ec35
000003a0: 5f62 8d30 9299 c431 3860 2b36 b978 f835
000003b0: f5e9 4a33 084c 142f f097 5137 b081 4636
000003c0: f61e 1636 7e6b 5d36 56e9 8232 0ced a734
000003d0: c681 b235 bcef 7d2e bd4a f535 6918 ba35
000003e0: 330c 7a36 28a6 9c34 84b0 9136 d6ba ec35
000003f0: 865d 962f f0c0 8436 6c4e 4433 f6b2 a831
5.1001066e-09 5.006064e-10 4.7908215e-06 7.776793e-08 1.4892626e-07 2.5749003e-07 4.663987e-10 1.844836e-08
2.4089784e-06 3.8716273e-11 9.010962e-06 1.3822483e-07 6.730809e-06 2.4836802e-09 3.4697557e-11 1.5498553e-06
1.096758e-06 1.9623096e-09 9.0744194e-08 1.2403755e-11 3.2888465e-06 1.2330192e-06 3.0000702e-08 9.053004e-06
4.458804e-11 1.4942101e-09 2.5047584e-07 5.2582803e-11 1.0244291e-07 2.0502544e-05 1.0309747e-06 2.42104e-08
1.440945e-07 6.6861144e-06 2.3983147e-09 3.409701e-06 2.8107754e-06 3.08519e-09 1.6830433e-07 3.3379306e-09
2.2769284e-07 4.0228167e-07 5.2679735e-07 6.650727e-08 6.573657e-06 2.0637865e-06 5.221824e-06 1.9600811e-06
1.2599746e-07 4.599558e-09 6.1271405e-11 2.0087668e-06 1.429307e-07 4.9335087e-09 3.9779993e-10 1.4191287e-10
8.466934e-08 2.3654363e-06 4.3596216e-09 1.331654e-07 1.505717e-06 4.476149e-06 9.2661224e-08 4.071511e-06
3.410044e-11 6.836312e-11 6.0350835e-11 1.6611029e-08 1.8457011e-06 2.7275638e-07 3.272935e-07 3.3342824e-06
3.3189965e-06 1.5844922e-06 4.7811643e-08 6.1377744e-07 2.4262101e-09 2.6378583e-10 1.3481291e-06 3.0742306e-06
3.216627e-06 3.3971807e-07 3.9705624e-06 1.1648149e-06 2.555382e-06 1.0622165e-07 2.834022e-10 3.9875385e-07
1.9719528e-06 5.521649e-11 3.0249633e-10 2.1813105e-06 1.8438004e-06 3.5770026e-06 6.175116e-06 1.8688e-06
9.463508e-10 1.0437123e-09 7.6608115e-09 2.7668762e-06 1.6779998e-06 2.8408937e-09 8.9984525e-07 1.6329665e-06
1.7465364e-11 8.0284735e-06 6.3790424e-08 1.4396502e-09 6.637909e-06 2.7522665e-06 3.827985e-06 2.5833695e-06
3.9261095e-06 2.1625532e-07 2.1831818e-08 3.3264002e-06 5.8785765e-10 2.8014972e-06 4.289911e-06 3.2036749e-06
2.0217194e-06 2.0494927e-06 2.0229961e-06 7.419063e-07 1.6858247e-06 2.0741892e-07 3.7037942e-06 1.9208343e-08
2.0276946e-06 4.8351243e-09 1.3300053e-08 1.2982024e-06 4.6874067e-11 2.950247e-06 1.5187237e-09 1.1352179e-06
4.163857e-10 5.510717e-10 3.7737036e-06 1.4424409e-06 1.6977833e-06 7.806773e-11 2.2873415e-08 1.7812378e-06
1.0739584e-05 3.122585e-06 5.6501925e-10 4.32224e-08 4.220455e-06 1.2308001e-08 9.392218e-07 6.4630973e-07
1.4381842e-06 2.7782417e-06 3.9854676e-06 1.1439226e-06 1.2570169e-10 1.1172897e-06 2.7403213e-11 2.3913843e-10
1.8551009e-09 2.5032662e-06 1.1083657e-06 3.67685e-06 1.238877e-06 1.0162288e-06 2.2667505e-06 1.0854053e-06
3.907502e-11 1.4001128e-07 2.668185e-06 2.1265046e-06 2.9749554e-06 1.3222919e-10 3.4357e-07 3.7869952e-06
4.3387004e-06 2.6642979e-06 1.3350235e-10 1.0917091e-06 2.6258515e-06 3.361733e-06 5.869989e-06 2.8607624e-07
2.65452e-07 6.4701094e-10 8.384554e-07 6.15141e-06 3.5289338e-07 1.3754744e-08 7.728233e-09 1.6514216e-06
5.0217527e-06 4.6388204e-06 3.9204183e-06 6.9628317e-07 3.0017755e-09 3.905245e-06 4.877602e-06 4.1634138e-08
1.6835578e-08 3.2585245e-08 9.2406594e-07 1.6072156e-06 2.1861995e-06 4.1013567e-07 3.5581962e-10 5.069555e-11
3.9061508e-08 3.3086408e-06 2.710671e-06 1.6558324e-09 3.28555e-06 1.8853514e-09 6.784116e-06 2.3718718e-08
4.09729e-06 1.3131385e-08 4.6206937e-06 4.5551674e-06 8.5137994e-11 9.0612735e-07 5.595097e-07 1.9165252e-06
2.3945845e-06 2.9344753e-06 5.2763307e-06 1.495585e-10 1.7378776e-06 1.6017336e-07 5.9408185e-06 1.759834e-06
1.0287059e-09 5.7218097e-09 2.5536992e-06 1.8512575e-06 4.7244573e-08 1.3487533e-10 1.24927465e-05 2.9579787e-06
2.2369763e-06 3.2994135e-06 1.52401e-08 3.1278648e-07 1.3299803e-06 5.7738467e-11 1.8275674e-06 1.3865184e-06
3.7260004e-06 2.917816e-07 4.341886e-06 1.7637747e-06 2.7351293e-10 3.9563674e-06 4.570613e-08 4.909789e-09
