HW1/saved models/Model 4 - Split image-16, lr=0.0001, wd=0.0001, bs=64.pkl (torch_old, 694999 bytes, 36 tensors)

linear1.weight f4 [36, 49]
00000000: 50d0 8c3e 0ed8 0c3e b1dc 12be e430 c3bd
00000010: 7570 92bd e6e7 0d3e 7476 8739 0c98 1c3e
00000020: f091 493d f8bc d3bd d32b e2bd fb41 2c3c
00000030: 1698 323e fffc c8bd 75c5 103e 6d7d 04be
00000040: fce0 86bd 4952 6ebe bd53 383d dc05 d63d
00000050: 851b 853d bfe1 b63e 046c 55bd cd1b 03be
00000060: 247f a3bd f0e3 72bd 8589 5bbe 3322 1bbe
00000070: 9089 8f3e b582 193e 5f61 16bd ee5c d6bd
00000080: 3682 b1bd 33c5 6ebd 6634 a4bd 1058 b33e
00000090: 17ed 463e f10a c43d ee02 07bd bd51 c6bb
000000a0: 2b11 2fbe d262 96bd f329 9e3e 9313 053e
000000b0: dcde 533e 3b52 9ebd a932 5ebd 5664 0fbe
000000c0: d0b9 78bd aae5 4abe 21f9 013d 1155 483e
000000d0: 8e9c 583d 18a6 c8bb 38aa 173e 4a8d 35be
000000e0: 7f72 03be 1a5d 783e 316b 303d 360c 833e
000000f0: f237 af3d 3051 64bd ff32 e3bd 6320 113e
00000100: b2a1 b03d edc3 973e afd3 813e a1a6 9bbc
00000110: eb9c 88bd cdbc 1dbe fdf1 293e 05f7 2a3e
00000120: 85f7 6f3e 2d47 c03d 3015 b5bd 23db afbd
00000130: 4a87 c7bd 6150 1a3e 53e4 ec3d 8124 063e
00000140: 11db c5bd 7402 2bbe d0d2 c0be 9b2d 57be
00000150: 46cd 753e af8f 2e3d bbb6 1ebd e3ec 5abe
00000160: 7ff2 14be 10ea 34be c73b 05be da1b 5f3e
00000170: c1d8 533d 06b0 a4bd d33b 63be c734 41be
00000180: d7ea babd 3316 a1bd f643 723e 9e2b 8f3e
00000190: cb92 133e e5d1 813e cf2c cb3e 4d4d 9d3e
000001a0: cac4 8f3e fd97 0bbd 4982 073e be0d b73d
000001b0: 6733 243d 3519 8d3c 65af 4fbc fc24 2e3e
000001c0: 8546 b6bd c9da 15be aecc 12be 03cd 8e3c
000001d0: 52a7 cebe 6792 20be 9e69 bcbd 49e5 82bd
000001e0: f809 b1be 19d0 9fbe bd6c d4be c80d 8bbe
000001f0: fc28 7ebe ce05 81be 1de9 f23d 203d 00be
00000200: d512 5abe b947 50be c689 3ebe fcc6 02be
00000210: bd4a d2bd 504e 3d3d 9457 863e 8abb 463e
00000220: 5d0d 263e 8551 003e e92f 1b3d dc21 87bd
00000230: d517 523e 3739 3d3e ec37 593e f2d3 573e
00000240: 8f23 423e 01ac 4a3e c300 2b3e f818 67bc
00000250: 35ca 783c 4f77 99bc 56ac 42bd 886f eebd
00000260: f7c0 8bbd b318 bcbd ac3a 6c3e 293e 103e
00000270: d5db 533e 5a58 c73d 1508 eb3d 8fb3 bc3d
00000280: 5ac6 da3c a128 1a3e ea50 8a3d 0c63 843c
00000290: 0bd5 073e 419b 363e 6fd7 573e 126f 4a3e
000002a0: cb40 1e3e 492c 893e c2de 4c3d 0808 ca3d
000002b0: a3c6 913d 6e61 993d ba28 fb3d f3f5 0f3c
000002c0: c686 593d a0de 92bd 02c8 c1bd a778 1cbe
000002d0: 2ec7 84be 80c7 14bd ac5f 35be bdf0 82be
000002e0: 9263 a3be 7f9a a5be 4616 93be 75f5 31be
000002f0: 6263 18be a934 29be c25b 16be 215a 35bd
00000300: f386 92bd 2d62 ac3c 31c7 1f3e 0e73 183e
00000310: 7823 a3bd b5d1 99be 7706 bdbd 7238 2dbe
00000320: d7cc fbbd a780 9b3e 49a6 963e 7361 e53d
00000330: 31ba 06bd 2050 97bd 6578 46be 17da 18be
00000340: 68b4 893d dc7d 823e 7a0e 8a3d f60c 61bd
00000350: 6c2f b2bc 1ff6 7cbe 53a8 12be d91d ff3c
00000360: 3d81 2e3e c441 ae3c bf29 3d3d 1c17 02bd
00000370: 483b 99be 4963 4dbe efb6 6fbc c386 493e
00000380: 2d7f 70bc f866 65be c348 4ebe b943 9bbe
00000390: 8813 70be 037b 9e3d 5946 9f3e 790e 32be
000003a0: d940 1bbd fa4a 44bd ec35 8e3c 7251 63bd
000003b0: 8685 5c3e 3654 b13d a762 a8be 0811 c0bd
000003c0: 453a 9cbd 6aee 5a3d 3adf ef3d 5314 163e
000003d0: 6d63 683d 7c67 37bc 909a 60bd b014 3fbd
000003e0: bef4 253e 739e 433e 4558 c03d 4de9 373e
000003f0: 420d 6fbe c3ff 65be 9691 a13c c23e e7bb
0.2750268 0.13754293 -0.14342 -0.095308095 -0.07150356 0.13857993 0.0002583746 0.15292376
0.049211442 -0.10338777 -0.11043515 0.010513778 0.17440829 -0.0981388 0.14137824 -0.12938471
-0.06585881 -0.23273577 0.045001734 0.10450336 0.064993896 0.35719106 -0.052104965 -0.12803574
-0.079832345 -0.05929941 -0.21439178 -0.15149765 0.2803464 0.14991267 -0.036713954 -0.10466944
-0.08667414 -0.058293533 -0.08017807 0.35028124 0.1942638 0.095723994 -0.03296178 -0.0060522244
-0.17096393 -0.07343067 0.3089138 0.12995748 0.20690483 -0.07730528 -0.054247532 -0.14003119
-0.06072408 -0.19814172 0.03173173 0.195637 0.052883677 -0.0061233155 0.14811027 -0.17729679
-0.12836646 0.24254265 0.043070976 0.25595254 0.085555926 -0.05574149 -0.11093711 0.14172511
0.08624591 0.29641667 0.25356814 -0.019000353 -0.06670555 -0.15404053 0.16596217 0.16695793
0.23434265 0.09388576 -0.08841932 -0.08586719 -0.09742601 0.15069725 0.11566987 0.13099863
-0.09660924 -0.16700155 -0.37660837 -0.21013491 0.24004087 0.042617496 -0.038748484 -0.21379428
-0.1454563 -0.17667413 -0.13011084 0.21787968 0.051720385 -0.08041386 -0.2219079 -0.18867789
-0.091268234 -0.07865562 0.23658738 0.27962965 0.14411466 0.2535545 0.39682624 0.30723038
0.28079826 -0.034080494 0.13233294 0.08938168 0.040088084 0.017223934 -0.012676095 0.17006296
-0.08900169 -0.14634241 -0.14335892 0.017431742 -0.4036203 -0.15680848 -0.091998324 -0.06391389
-0.34577918 -0.31213453 -0.4148921 -0.27158952 -0.24820322 -0.2519974 0.11860869 -0.12523317
-0.21296246 -0.2033986 -0.18607244 -0.12771219 -0.102681614 0.046217263 0.26238692 0.19407478
0.16216035 0.12531097 0.037887488 -0.06598255 0.20516904 0.18478857 0.21212739 0.21076944
0.18958877 0.19792177 0.1669951 -0.014105074 0.015184929 -0.018733649 -0.047527634 -0.11642367
-0.068239145 -0.091843985 0.23069257 0.14086212 0.20689328 0.097336486 0.11476151 0.092139356
0.02670591 0.15054561 0.067537144 0.01616051 0.13264863 0.17832662 0.21078275 0.19768932
0.15454404 0.267916 0.050017126 0.09864813 0.07117965 0.07489286 0.12263627 0.008786666
0.053107046 -0.071713686 -0.094619766 -0.152804 -0.25933212 -0.03632307 -0.17712277 -0.25574294
-0.31911904 -0.32344434 -0.2872793 -0.1737879 -0.14881662 -0.16523995 -0.1468344 -0.044275407
-0.07154646 0.021042908 0.15603329 0.1488764 -0.079657495 -0.30042806 -0.09229749 -0.16916063
-0.122949295 0.3037159 0.2942374 0.112002276 -0.03289241 -0.073883295 -0.19381864 -0.14926945
0.06723863 0.25486648 0.067410424 -0.054944 -0.021751128 -0.24703263 -0.14322023 0.031142162
0.17041488 0.021271594 0.04618239 -0.03176032 -0.2992804 -0.20057406 -0.014631017 0.19680314
-0.014678759 -0.2240256 -0.20144944 -0.30325106 -0.2344495 0.077383064 0.31108359 -0.17388333
-0.03790364 -0.047923066 0.017359696 -0.055497594 0.2153531 0.0865864 -0.32887766 -0.093782485
-0.076283015 0.053450026 0.11712499 0.1465619 0.056735445 -0.011194106 -0.054834902 -0.04665059
0.16206643 0.19103412 0.09391836 0.17960091 -0.23344901 -0.22460847 0.019722741 -0.007057042

linear1.bias f4 [36]
00000000: 2e62 623e 1b42 503e 4199 373d 1a16 0ebd
00000010: c9f4 5f3e b9a1 7fbd cfe8 ff3d 31dd fdbd
00000020: a1ae 9e3d 7069 9c3e 3ef7 363e 50a9 cc3e
00000030: bc53 153e 2fe2 783e 4c47 933d f6a6 543e
00000040: e4e8 b63e dd2e 873e 3447 6d3e 42b1 8e3c
00000050: bc51 373e 24c6 8b3e 154f 333d 1408 993e
00000060: aa8d 983e 6379 f73d 588a da3c 2128 273e
00000070: ecb7 053e df17 843e ea30 183e f6d4 493e
00000080: 5e00 ab3d 2077 853e e560 5f3c 4df0 803e
0.22107765 0.20337717 0.04482389 -0.034689046 0.21870722 -0.06241009 0.124955766 -0.123957045
0.077481516 0.30549192 0.17867753 0.39972925 0.14582723 0.24305032 0.07191333 0.20766816
0.35724556 0.2640294 0.23171693 0.017418507 0.17902273 0.27299607 0.04377659 0.29888976
0.2979558 0.120836996 0.026677296 0.16323902 0.13058442 0.25799462 0.14862409 0.19710144
0.083496794 0.26067448 0.013633941 0.25183335

linear2.weight f4 [18, 36]
00000000: 7648 b2bd c32f ebbc 0d85 da3e 28a3 8b3e
00000010: cad6 3f3d 4aad a03e a726 0b3e db45 913e
00000020: c254 6f3e d6ac 07be fa06 873e fcf7 023e
00000030: e5e5 313d 6047 3a3e 5f5a 2dbe a855 d8bc
00000040: 13ff 14be c230 1ebe 33dd 8f3d 6673 debd
00000050: e8b2 18be 011a bb3c 9e39 2d3e 973a a0bb
00000060: 5ccf 203e 4474 d3bd 7788 81be 27be 49bd
00000070: fbc6 e13d ce5c 6b3d 8d6e a8bd d23e 973e
00000080: fc17 3a3e bf9f 05be d149 583c 9cc8 30be
00000090: 103d e13d 5437 803e e143 c7be dec6 debb
000000a0: 8c1a fe3d 74ac 273e 852f 81be 76e8 a9be
000000b0: 4527 97bd 1f10 3b3e 205c 68be 950b 04be
000000c0: 7704 9bbd f70f 7dbd 9b92 783e b38a 3c3e
000000d0: 10fc 7abd 8b4f f53e 83ee 573d bac3 c43e
000000e0: 332d 013e 64de 123e 0d9a 7a3e 8fc3 31be
000000f0: b9b6 0abe 95c7 283d 8a9b 463e 1453 6dbc
00000100: 9448 033c cbbe b8bd 3c6b 11bd 8f62 393e
00000110: 6081 233e f57f e0bd 146a 743e fb66 58be
00000120: 4a79 a63e c37a 8c3e ce06 0c3e 8491 ebbc
00000130: 9565 58be 7799 b7bd 7a14 12be 9da6 543d
00000140: 936c bd3d 392c 023e 14f4 663c c188 10be
00000150: 9175 4bbe 1d00 4b3e c495 843e a859 0cbe
00000160: 2cee 413e 21d9 dd3b 0855 033e 8f04 c93d
00000170: b298 4e3d 1fdc ee3d 397f debd 0c23 033e
00000180: 75f8 debd 5dcb 243d e47a 5ebd 14e9 4a3e
00000190: d5b0 6f3e aba4 ecbd bead 053d 5a1d 293d
000001a0: be4f b83c addd d8bd f613 343d cff4 b83e
000001b0: 364d 593e d7b9 94bc 0e71 3bbe 1050 84be
000001c0: 1a7d d03d ff0e 2fbe e9d3 7fbe 3e54 54bd
000001d0: d627 00be 9747 c0bd dfca b93e 6982 af3d
000001e0: 4f9e e63c 3535 0abd 877a 07bc 2371 f43d
000001f0: 7c43 d53d 23c7 81bd d6e9 99be 3898 8e3e
00000200: 44bb 863e dbb5 713e 0efb 5fbe f970 f13d
00000210: 3294 82bd ce23 923e f097 683e 65b4 753e
00000220: 2bcd 713b 9211 fb3e 86c4 563e 3ec3 6b3e
00000230: 51f7 803e 8aea e1bd 9eb4 5cbd b719 773e
00000240: 3705 483d 6bb5 10be 5b34 84be 4105 423e
00000250: 6ec8 433d 2c09 403e b176 a83d 85d0 43be
00000260: 59bf 863e c8a2 03be 83eb 58be 5a15 263e
00000270: 45e4 69bd 00d8 83bd 82bc cf3d 1419 70be
00000280: cd86 333e b6a5 60bd 8703 963e 340c cabd
00000290: 980c 5dbd 5171 0dbd 2150 bc3e 0d3f 88be
000002a0: d71b 583c 1653 17be 0890 a63e 4e7c 913e
000002b0: 512f 8d3d 9786 cbbd f180 90bd d1c1 cb3d
000002c0: d4cb 963e 1d81 1c3e 0e23 dd3b b6fc b13d
000002d0: 50b0 51be 0ef4 18be d947 833e 8010 cbbd
000002e0: 2445 69bd 5016 163a 826f 7f3e 4ad2 c23d
000002f0: 60fb 12be 5763 08bd 07c8 3abe 03d4 8a3e
00000300: d929 033d a8b8 ed3d 8998 6dbd a2e6 ba3e
00000310: 5fb4 aa3d 418b 3b3e a0d7 973d 7c72 87bd
00000320: d9bd d6bd 62a9 9c3e 8782 5fbd 1574 cf3d
00000330: 67cb 843e 958a 48be 7999 f8bc ddbd fb3d
00000340: 3609 423e b077 093e a87c b5bd 19e5 893e
00000350: bff9 0fbd 8e0c 083e 97fd 9e3d cd0c 53be
00000360: af0b 4f3e 7321 cd3c 43db 3a3e 6db1 aebd
00000370: 2a72 a5be 0567 1cbe 11ec ed3e 2910 0b3e
00000380: dcf8 953e 3d49 e1bc 3f30 0d3d 83cf 7ebd
00000390: 59c9 a83d 0fa7 893e aff5 923d 32d2 2cbe
000003a0: 2671 283e 4056 f2bd 0cf1 163d ab9d 60be
000003b0: 8120 16be 37f4 6d3e 1fd3 083d e2d9 8cbc
000003c0: 3438 873e 113a a93e f766 8cbc a2d9 c43d
000003d0: 81c0 523d 7f38 f8bd 6403 1c3e ae5e 9fbd
000003e0: dd7f 1dbd 9776 883e 7f07 9d3c c30f 793e
000003f0: 5263 a83e c06e 7fbe 00d7 bf3e 2688 60be
-0.08705227 -0.028709298 0.42679635 0.27272916 0.0468357 0.3138221 0.13588963 0.28373608
0.23372176 -0.13249525 0.2637251 0.12789911 0.043432135 0.1819129 -0.16929005 -0.026408032
-0.14550428 -0.15448287 0.07024612 -0.10861854 -0.14911997 0.022839548 0.1691651 -0.004889797
0.15704101 -0.1032491 -0.25299427 -0.04925361 0.11024281 0.057461552 -0.08224211 0.29540116
0.18173212 -0.1304922 0.013201193 -0.17264026 0.10997975 0.25042212 -0.38918975 -0.006798609
0.12407407 0.1637438 -0.25231567 -0.33185166 -0.07380537 0.18267868 -0.22691393 -0.12895043
-0.07569211 -0.061782803 0.24274676 0.18412285 -0.06127554 0.4791225 0.052717697 0.38430578
0.12614898 0.14342648 0.24472828 -0.17359756 -0.13546266 0.04120596 0.19395271 -0.014485139
0.008012909 -0.09020766 -0.035502657 0.18104003 0.15967321 -0.10961906 0.2386859 -0.21133034
0.3251441 0.2743741 0.13674471 -0.02875591 -0.211325 -0.08964818 -0.14265624 0.051916707
0.092492245 0.12712182 0.014096279 -0.14114667 -0.19869067 0.19824262 0.25895512 -0.13706076
0.18938512 0.0067702685 0.12825406 0.098153226 0.05043859 0.116630785 -0.108641095 0.12806338
-0.10887233 0.040233005 -0.054316416 0.19815475 0.234073 -0.115548454 0.032636397 0.041287757
0.022498962 -0.10589156 0.04396435 0.36124274 0.2122086 -0.018155022 -0.18304846 -0.25842333
0.10180111 -0.17095564 -0.24983181 -0.051838152 -0.12515196 -0.09388655 0.3628759 0.08569796
0.02815166 -0.03374215 -0.008268959 0.119356416 0.10413262 -0.063368104 -0.30061215 0.2785051
0.26314747 0.23604529 -0.21873114 0.11789126 -0.06375922 0.28542942 0.2271421 0.23994596
0.0036895971 0.49036843 0.20973405 0.23023698 0.25188687 -0.11031063 -0.053883187 0.24130903
0.0488331 -0.14131705 -0.25821194 0.18947317 0.047798567 0.18753499 0.082257636 -0.19122513
0.26317862 -0.12855065 -0.2118359 0.16219082 -0.05710246 -0.06437683 0.10143377 -0.23447067
0.17531891 -0.054845534 0.29299566 -0.09865609 -0.05396709 -0.034531895 0.36779884 -0.26610604
0.013190231 -0.14777789 0.32531762 0.2841515 0.068937905 -0.0993778 -0.070558436 0.09949077
0.29452384 0.15283628 0.0067485636 0.08690779 -0.20477414 -0.1493685 0.25640753 -0.099152565
-0.056950703 0.0005725371 0.2494488 0.09512766 -0.14353704 -0.033297863 -0.18240367 0.27114877
0.03202233 0.11607486 -0.058006797 0.36504084 0.08335184 0.1831484 0.07414174 -0.06613633
-0.10485429 0.3059798 -0.05456784 0.10129563 0.25936434 -0.19584115 -0.030346619 0.12292073
0.18948826 0.13424563 -0.08861667 0.269326 -0.035150286 0.13286039 0.07763212 -0.20610352
0.202193 0.025040364 0.18247704 -0.08529935 -0.32313663 -0.15273674 0.46469167 0.13580383
0.29291427 -0.027500743 0.03446984 -0.062209617 0.08241529 0.26885268 0.07175767 -0.16877058
0.16449413 -0.11832857 0.036850974 -0.21935146 -0.14660837 0.23237692 0.033404466 -0.017193738
0.26410067 0.33052114 -0.017138941 0.09611823 0.051453117 -0.12120151 0.15235668 -0.077817306
-0.038452018 0.26652977 0.019168613 0.24322419 0.32888275 -0.24944592 0.3746872 -0.21926937

linear2.bias f4 [18]
00000000: 4bdd 6b3d 78dc 033e 7e67 563e 6b06 513e
00000010: 5abf 293e 5181 ef3d 7465 883e 2aae 803d
00000020: dea5 e13c 4e7b 58bd 62ce 1d3e 3e21 bc3d
00000030: 5cfc 9e3c 7bd0 393e a617 c43d 471a 373e
00000040: 1326 17bd 8ace 363e
0.05758409 0.12877071 0.20937917 0.20412605 0.16576901 0.11694587 0.26639903 0.06283219
0.027544912 -0.052851968 0.1541076 0.09186028 0.019407444 0.18145935 0.09574823 0.17881118
-0.036901545 0.17852226

linear3.weight f4 [144, 288]
00000000: 69c9 f73c 0343 463d 1ce1 aa3b acb8 9fbb
00000010: 5b23 3f3c 4118 f23a 890d 463b b886 173a
00000020: c7d9 e53b 4291 08bc d79e 81ba c860 ca3c
00000030: 56b9 8c3b 3f1b 9d39 4a17 c33b f4ba 333c
00000040: e629 a238 fa47 04ba 9dd2 4c3d bcd3 0ebd
00000050: dd86 5d3d 2867 9e3c 0d8e e3bc 8a59 513c
00000060: f7a0 e93c 036e a63d 6233 7abd 7b7a 303d
00000070: ada3 1f3d 9082 a8bd fd1e f03c 6fde 583d
00000080: a13a 923c a264 a6bc 4020 563d 12f4 0bbd
00000090: 1f1a 133c 76ee 0d3b ca21 7a3d ee29 c5bc
000000a0: 88b2 7a3b b10f 66bc 3e1d 9c3d b5f8 ae3d
000000b0: 5bd6 753c f1f9 c53b 938a 1abd 8442 b0bc
000000c0: 36ad 8d3d cfbb a93c 9dec de3c bcf6 123c
000000d0: a13a 74bd 7622 88bd 48ad a0bc 1f79 0cbc
000000e0: 1ffe 49bd 2d3c 38bc 9798 cb3c d8fa 7339
000000f0: 6436 0cbd 5b79 a4bc 55f3 083d 158f 89bb
00000100: 102c 7f3a 62e5 adb9 7e36 203c e6f8 3cbd
00000110: 6c62 f63c 1d49 0c3c db9c a63b b17c e2bb
00000120: b412 27bd bff7 9d3d f7e6 47bc daef 06bd
00000130: 60d7 5d3d d93a 2b3c 0258 523d feb9 833c
00000140: cb63 9b3c ca2c 813d 4442 823c ecc0 e93b
00000150: 8b23 093c 6aff f33b 2192 6ebd c7c8 0f3d
00000160: caae 3cbd af20 193d 4308 a9bd 789d bdbd
00000170: 23b5 08bc 813a be3c a931 c1bc feee c13c
00000180: 4d7b aebc f6fc 143b 8062 26bd 23da e4bd
00000190: 9b18 ea3c 15f2 a5bb 03e6 0abd a6b8 d73d
000001a0: 71c1 3fbd e33a 353d d5d9 80bd 2e75 5c3d
000001b0: 33d2 323d b12f 61bd 9e2a 1fbc 98bf a838
000001c0: 3aaf 17bd 0927 863c 8398 3bbc 14f4 4c3d
000001d0: aa2f c4b8 a6cd c3bd 7a32 ddbc 4938 44bd
000001e0: dec8 d93c 2526 da3c 9aa7 ca3b 71ea 4e3c
000001f0: e80a 42bd 1bd6 32bd 906f 383d 99a5 043b
00000200: 9673 2ebd 589a b03c 2913 a93c ef0b d6bc
00000210: ac98 db39 d38b 78bc 9960 f0bc de78 b1bb
00000220: 459d a7bc 3a93 a4bc 6d1b 5fbc 1940 633c
00000230: d0f2 3ebd 9c08 6ebd dd50 74bc 7a50 093d
00000240: c967 debb 11bd 70bc 5045 653a 1c85 093c
00000250: 86ec 183d 5726 dcbc 5460 39bd 0108 77bc
00000260: e804 cf3c fb15 1cbc acdd 17bd 3110 1f3d
00000270: da44 a23a 9daa 99bc 6453 673c 70ec d93b
00000280: e919 62ba 0fdd b9ba 233b ccbc 2774 9bbd
00000290: 48b6 16bd a983 a83c c5d1 9bbc 25e4 94bc
000002a0: 56c6 56bd 202e 9c3c 87c9 3ebc 7dbc c0bd
000002b0: 97bf 67bd dce1 dc3c e6a6 283c ab78 413d
000002c0: 4169 bdbc e690 9fbd e4c5 883c 99b0 903d
000002d0: 679d 65bc e54a 48bd 0985 e23b 608d 953c
000002e0: 4cf9 2ebd 16e5 9dbc 28dd 9cbc 8524 21bd
000002f0: 2864 053d e93e e6bc 9178 cb3c 1d1c ba3b
00000300: ff51 05bc 681c 143d 63d8 573d fb9c 1c3c
00000310: d29a a13d 34d3 1a3b 068e 45bb 15d0 b23d
00000320: 5cd8 78bd d7a7 f9bc 1c55 843d 55f9 503c
00000330: 1ac9 bbbc e713 b4bc 7597 313d a072 ab3d
00000340: b73a 873d 352b e33c fee9 60bd f5c4 e1bc
00000350: 1fb7 a6bc db20 a43c eecb 40bc de63 3a3d
00000360: bcb7 0d3c 140f 373d c7ee 5cbc 410f e63c
00000370: 6f41 53bc 5abf a6bc ae99 033c a784 9dbb
00000380: 07c4 a5bc d9ed 1bbc ebee e83c ae65 37bc
00000390: a793 27bc b94a 80bb 6a80 17b7 c188 eb3c
000003a0: bb60 833c 894d 2b3c 23a1 43bd 9916 9b3c
000003b0: d57f 2cbd 5657 2f3d 9151 55bc f82d 87bd
000003c0: aac9 48ba 6af8 503d caab aabc 57b1 9f3d
000003d0: 3efe 263d a7ef d5bc 0e4f 643d 9f35 d33c
000003e0: eed7 5fbd 03dc dbbc 788e 1dbc 965e c63c
000003f0: 1dc2 e0bb 1c6a 9c3d 6466 09bb 8327 5b3d
0.030247407 0.04840375 0.0052148234 -0.0048743095 0.011666144 0.0018470363 0.003022047 0.00057802675
0.0070144865 -0.008335413 -0.0009889257 0.024704352 0.0042945547 0.00029965673 0.005953704 0.010969866
7.732566e-05 -0.0005046126 0.050005544 -0.034869894 0.054083694 0.019336298 -0.027777696 0.012777695
0.028519137 0.08126452 -0.06108416 0.043085556 0.038974453 -0.08228028 0.029311651 0.052946504
0.017850222 -0.020311657 0.05227685 -0.03416831 0.008978396 0.0021657026 0.06106738 -0.024067845
0.0038253386 -0.014041827 0.07622765 0.08543531 0.01500472 0.006041758 -0.03772981 -0.021516092
0.06917803 0.020719437 0.027212435 0.008969959 -0.059626225 -0.06647198 -0.019613877 -0.008573799
-0.049314614 -0.011244816 0.024853034 0.00023267732 -0.03423156 -0.020077398 0.033435185 -0.004197965
0.0009734044 -0.00033168035 0.009778617 -0.046135806 0.030076228 0.008562353 0.0050846166 -0.006911837
-0.04078932 0.077132694 -0.012201062 -0.032943584 0.054160476 0.010451042 0.051353462 0.016079899
0.018968483 0.06307371 0.015900739 0.007133594 0.0083702905 0.007446219 -0.058244828 0.035103586
-0.04606513 0.037384685 -0.08253529 -0.092585504 -0.008343968 0.023221256 -0.02358325 0.02367353
-0.021299029 0.0022733784 -0.04062128 -0.11174419 0.028576186 -0.005064259 -0.033910763 0.10533266
-0.04681534 0.044245612 -0.06291548 0.05382269 0.043657493 -0.054977123 -0.009714751 8.0465514e-05
-0.037032343 0.016376035 -0.011449936 0.05003746 -9.3548864e-05 -0.09560709 -0.027001608 -0.04790524
0.026585039 0.026629517 0.0061845304 0.012629137 -0.047373682 -0.043661218 0.04502827 0.0020240305
-0.0425907 0.021557972 0.02063902 -0.026128737 0.00041884684 -0.015170055 -0.029342936 -0.00541602
-0.020460734 -0.020089734 -0.013617379 0.013870263 -0.046618283 -0.05811368 -0.014911857 0.033524014
-0.0067872745 -0.014693514 0.0008745985 0.008393552 0.03733494 -0.02687375 -0.04525788 -0.015077592
0.025270894 -0.009526725 -0.037076637 0.0388338 0.0012380139 -0.018758113 0.014119003 0.0066505
-0.0008625077 -0.001418026 -0.024930542 -0.07590514 -0.03679493 0.020570593 -0.019020924 -0.018175194
-0.05243524 0.019064963 -0.011644728 -0.09410951 -0.0565792 0.026963167 0.010293698 0.04723422
-0.023121478 -0.07791309 0.016695924 0.07064933 -0.014014578 -0.04889955 0.0069128317 0.01825589
-0.042718217 -0.019274276 -0.019148424 -0.03934147 0.03256622 -0.02810617 0.024837764 0.005679621
-0.008137225 0.036159903 0.052696597 0.009558911 0.07890858 0.0023624422 -0.0030144467 0.08731095
-0.06075321 -0.03047554 0.06461546 0.012754758 -0.022923041 -0.021982146 0.04335733 0.08371472
0.06602996 0.027730564 -0.054910652 -0.027559737 -0.02035099 0.020035198 -0.011767371 0.045505397
0.008649763 0.044692114 -0.013484663 0.028083446 -0.012894019 -0.020354915 0.008032246 -0.004807073
-0.020235075 -0.0095171565 0.028434237 -0.011193676 -0.010228074 -0.0039151576 -9.0302e-06 0.028751733
0.016037336 0.010455498 -0.047761094 0.018931674 -0.042114098 0.0428079 -0.013019935 -0.06600565
-0.0007659445 0.051018156 -0.020833869 0.07797497 0.040769808 -0.026115252 0.055739455 0.025782404
-0.054649286 -0.026838308 -0.009616487 0.024215024 -0.0068590776 0.07637426 -0.002096557 0.05350448

linear3.bias f4 [144]
00000000: cbcc 113d 57cc fc3c 9093 0f3d 8297 0f3c
00000010: 236d 10bc f4aa e8bc 538a 293c 7c23 ddbc
00000020: ba51 b33c 5b7e da3c ac0f de3c 6008 003c
00000030: b029 133d a7bc 0bbd 6c0a b53c ada4 c43b
00000040: c9bf a83b ed40 2f3c c35e b43c 22a2 d93c
00000050: e2c8 a3bc 9651 9dbb 95de c4bc 4af3 9abb
00000060: 8724 783c cb98 2c3d 12d5 88bb 0f28 c43c
00000070: 19e6 06bd 0324 16bc 48bb 6b3d 54e0 93ba
00000080: 4f55 183d 4af4 d1bc a50c a4bc 2b84 15bc
00000090: 9e23 f03c d703 1d3d 1d14 58bc 6df7 d3bc
000000a0: c532 063c acd3 efbb 4422 22bd a2cb 34bd
000000b0: fa36 dc3b 3a87 4e3d dfe3 8abc 1409 bfbb
000000c0: bda1 3c3d e420 e43b 397a d93c 7604 b9bc
000000d0: 4104 593c 8fa9 403c 0be6 093d 3bc8 54bc
000000e0: 671d 933c 43a1 393a dd26 82b7 68cf 7b3b
000000f0: e653 1a3d cde2 8dbc 322a ce3c ee1d 543b
00000100: 86c0 4abc 5948 7d3a a7fb 143d cbd7 5d3d
00000110: 79f4 a1ba dd85 c53c addd 4fbc 62be fdbc
00000120: b083 12ba d776 f83c 53e5 c7bc 60f2 fc3c
00000130: 636d 463d 9514 293d 984c 283d 3fec a23c
00000140: b2cb 693c 4610 953c f642 083d a595 aa3a
00000150: 41c3 da3c 49cb 2e3d 8011 473d 3448 a0bb
00000160: b24a c2bc a374 38bc ec06 29bd 8151 343d
00000170: 4f12 00bd 87d7 053d 5bd2 aa3c c933 d03a
00000180: 9856 a43b 2699 623d 4967 113d f8f1 093c
00000190: 6324 203d a4f5 8f3b 8e73 7a3b 2700 1a3c
000001a0: 6b45 713c 444e ff3c d836 31bd 433f 413c
000001b0: 6d6b 373d 0613 68bc 309f 30bd 6a6f 12bd
000001c0: afd3 2e3d 81ab 003d 1327 91bc c6ed 1dbd
000001d0: e38c e5bb 1335 84bc a2a0 69bd d16d 8e3b
000001e0: a956 6ebd fc24 72bd 986a 503c a9fb ec3c
000001f0: 98e2 033c 0681 bb3c 0b49 313d 3629 093d
00000200: 7559 bc3c 8295 373c 3e02 cb3b ac17 3b3c
00000210: fc9e 393c 5bbe 1d3b 786f f8bb ee8c 48bb
00000220: 7cd0 b0bc 26a1 06bc b9f8 8b3b 18f6 bbbc
00000230: 7a8a d13c 8dd4 3abd 16fa 2cbc b003 f512
0.035595696 0.030859156 0.035052836 0.00876415 -0.008815083 -0.02840183 0.0103479205 -0.02699446
0.021889556 0.02667158 0.027107082 0.007814497 0.03592843 -0.03411546 0.022099696 0.006001076
0.0051498157 0.010696632 0.022017842 0.026566569 -0.01999325 -0.0048009856 -0.024031917 -0.0047287093
0.015145428 0.042137902 -0.0041757906 0.023944883 -0.032934282 -0.009163859 0.057551652 -0.0011282065
0.03719073 -0.025629181 -0.02002556 -0.00912575 0.029313859 0.03833374 -0.013188389 -0.025874818
0.008190815 -0.0073189344 -0.03958346 -0.044139512 0.006720421 0.05042193 -0.01695436 -0.0058299396
0.046052683 0.0069619287 0.026547538 -0.022585135 0.013245643 0.011759176 0.03366665 -0.012987192
0.017958356 0.000708122 -1.5515305e-05 0.0038423184 0.037677668 -0.017320061 0.025166605 0.0032366472
-0.012375003 0.0009661965 0.036372807 0.054160874 -0.0012356184 0.024111683 -0.012687129 -0.03097457
-0.0005589081 0.030330105 -0.024401342 0.030877292 0.048444163 0.041279394 0.04108867 0.019888042
0.014269756 0.018196236 0.033266984 0.0013014568 0.026704432 0.042674337 0.048600674 -0.00489142
-0.023717258 -0.011258277 -0.041266367 0.04402304 -0.03126746 0.032676246 0.020852258 0.0015884574
0.0050152056 0.055321835 0.03549889 0.008419506 0.0390972 0.0043932963 0.0038215849 0.00939945
0.014726023 0.03116525 -0.043265194 0.011794868 0.044780184 -0.014164692 -0.043120563 -0.035750784
0.042682346 0.03141356 -0.017718827 -0.038556837 -0.0070053204 -0.016138589 -0.057037957 0.004346587
-0.058188114 -0.059117302 0.012720726 0.028928595 0.00804963 0.022888672 0.04328255 0.033486567
0.022991875 0.011205079 0.0061953356 0.011419218 0.011329409 0.002406976 -0.0075816475 -0.0030601579
-0.021583788 -0.008217132 0.0042715934 -0.022944495 0.025578726 -0.04561286 -0.010557672 1.5462583e-27

linear4.weight f4 [72, 144]
00000000: 0446 923c eb28 533c aaa1 e8bc 75c1 5c3d
00000010: ddef 313c ff68 a63c d014 3bbd 9bb3 afba
00000020: 4d14 8fbd 132f b73c f96d a43d 0839 a7bc
00000030: 4eed 593b fca9 d5bd 5807 a73d a252 793d
00000040: 2d84 293d 9501 b53d 95d5 6d3a 53da 0ebe
00000050: 553e a13d 431f eebd c4b5 4a3e 18b2 ca3c
00000060: 4558 a2bc 01e4 5ebd b422 4bbd 0530 9fbd
00000070: 97e7 16bd d8ff 1bbe 6132 823d 0178 3bbd
00000080: 7c20 443e dc6e 163e c33e 173d 523c 6bbd
00000090: 23d7 663d 2570 ec3d 6214 57bd d5d8 433d
000000a0: 092e 72bd cfeb c63d 6fe0 db3b d947 e23d
000000b0: 6af3 0d3e 184a 19bd 7a26 ae3d 25cd 4a3d
000000c0: 6be7 0ebc ac70 35bc d48d a73c def7 fabd
000000d0: 9dbd 573c 62ca 28bd 97c1 80bd 709a 233e
000000e0: 0409 963d c0a5 fd3d 0a25 0cbb 1c16 b93d
000000f0: b0fc d6bc fea8 7e3e 1d44 37bc 9f5a c4bd
00000100: a6dd 7e3c 590b 3dbd ec0e fa3d 4f94 dc3c
00000110: 47ac 83bd e87d 6e3d 4a3c f73d 9c89 993d
00000120: 8cdb cfbc 2bcb 353d 31b4 3f3d 4194 813d
00000130: c5e0 ec3c df09 e53c 7dd4 fc3d 57bc af3d
00000140: 0ed1 45bd af7f 01be 14e8 8cbd 1f21 563c
00000150: 7f57 f93d 5b07 903d 8615 73bd 3ae4 19be
00000160: 122d 113d c783 e8bd 88d5 5c3d 7709 4d3d
00000170: bf76 1e3c 8ed6 e0bd fc85 e4bc a7a7 debd
00000180: 18f4 993d ef1d c53b a22d d93d 6aaa 3f3d
00000190: 0e32 29be 6c24 f93d 7307 803d 233a 77bd
000001a0: ef72 303d d658 a73d e0c9 1d3d b20d eb3d
000001b0: cbd5 bdbd 7618 243d 2f6c 473d 97c2 9dbd
000001c0: c2aa 733d ae15 3a3d dc9a b7bd e869 ecbc
000001d0: 65c8 0c3e fade 36be 3c05 98bd 00ff 00be
000001e0: bed3 2bbe 9336 013e 7701 053c c83a f13c
000001f0: ff90 f03c 2152 3d3d 3457 323c 6d5b 613d
00000200: 8c5b a93d 2427 40be 0d37 973a c969 ee3d
00000210: b2ba b13d a013 97bb 0840 c3bc 3770 6c3e
00000220: a696 503e fb9c c73c 4e9c 89bd 603a 8f3d
00000230: 1873 a5bd 0dd5 f7bb cbf9 4abd d49d a191
00000240: 679f a7bd 37b7 0f3d 8880 31bd bf5f eb3d
00000250: 9614 a33d 88d3 9dbc 9f2a c4bd 6939 873d
00000260: ec75 d5bc b7cc 24bd 7caf c73d 3177 a5bd
00000270: 8464 6cbd eafa 85bd 1ba2 9dbb 01d7 21be
00000280: 4447 503e 1e24 96bd da64 433e a428 0ebe
00000290: 127f 603d dcf6 debd c586 5f3c f85c a73c
000002a0: 5778 d33d aae3 483c a755 bfbd 21b9 743d
000002b0: 6457 8b3b c5e1 16be 94e1 aa3d a3a3 3d3d
000002c0: bc2c bd3d 07b4 633d 721d 14be b816 563d
000002d0: 1ec1 853c 7125 3abd 3ba2 f03d b3fb 543c
000002e0: 610f 853d a3f2 9fbd 4efc 443e 02dc 733e
000002f0: 8935 273c 695e 783d 3c9c e3bc c9c1 51be
00000300: 1264 1e3d 23e7 33bd 3d8d 283e 397e 113c
00000310: de0e 733d 692d 603e bf65 953d e3d6 05bd
00000320: 74db 933b bc8f 9bbd c395 a039 2030 e53d
00000330: 191f 3d3d 30f9 e8bd 6b78 d6bd 8c19 93bc
00000340: b3fb 7e3e 4fd5 793d b649 92bd a0ab c0bd
00000350: 016a 0c3c 387a e13d 31ad 1dbe 4b62 573e
00000360: da05 69bd d28b 003e 265f de3d c411 703d
00000370: ed68 0bbe fc6a 963d 1a60 babd 70f5 093d
00000380: c415 de3b ae9e 00be 12d4 ffbb 363b 893d
00000390: b9e1 8ebe b432 503e 913f 123e 5a4c 213d
000003a0: 7492 593d 0068 823d ac3a 133e 6d98 8d3d
000003b0: 4e93 c43c 2acb 533d ae92 91bd 56c2 893c
000003c0: ae73 493d bf40 213d 8526 61bd 74dc ebbc
000003d0: ec90 703d df60 49bc 84da 623d 6494 b6bd
000003e0: beb0 c23d 9e04 74bd 9595 1fbe cdaf 3b3d
000003f0: 49ea 773d c755 e4bb 78da f33d 35ce 47bd
0.017855652 0.012888174 -0.0283974 0.053895433 0.0108604105 0.020313738 -0.045674145 -0.0013404967
-0.06986294 0.022361314 0.08028788 -0.020412937 0.0033253017 -0.104328126 0.081556976 0.06086982
0.04138582 0.088381924 0.0009072659 -0.13950472 0.07873217 -0.116270564 0.197959 0.024743125
-0.01981748 -0.05441666 -0.049593642 -0.07772831 -0.036841955 -0.15234315 0.06357265 -0.04576874
0.19153017 0.14690727 0.03692509 -0.057430573 0.056357514 0.11544827 -0.052509673 0.04781421
-0.059125934 0.09712946 0.006710104 0.1104886 0.13862386 -0.037424177 0.085034326 0.049512047
-0.0087221665 -0.011074226 0.020453371 -0.12254308 0.013167766 -0.041208632 -0.06286924 0.15976882
0.07325938 0.1238513 -0.0021384382 0.0903742 -0.026243538 0.24869153 -0.011185673 -0.09587597
0.015555775 -0.0461534 0.12209877 0.026926188 -0.06429344 0.058225542 0.12072046 0.0749695
-0.025373243 0.04438321 0.046802703 0.06327105 0.028915772 0.027958808 0.123452164 0.08580845
-0.048295073 -0.12646364 -0.06880203 0.01306942 0.12174892 0.07032653 -0.0593467 -0.15028468
0.035443373 -0.113532595 0.053914577 0.050057855 0.009671866 -0.10978423 -0.02789592 -0.10871821
0.0751726 0.0060155313 0.10604407 0.04679338 -0.16523 0.1216515 0.06251421 -0.060358178
0.04307836 0.08171241 0.0385226 0.114772215 -0.092692934 0.04006239 0.048687156 -0.07703131
0.05948902 0.04543083 -0.08965084 -0.028859094 0.1374832 -0.17858496 -0.074228734 -0.12597275
-0.16779992 0.12618475 0.008118025 0.029446974 0.029366015 0.046220902 0.010885049 0.05501883
0.08269414 -0.18764931 0.0011536792 0.11641271 0.086781874 -0.004610494 -0.023834243 0.23089682
0.20369968 0.024366846 -0.06719266 0.06993556 -0.08078593 -0.0075632394 -0.049554627 -2.549859e-28
-0.081847005 0.035086837 -0.043335468 0.114928715 0.07962911 -0.019265905 -0.09578442 0.06602747
-0.026057206 -0.040234294 0.09750268 -0.080793746 -0.057713047 -0.06541999 -0.0048105842 -0.15804674
0.20339686 -0.073311076 0.1908144 -0.1388269 0.054808684 -0.108869284 0.013642971 0.020430073
0.103256874 0.012261311 -0.09342509 0.059746865 0.004252361 -0.14734562 0.08343807 0.046298634
0.09237048 0.05559161 -0.14464357 0.05226776 0.016327437 -0.045445863 0.11749693 0.012999463
0.06497074 -0.07809951 0.19236872 0.23814395 0.010205635 0.06063691 -0.02778446 -0.2048408
0.038669653 -0.0439216 0.16460128 0.0088801915 0.05934035 0.21892323 0.07294797 -0.032675635
0.004512245 -0.075957745 0.0003062916 0.1119082 0.046172235 -0.11375654 -0.10472187 -0.017956518
0.24900703 0.060994443 -0.071429655 -0.09407735 0.008570195 0.110096395 -0.15398099 0.2103359
-0.056890346 0.12553337 0.10857992 0.058610693 -0.13614245 0.073446244 -0.09100361 0.033681333
0.006777497 -0.12560531 -0.007807263 0.06700747 -0.27906588 0.20331842 0.14282061 0.039379455
0.053118184 0.06367493 0.1437785 0.069138385 0.023996022 0.051707424 -0.07108055 0.0168163
0.049182586 0.039368387 -0.054968376 -0.028791644 0.05873196 -0.012291162 0.055384174 -0.08915022
0.09506367 -0.059574716 -0.15584405 0.045821954 0.060526166 -0.0069682333 0.11906904 -0.04878064

linear4.bias f4 [72]
00000000: b1e3 2f3d 2f38 893d c0cc 1d3d 4097 f2ba
00000010: 8d34 513d 7983 e63c 7b5f 153d e59a deb9
00000020: 96ac 093d a6ff d93c 749d 3a3c bebd fe3c
00000030: 54b2 00bc cb0c 6a3c fa83 be3c 6261 223d
00000040: 9290 0a3d 0d56 33bc ccb8 913a 6027 ef3c
00000050: bcc7 0e3d b4dd 7c3d ac00 2abd 4d6c 3d3c
00000060: 7a5c 2abd 072a 1c3d 6f77 193d ad73 653d
00000070: 4405 85bc 3197 9500 46bc c93c 762d 0f3d
00000080: 5a7b 9b3a cd3d 46ba e69f 683d 5d57 ce3c
00000090: fe49 e4bb e560 bd9b 2367 723a 8d05 22bc
000000a0: eaa9 da3c c38a 1f3d 9a3a 7a34 41a8 5d3d
000000b0: 3145 3ebc b477 2fbc c7f9 5abc 2fdf 683c
000000c0: 44df 30bc ace4 a2ba ea3b 9c02 3a92 443d
000000d0: e1b1 713d 2515 0fbd a62e 00bd f405 4fbc
000000e0: 0409 99bc 3721 80bc 7121 7bbc 10f2 1c3d
000000f0: a9c9 263d 563c 893c 50e7 703d d1a9 a2ba
00000100: 9265 603d 2d61 a239 7fd5 b1a0 1bba c23c
00000110: 226f e499 e80a 78bb 246d 223d b8ee 853d
0.042941753 0.06700169 0.038525343 -0.0018508211 0.051075507 0.028138863 0.03646801 -0.00042458545
0.033611856 0.02661116 0.011390079 0.031096336 -0.007855017 0.014285277 0.02325629 0.039643653
0.03382928 -0.010945809 0.0011117696 0.02919358 0.03485845 0.06173487 -0.041504547 0.011561465
-0.0415921 0.038126018 0.037467416 0.05601852 -0.016237862 1.3737726e-38 0.024625909 0.034955464
0.0011862323 -0.00075623096 0.056793116 0.025188142 -0.0069668284 -3.1330044e-22 0.0009246936 -0.009889019
0.02669235 0.038950693 2.3304383e-07 0.054115538 -0.011613176 -0.010709692 -0.013365216 0.014213367
-0.010795418 -0.0012427769 2.2956529e-37 0.047991015 0.05900753 -0.034932274 -0.031294487 -0.012635697
-0.018681057 -0.015640838 -0.015327797 0.038316786 0.04071966 0.016752403 0.058814347 -0.0012410228
0.054784365 0.0003097145 -3.0126246e-19 0.023770383 -2.3619534e-23 -0.0037848298 0.039654866 0.065396726

linear5.weight f4 [36, 72]
00000000: f17d 093d c98d 193b 6878 b73d 25d5 e1bb
00000010: b6f3 9dbb 3083 c23c 61a0 b73c 1886 30bb
00000020: e2c2 f8bd 5e17 0dbd c1cc 8d3d ec66 0f3e
00000030: e141 52bd bd59 b4be 58f1 ac3d 257d ccbd
00000040: 50bb f6bd 50a6 26be dd1d e8bb ff5f 123d
00000050: 0ebb b4bd 622e 533d 2302 803e 4dc8 853d
00000060: 2b02 1a3e 9b52 223e 4308 97bd 141d cabb
00000070: 3bfd 4b3d a8b4 77a8 2c3c e6bd e488 29be
00000080: 6bca 0b3e d717 c83c e4de 54bd 92b2 28be
00000090: 0e41 f8ba 6a5d 2cb7 f390 283e db07 90bd
000000a0: e72c 8abd 1f48 53bd cf3d 1435 c281 c3bc
000000b0: 1eaf 2bbd fc2b 203d f7ae a53d 6a17 0d3e
000000c0: 62ee d33d 5423 8d3d 9ff4 a538 dd74 a13d
000000d0: a3f3 cd3d d200 103e 4685 db3c fecf cabc
000000e0: 23f1 d0bd 2cbb d23c 2be6 50be a6d3 8fbe
000000f0: 19b7 a93e 9f7c e33d 1a3a b8bc c5d9 a73d
00000100: 5db6 133d 4899 1d3e a961 2337 5951 853e
00000110: 53e3 9e39 4bb0 82bd 2e8c 833d 79c7 ef3d
00000120: 91e4 d6bc 11ab 3a3e 1ec7 553e e462 ff3d
00000130: b408 0dbc fc25 b7bc 8ee2 df3d 73aa 2cbb
00000140: 9605 22be 0c10 b13d 9e46 19be e57c e83c
00000150: dba9 7c3b 1857 18be 26f6 19bd 8ffe 0f3d
00000160: f8b0 1c3d 2e4d 703d e438 213e d8df 0a3e
00000170: bec6 06be 2af7 113e 6547 33be 916b bb3d
00000180: ea65 263e f0a9 3c3d 45de 6ebd c174 d83d
00000190: 7a3a 83be 8a60 99ad 8431 bfbd 1640 71be
000001a0: d6cd 813e fb38 0cbc 0ba9 24be 9cd5 5abe
000001b0: 609f 8f3d 2f02 f7b7 759a 5abc e92d 613c
000001c0: c189 b5bd 0bcc 843d f573 1535 8ff1 d83d
000001d0: 3e83 0e3d 586d 0d3e b977 e23d 93c2 1f3e
000001e0: ddc8 3abd 11b3 133e c19e a3b7 4f9f 033e
000001f0: 7f7e f2bd 4fc3 243e e888 aebd 5180 c43d
00000200: 1875 a0ba 1740 ca3d 9057 38be 838f bfbd
00000210: 8a1b b6bd 0bd8 6a3d 9e3e 4f3e a79c 9d3e
00000220: 99e2 bd3d ad12 7dbd ade0 caba 77b5 9c3d
00000230: 056c 0cb8 dde5 143c fca3 9cbd 4695 0e3d
00000240: 4c82 603a 8157 edb9 f021 85b9 cdc7 18bb
00000250: 1894 3fbb 98ad faba b079 3abb 7923 ef80
00000260: 554c 52bb 1123 00bb fc9d b1ba d605 2c38
00000270: 250e 9dba 07ca 05bb 6a60 37bb 2f14 13b9
00000280: f6bb 68bb 8cb2 91bb 4700 86ba 6b67 ffb9
00000290: bde4 6bbb c428 b5ba 90ff fd37 53b6 23bb
000002a0: a4fc 2bb9 dad8 93bb 9dd9 8dbb 6220 3cbb
000002b0: 1f47 80bb b277 1701 da1c b2bb 3c89 2bba
000002c0: 5a47 12bb e169 fbba c16a 6aba 4337 69bb
000002d0: a857 6bbb 4898 2a81 ce0c 64bb b298 30bb
000002e0: e1ea dfbb e08e 49bb 24e4 531c 4b77 fcba
000002f0: 46d8 f5ba 86f6 77ba 65d7 1fbb e022 26bb
00000300: a2da 49bb e9bd f3ba 0481 1601 769d faba
00000310: 0f02 0cbb 4e65 a6ba bff6 c2ba 1f1c 753a
00000320: 5ac0 8dba b29a 09bb 9dc5 deba 8b33 2cbb
00000330: 28e0 29bb 1232 983a 3993 21bb a1a9 47ba
00000340: c9f5 81bb 44cf e7ba 0f8f 2981 9006 c139
00000350: a67c 1381 27a1 55bb ef39 45bb cafc 0dbb
00000360: 2e95 1801 6cf0 0d01 127f 4c01 72cb 0a81
00000370: 693c 0c01 22aa a881 cd4c 2401 d610 a280
00000380: 1831 0f01 1c97 1881 fe32 2b01 2481 1b01
00000390: 38b4 7181 7805 2e01 6c4a 4a81 c088 9201
000003a0: 9884 1681 bc42 4581 8a29 1981 8436 e000
000003b0: f9ac 0d01 2d86 0401 c14f e000 e8ee fe00
000003c0: 9ba5 1981 cd7f 7281 ce9c 7a81 f061 0581
000003d0: 5aed ee00 a897 b400 2c58 0e01 c883 0901
000003e0: 1c61 2081 eb21 6981 33a2 fe80 48e1 d480
000003f0: bcd9 5400 c244 0f01 d4ed 0581 fb44 2481
0.033567373 0.0023430458 0.089585125 -0.006891864 -0.0048203124 0.023744196 0.022415342 -0.0026935395
-0.12146546 -0.034446113 0.06923819 0.14004105 -0.05133236 -0.35224715 0.0844447 -0.09984807
-0.12047446 -0.1627438 -0.007083638 0.03573608 -0.0882474 0.051557906 0.2500163 0.06532345
0.1503989 0.15851824 -0.07374623 -0.006168017 0.049802046 -1.3750428e-14 -0.112419456 -0.16556126
0.13651435 0.02442543 -0.051970378 -0.16474369 -0.0018940286 -1.0273749e-05 0.16461544 -0.07032748
-0.06746846 -0.051582452 5.522424e-07 -0.023865584 -0.04191505 0.039104447 0.080900125 0.13778463
0.10348202 0.06891504 7.913377e-05 0.07883618 0.10056236 0.14062813 0.026796948 -0.024757382
-0.10202243 0.025724016 -0.20400302 -0.28091162 0.33147505 0.11107754 -0.022488642 0.08195833
0.036062587 0.15390503 9.738295e-06 0.26038626 0.00030305478 -0.063812815 0.064232215 0.11707968
-0.026232036 0.18229319 0.20876738 0.12470034 -0.008608032 -0.02235698 0.10931884 -0.0026346713
-0.15822443 0.08645639 -0.14968345 0.028379867 0.003855339 -0.14876974 -0.03758826 0.035154875
0.038254708 0.058667354 0.15744358 0.13561952 -0.13161752 0.14254442 -0.17507704 0.09151376
0.16249815 0.046060503 -0.05831744 0.10569144 -0.25630552 -1.7436958e-11 -0.09335616 -0.23559603
0.25352353 -0.008558507 -0.1608011 -0.21370548 0.0701282 -2.9445711e-05 -0.0133424895 0.013743856
-0.08864165 0.064842306 5.5675565e-07 0.10592949 0.03479313 0.13811243 0.110579915 0.15601568
-0.045601714 0.14423777 -1.950504e-05 0.1285374 -0.118405335 0.1609013 -0.085222065 0.09594787
-0.0012241928 0.098755054 -0.18002152 -0.093535446 -0.088919714 0.05733494 0.2023873 0.3078358
0.09271736 -0.06178539 -0.0015478336 0.07651799 -3.3479202e-05 0.009088007 -0.07648465 0.034810327
0.00085643376 -0.00045269358 -0.00025393022 -0.002331245 -0.0029232558 -0.0019125221 -0.002845388 -2.1961409e-38
-0.0032088954 -0.0019552151 -0.0013551111 4.101343e-05 -0.0011982365 -0.0020414607 -0.0027981051 -0.00014026531
-0.0035512424 -0.0044463333 -0.0010223471 -0.00048714443 -0.0035994493 -0.0013821353 3.0278956e-05 -0.00249805
-0.00016401947 -0.0045119347 -0.00432892 -0.0028705825 -0.0039147283 2.7820197e-38 -0.0054355683 -0.0006543582
-0.002232036 -0.0019181335 -0.0008942299 -0.0035585917 -0.0035910401 -3.1333325e-38 -0.0034797671 -0.0026946482
-0.0068334197 -0.0030755326 7.010891e-22 -0.0019261626 -0.0018756471 -0.0009459037 -0.002438986 -0.0025350377
-0.0030800481 -0.0018596026 2.7643213e-38 -0.0019120413 -0.0021363532 -0.0012694986 -0.0014874561 0.00093501987
-0.0010814772 -0.0020996747 -0.0016996149 -0.002627584 -0.002592096 0.0011611602 -0.0024654402 -0.0007616524
-0.0039660675 -0.0017685671 -3.1143037e-38 0.00036816718 -2.7089067e-38 -0.0032597275 -0.0030094346 -0.0021665567
2.8025022e-38 2.6070104e-38 3.756005e-38 -2.5492562e-38 2.575728e-38 -6.195758e-38 3.0177145e-38 -1.488339e-38
2.6300175e-38 -2.8026406e-38 3.1444325e-38 2.8561658e-38 -4.439401e-38 3.1962676e-38 -3.7154936e-38 5.3828156e-38
-2.764578e-38 -3.6231065e-38 -2.8131465e-38 2.0590708e-38 2.6021712e-38 2.4340837e-38 2.0599761e-38 2.341192e-38
-2.8220478e-38 -4.4540073e-38 -4.603025e-38 -2.449851e-38 2.1941994e-38 1.6584793e-38 2.614454e-38 2.5257474e-38
-2.945703e-38 -4.2819676e-38 -2.3384402e-38 -1.9549941e-38 7.79229e-39 2.6314283e-38 -2.4598875e-38 -3.0171534e-38

linear5.bias f4 [36]
00000000: 82ec 683d 7dcc 4b3d 1580 19ba 1af7 ee00
00000010: 8beb 8b3d f46c 893d 0159 b33c 97bb 5738
00000020: 13c9 92a5 1300 013c 4a75 003d 0dc1 bf3c
00000030: 7a7c 6f01 7086 223d 5302 77bd acfd 713d
00000040: 1df2 803c 2d65 b73c 69b6 3b3d e461 8f3d
00000050: b31b 903d f304 44bd 502c cfbc 89aa 833d
00000060: e141 973c 0826 953c 5ec3 763d 716e 45bb
00000070: 42e2 c9bb 24b0 c8bb 94b2 c33d ae7e 9b3c
00000080: 8420 a03d 359d 0b3d 48a9 9b3c 584f 113d
0.056866176 0.049755562 -0.00058555725 2.1945491e-38 0.06832036 0.06710234 0.021893026 5.14347e-05
-2.5463216e-16 0.007873553 0.031361856 0.023407483 4.3986675e-38 0.03967899 -0.06030495 0.05907981
0.015740449 0.022387112 0.045828257 0.07001093 0.07036533 -0.047856282 -0.025289685 0.064290114
0.01846403 0.018206611 0.06024491 -0.0030125643 -0.0061610052 -0.006124513 0.095555454 0.018981304
0.07818702 0.03408547 0.019001618 0.03547606

linear6.weight f4 [10, 36]
00000000: e0fb db3d 716c 25be 8225 083a 0b95 cea8
00000010: 0eae 70be 1169 043e 579f 203e f707 4b3e
00000020: 8eb4 4aba 9d3d fabc 3f91 edbd 3539 83bd
00000030: 4342 9017 fd72 953e 3cca 543d de5c d03d
00000040: c4a1 7ebe 871a 1ebe 199a debd 1f26 843d
00000050: 5ecb 363e 459c c9bd 1388 9ebd 5816 8dbe
00000060: de0f 55bd 44f0 8dbe b753 89be ab3f 933d
00000070: 17b7 473e 30ea 633e 3bf9 2cbe 6076 79be
00000080: 4207 3d3e 8df5 f43d 1be3 4c3e b81d 51be
00000090: 0f72 413e 5e5f 893d 3d00 6dbb ffb3 2232
000000a0: abfb 473e f784 183e abfd 273d 5e98 bdbd
000000b0: 0b93 4bbb 984f 813d 237d d4bd 88f8 573e
000000c0: 98b4 832d c561 c53d f785 75bd f303 623d
000000d0: 92aa 9cbe fc6b 4c3e effd 193e d897 d8be
000000e0: fb68 4fbd ba83 4a3e 37d8 3fbe c2af 2bbd
000000f0: 418a b6be 99c9 89bd 523c 053e 4c8e 31be
00000100: a2af a4be 5589 9dbd fe26 d83d 5792 cabd
00000110: 994c 803e f2b0 07be 6ebe 0f3e 6d3d 88be
00000120: 54fb 2d3e 432d c33c ac1d 983a e6f7 2231
00000130: 02e1 6f3e 8abc 023d 9725 9d3e ecc6 dabd
00000140: 6c99 caba 1430 1abd f7bd 79be bdd7 aabe
00000150: 39e7 14a2 b44d 3e3d 7818 bdbd c13d 54bc
00000160: f2cd 40be 2f14 e8bd 4ef9 5cbd aab4 61be
00000170: 1354 58be b4c4 1abe b81e 373e 4213 9c3d
00000180: a772 963d 28ca 14be 297c d1be e638 d8bd
00000190: 49bc 2c3e 8fd2 cfbe d426 373e e7d0 13be
000001a0: 837c 4abe 4cd4 4e3e 49d6 153e 27e4 963e
000001b0: ce85 423e 1203 6b3e 215e d0bb 7f5b 5132
000001c0: 37ed a6be a8cd 453d 145e 91be 9be3 82bd
000001d0: 24e3 393a 7e8c c7bd ad50 f8bc 7b45 93be
000001e0: 0a6e 0b2c 672e 8dbe db45 85be f750 82be
000001f0: 3cc3 233e e2ca 6cbe 35b4 e63c caa2 9ebe
00000200: 1482 8d3e 2420 57be 35ab 8fbe 1f43 b43d
00000210: 7bd9 17bd 089c 8f3d 9271 4e3b 851b babc
00000220: 0c12 413e c932 babe 2fc1 7c3e a9d7 dd3d
00000230: 5925 943d 76ef d73c 9678 81bd d3c3 6dbc
00000240: 56b7 68bd 6b83 76be 498c 2e3a cd09 81af
00000250: 8b3c ac3a 1019 373e 3acb edbd 55a0 dabe
00000260: 729e 883b 81e7 62bd ccf9 76bd 98fb a3be
00000270: 476a 03b5 8afd b43d b448 a9bd 212f 153e
00000280: 13ff 783d f5f9 9d3e 1db4 7d3e 6984 233e
00000290: b865 a03c 3849 a0bd c607 893d b86e 01be
000002a0: 37b6 343e 02f1 3c3e 8517 96be 7927 d0be
000002b0: 6515 43bc ade6 90bd 6cf3 e93d 026a 073e
000002c0: 4f19 443e 1480 66be d9e4 86be 9d60 91be
000002d0: b698 62be 49f6 21be bfce 333b 8ed1 c3b0
000002e0: 7417 8dbe d8d9 8bbd c957 c1bb 98f7 1f3e
000002f0: 72be a83a fe97 4f3e 3dee febc ec2f 543e
00000300: 319b faaa 6667 70be 9a6b 003e 8fde 90be
00000310: c9ec c0bd 4bc1 4a3d 60d1 95be 3aa8 a13d
00000320: ba88 62be d4f6 2fbe a273 50be 72e5 223d
00000330: de93 68bb 87d5 b53b b617 953e 38de a43d
00000340: 03fc 19be 53eb a3ba 0d0c 583e 1393 3e3e
00000350: 5cd8 86bc ef8f 383e 86a6 8ebe cad5 303e
00000360: 7d6a 55bd 7485 94be 2feb cd3b 9d7c dd2d
00000370: 3a09 563d 2d5f 97be d22b 453d f9e3 5bbe
00000380: d90d a13a f5d9 353e 1f60 1abe c01b a73e
00000390: 66b0 9e1c 789e 4b3b ef4d e7be bc69 4c3e
000003a0: 1152 9fbd bf76 613e fb7e 64be 9e6f 873e
000003b0: 628a 073e d5d1 443e cbc6 11be 08bd 99be
000003c0: a6cf 2d3c 2a45 47be 00c5 a73d f57d 173c
000003d0: b757 fbbb 0428 a03d e947 8abe aef2 363e
000003e0: 0c47 36bc 9686 e53c 2548 313e a154 bd3d
000003f0: 676b 79bc b360 1b3e ddaf 5a3b 1857 84b3
0.10741401 -0.16154648 0.00051935774 -2.2935231e-14 -0.23503897 0.12930705 0.15685783 0.19827257
-0.0007732593 -0.030546958 -0.11599969 -0.06407396 9.322509e-25 0.29189292 0.05195068 0.10173963
-0.24866396 -0.15439807 -0.108692355 0.064525835 0.17851016 -0.09844259 -0.07740798 -0.2755611
-0.052017085 -0.2772237 -0.26821682 0.07189878 0.19503437 0.22257304 -0.16891949 -0.24361563
0.184598 0.119608976 0.20008509 -0.20421493 0.18891166 0.06707643 -0.0036163472 9.470567e-09
0.19529597 0.14894472 0.0410134 -0.09257577 -0.0031062986 0.063140094 -0.103754304 0.21090901
1.4973175e-11 0.09637789 -0.059942212 0.055179548 -0.30598885 0.19963068 0.15038274 -0.42303348
-0.050637227 0.19776812 -0.18734823 -0.041915663 -0.35652354 -0.06727905 0.13011292 -0.17339438
-0.32165247 -0.0769221 0.10554312 -0.09891193 0.2505844 -0.13251093 0.14037487 -0.26609364
0.16990405 0.023825293 0.0011605523 2.3715017e-09 0.23425677 0.031918086 0.3069274 -0.106824726
-0.00154571 -0.037643507 -0.24388872 -0.3336772 -2.0180148e-18 0.046460822 -0.09233183 -0.012954176
-0.18828562 -0.11331975 -0.053948693 -0.22041574 -0.21125822 -0.15114099 0.17882812 0.07620861
0.07346087 -0.14530241 -0.4091504 -0.105577275 0.168687 -0.4059033 0.17885906 -0.14435159
-0.1977406 0.20198172 0.14632525 0.2947094 0.18996355 0.2295039 -0.0063588773 1.2186205e-08
-0.32602856 0.048291832 -0.28392088 -0.063910685 0.00070910365 -0.09743594 -0.030311907 -0.28763947
1.9814172e-12 -0.27574465 -0.26029858 -0.25452396 0.15992445 -0.23124269 0.028162101 -0.30983573
0.27638304 -0.21008354 -0.28060308 0.08801865 -0.03707264 0.070121825 0.0031500799 -0.0227182
0.1885454 -0.3636687 0.24683069 0.108321495 0.07233686 0.026359301 -0.06321828 -0.01451202
-0.056815468 -0.2407357 0.00066584774 -2.3471927e-10 0.0013140602 0.17880654 -0.11611028 -0.4270045
0.004169279 -0.05539656 -0.06029682 -0.32027888 -4.8955957e-07 0.08837421 -0.0826582 0.1456876
0.060790133 0.30854765 0.24775739 0.15968479 0.019579753 -0.07826465 0.06690936 -0.12639892
0.17647634 0.18451312 -0.2931482 -0.40655115 -0.011906956 -0.07075248 0.11423382 0.13224033
0.1915028 -0.22509795 -0.26346472 -0.28394023 -0.22128567 -0.15816607 0.0027436463 -1.4247676e-09
-0.27556956 -0.0682866 -0.0059003574 0.15621793 0.001287414 0.20272824 -0.03111946 0.20721406
-4.4516607e-13 -0.23476943 0.12541047 -0.282948 -0.09420163 0.049500745 -0.29261303 0.07893415
-0.2212247 -0.17184001 -0.2035661 0.039769597 -0.0035488526 0.005549136 0.29119653 0.08050197
-0.15037541 -0.0012506045 0.21098347 0.18610792 -0.01646059 0.18023656 -0.27861422 0.17269054
-0.05210351 -0.29008067 0.0062841396 2.518013e-11 0.052254893 -0.295648 0.048137493 -0.21473683
0.0012287452 0.17758925 -0.1507573 0.3263836 1.0501161e-21 0.0031069797 -0.45176646 0.1996221
-0.07779325 0.22017954 -0.22314064 0.26452345 0.13236383 0.1922067 -0.1423599 -0.30027032
0.010608589 -0.19459978 0.08191872 0.009246339 -0.0076703685 0.078201324 -0.27007988 0.17866012
-0.011125337 0.028018277 0.17312677 0.09244657 -0.015223361 0.15173607 0.0033368983 -6.162571e-08

linear6.bias f4 [10]
00000000: b70f b9bd 966a afbd efc0 8ebd c11c 59bd
00000010: c340 5d3d cb3d debd 29d7 7d3d ece8 c03d
00000020: 50f5 da3d 3941 9abd
-0.090362005 -0.085652515 -0.06970393 -0.053005937 0.05401684 -0.1085163 0.06197277 0.09419426
0.10691321 -0.075319715
