HW1/saved models/Model 4 - Split image-16, lr=0.001, wd=0.0001, bs=64.pkl (torch_old, 694999 bytes, 36 tensors)

linear1.weight f4 [36, 49]
000000 e6 c6 b9 bd c9 aa de bd 3e e9 c4 bd 53 6c 26 be
       -0.0907114 -0.108724184 -0.096148 -0.1625226
000010 28 6f 0c be f7 24 07 3e 43 d5 a7 3e e8 b3 02 be
       -0.13714278 0.13197695 0.32779893 -0.12763941
000020 8a 1d aa bd 5e 88 07 be 14 db 60 3d 65 64 10 3e
       -0.083064154 -0.13235614 0.05489643 0.14100797
000030 c4 ca 6b 3e 79 1a 4a 3e 0b 45 af 3d ea e2 f7 bc
       0.23026568 0.19736661 0.08558091 -0.030259568
000040 fb 2b a2 3d d9 ef 9b 3e e0 8a 97 3e 63 86 1e bd
       0.07918545 0.30456427 0.2959814 -0.03870238
000050 da e2 33 be eb b6 b8 3d a7 84 d7 3d 85 c2 ed 3c
       -0.17567006 0.09019264 0.10523348 0.029023418
000060 1f b5 75 3e 2f 2c 15 3d 43 a3 a6 bd 52 2c 06 be
       0.23994873 0.03641909 -0.081366085 -0.13102844
000070 77 21 23 3e e0 c9 3a 3d 45 f6 90 3d 72 99 91 3d
       0.15930735 0.04560268 0.07078222 0.071093455
000080 4b bf 48 bd 82 73 f2 bd 47 ca 13 be 05 98 e3 3b
       -0.049010556 -0.118384376 -0.14432631 0.0069456124
000090 41 4a 99 bc 02 8b 4b 3d 70 9e d5 bc 14 f9 79 be
       -0.018712165 0.049693115 -0.026076525 -0.24411422
0000a0 70 e6 81 bd fd 5d 0d 3e 9a 8b 64 be ac e4 60 bd
       -0.063427806 0.13805385 -0.22318879 -0.05490558
0000b0 4b e5 f3 3d 00 d1 0b be e8 0d 23 3c 63 df 21 3d
       0.119089685 -0.13653946 0.009952046 0.03951968
0000c0 73 6d 1f 3d fe 50 b2 bd d9 c8 90 be b7 40 c9 bd
       0.03892274 -0.08706854 -0.28278235 -0.098267965
0000d0 69 d0 c0 3c 02 9e 10 be 8e 55 97 bd 85 5d 1e be
       0.023536878 -0.14122775 -0.07389365 -0.15465362
0000e0 c1 6c 8a be 24 1c ca be 30 9c 7c be 39 a1 25 be
       -0.27036098 -0.39474595 -0.24668956 -0.16174783
0000f0 21 38 82 be 75 da 8a be 0b 4b e7 bd 6e 20 c8 3d
       -0.25433448 -0.27119794 -0.1129361 0.097718105
000100 e3 ed b8 bb 9f cd ed bd 7b 15 80 be 5b 5d cc be
       -0.0056435927 -0.11611485 -0.25016388 -0.39914975
000110 9d 88 ad be d3 82 c2 be a0 1f ad 3e 99 02 5e 3e
       -0.3389329 -0.37990436 0.3381319 0.21680678
000120 42 3f 66 3e 8d 19 7a bc b6 1f 1c 3e d2 5b 01 3d
       0.22485068 -0.015264881 0.15246472 0.031581707
000130 81 66 57 bd 7d b5 8c 3d f6 be 67 3e fc 60 b2 3e
       -0.05258799 0.06870554 0.2263144 0.34839618
000140 df 7f aa 3e 9f 9b 6c 3e 93 20 1f 3e b0 28 1a 3e
       0.33300683 0.2310624 0.1553977 0.15054584
000150 99 10 40 3e 5e b4 45 3e 8f 93 46 3e ff 58 8c 3e
       0.18756332 0.19307086 0.19392227 0.2741165
000160 97 5b 03 3e 07 90 e3 3d 28 27 ad 3e 68 8e b1 be
       0.12827908 0.111114554 0.33818936 -0.3467896
000170 47 92 08 be 26 41 1c bd 04 d1 e0 38 8c 94 56 bd
       -0.1333705 -0.038148068 0.000107200845 -0.05238776
000180 8a d5 03 be 6d 54 7b 3b d5 5d 12 3c 7e 6e 0f 3e
       -0.12874427 0.0038349882 0.008933504 0.14006993
000190 3a a8 8e 3e 75 8e b3 3e 23 17 bd 3e f0 02 96 3e
       0.27862722 0.35069624 0.36931714 0.29299116
0001a0 ee 19 85 3e 4f 96 32 3d ee db 38 3e a3 04 1f 3b
       0.25996345 0.043600377 0.18052647 0.0024264238
0001b0 b8 b8 fe bc 68 a7 a6 bd 22 44 19 3d ec e8 53 3d
       -0.03109394 -0.08137399 0.037418492 0.051735803
0001c0 bb fd b6 bd c0 44 ac be 90 60 8c be 39 a5 54 be
       -0.08935114 -0.33646202 -0.2741742 -0.20766152
0001d0 a1 df ee be 26 e8 b5 be 85 5e 0f be 2b c2 d5 bc
       -0.4665499 -0.35528678 -0.140009 -0.026093563
0001e0 06 a5 cb be 5d de aa be 7d 6b a2 be f5 d1 86 be
       -0.3977434 -0.33372775 -0.31722632 -0.2633206
0001f0 2f 9c bf be c5 43 8d be 8e c2 ff 3e 90 d8 25 3e
       -0.37423846 -0.27590767 0.4995312 0.16195893
000200 46 7e 53 bd 3b 1d f3 3c f1 09 34 3e c7 7a 3d 3e
       -0.051634096 0.029677024 0.17581917 0.18503867
000210 79 a1 2c 3e ae 09 52 3e 3b 41 b2 3d ad c0 84 3d
       0.16858472 0.20511505 0.08703848 0.064820625
000220 5e d5 39 bc 1c 37 63 3e 85 2e 04 3e 43 e9 37 3e
       -0.011342375 0.22188991 0.12908371 0.17960076
000230 1c 07 f8 bc 98 2a a2 3d c5 13 11 3e 97 2b bf 3c
       -0.030276828 0.0791828 0.14167698 0.023336215
000240 8c 56 09 3e 79 57 39 3d 8d 64 5c 3d c7 4b 61 bd
       0.13411921 0.045249436 0.05380683 -0.055003908
000250 e2 4d 1e ba d7 dd 5e 3e 4b 1b 65 3e 1b 48 ad 3e
       -0.0006038827 0.21764313 0.22373693 0.33844075
000260 9c 5d d8 3d cd 1a 63 3e dd df f8 3d 8b 3e 3a be
       0.105647296 0.22178192 0.121520735 -0.18187921
000270 90 a1 4a be 7a 3f 2d bd ed ac 71 3e 8e 75 4e 3e
       -0.19788194 -0.042296864 0.23601122 0.20162031
000280 15 30 92 3c 58 5f da bd a9 32 2f be 18 0e 08 be
       0.017845193 -0.106627166 -0.17109169 -0.13286626
000290 36 fa 2c be 70 4c 35 3e e2 d9 6f 3e 28 51 8b 3e
       -0.16892323 0.1770494 0.2342296 0.27210355
0002a0 56 f1 22 bd 9d 06 10 be 7d 69 c1 be b3 0b 82 be
       -0.039780937 -0.14065023 -0.37775794 -0.2539955
0002b0 a3 34 83 3d 49 ef 65 3e fc cc 27 3e c1 f0 81 3d
       0.06406524 0.22454561 0.16386789 0.06344748
0002c0 67 d3 d2 bd 26 64 96 be a5 7f a9 bd 9c f7 b5 bd
       -0.10294228 -0.29373282 -0.082762994 -0.08885118
0002d0 eb ce ae 3e b0 a0 3f 3e 8f 13 6b bd 61 40 83 bd
       0.3414224 0.18713641 -0.0573917 -0.06408764
0002e0 f2 3d 74 be d3 04 86 3d 05 d6 44 3e 62 35 f1 3d
       -0.23851755 0.06543889 0.19222267 0.1177776
0002f0 68 8b aa 3e c0 76 96 bc fa ee 15 be a9 a4 b0 bd
       0.33309484 -0.018367171 -0.14641944 -0.086251564
000300 d4 dc 9d 3e 14 01 88 3d 73 a9 4e 3e 9b 18 1f 3e
       0.3083254 0.06640831 0.20181827 0.1553673
000310 ef b8 57 3b 50 2e d0 bb 43 32 0b 3e 71 6d b8 3d
       0.0032916625 -0.006353177 0.13593392 0.09005249
000320 dc a8 0b bd 98 d6 15 be 7c 65 ac be 6a 6e 60 be
       -0.034096584 -0.14632642 -0.33671176 -0.2191712
000330 4d 13 4e be 60 ac f9 bd 08 15 76 bd c9 1e e0 3d
       -0.2012455 -0.12191081 -0.06007865 0.10943372
000340 a4 c1 80 bd 1d f3 f1 be 58 b8 7d 3e 9c 36 d8 bd
       -0.06286934 -0.47255793 0.24777353 -0.10557291
000350 1a 1c 84 38 a4 fe 9f 3d a5 df 22 3e f9 87 0e 3e
       6.299485e-05 0.07812241 0.15905626 0.13919057
000360 1c 99 7e be 54 c7 b0 3e ec 44 a8 3d bf 28 24 be
       -0.24863094 0.34527075 0.08216271 -0.16031168
000370 b8 4e f7 3c f1 57 c1 3e ed bd c3 3e bb d9 cf 3e
       0.030188903 0.37762406 0.3823084 0.40595803
000380 03 f5 d2 bc f7 43 eb 3c 46 dd d4 3a 5f 97 f0 3d
       -0.025751596 0.028718932 0.0016240261 0.11747622
000390 86 47 2d 3e 4f 93 a0 3e ed 67 eb 3e b6 eb df 3d
       0.16921815 0.31362388 0.45977727 0.1093363
0003a0 67 6e a0 bc 75 1c b8 bd 9f 24 9b 3c 46 bd 0b bd
       -0.019583894 -0.08989803 0.01893836 -0.034116052
0003b0 b1 ee ad bd b5 87 5f bd fe 3e 42 be 5a 08 23 3c
       -0.084927924 -0.05457278 -0.18969342 0.009950722
0003c0 61 53 13 be b3 8d be be 60 34 ba be 83 ae a4 be
       -0.14387275 -0.37217483 -0.36368084 -0.32164392
0003d0 5c a9 04 be db c2 3b 3e 1e 57 34 be 7b 3b 1e be
       -0.1295523 0.1833605 -0.17611358 -0.15452377
0003e0 88 61 dd bb 7b f2 86 3d 1c 65 1b 38 ce 64 42 bd
       -0.0067560114 0.06589218 3.7049045e-05 -0.047459416
0003f0 0f a1 99 3e 2d f9 8c be 74 69 09 be db 03 74 be
       0.3000569 -0.27533856 -0.13419133 -0.23829596

linear1.bias f4 [36]
000000 19 ff 97 be 31 53 63 3e 1a 4a ad bc cb 18 2d 3d
       -0.29686812 0.22199704 -0.021153498 0.042259973
000010 bf 42 c6 3d 99 3e 44 3d d3 9a ce bd ee 98 bb bd
       0.096806996 0.04791126 -0.10088124 -0.091600284
000020 a1 1e 27 bd ce 06 05 3e 1c f4 67 bd 67 42 84 3c
       -0.040800694 0.12990877 -0.056629285 0.016144944
000030 5c 0d 29 be 2e 62 60 3e fe 26 5a 3e d7 ab f8 bc
       -0.16509002 0.21912453 0.21303937 -0.030355377
000040 d9 09 88 3e f9 ce 2f be e6 cb 27 be 6e 40 f7 bd
       0.26570013 -0.17168798 -0.16386375 -0.12072836
000050 32 fa 74 3d 85 60 31 bd e4 89 d6 bd c5 41 c4 bc
       0.059808917 -0.04330494 -0.10475519 -0.023957143
000060 87 21 7f be 35 99 f7 3d dd 15 b2 bc 73 c6 c6 bc
       -0.24915133 0.12089769 -0.02173894 -0.02426455
000070 48 69 3d be 1c 89 65 3d f9 79 1a bd 48 ca 91 bd
       -0.18497193 0.05603896 -0.03771398 -0.0711866
000080 ff 11 1e 3d 6c c4 e7 3d ae 53 a8 be 71 3d 2e be
       0.03859138 0.113167614 -0.32876343 -0.17015626

linear2.weight f4 [18, 36]
000000 cb 35 ab bd ca ad 52 be b1 05 e0 bd 0e ec 12 be
       -0.083598696 -0.20574108 -0.109385855 -0.1434786
000010 6e e9 c4 bd 53 d9 e5 3d 7a 0d ef bd ad d1 0c b9
       -0.09614836 0.11223092 -0.11672492 -0.00013429551
000020 27 c1 b5 3d 45 18 57 3e cf aa 69 be b1 97 1b be
       0.088747315 0.21005352 -0.22819065 -0.15194584
000030 2b 18 84 be f2 ca 97 3b 33 02 21 bd 6a 5e 49 be
       -0.2579969 0.0046323473 -0.039308738 -0.19664922
000040 4c 50 97 be ae 72 2c be e1 ed 2e be e1 2d 8d 3d
       -0.2955345 -0.16840622 -0.17082931 0.06893516
000050 4f 3d 01 3e fe 69 42 be f9 32 08 3e 80 9d 86 be
       0.12621044 -0.18985745 0.13300695 -0.26292038
000060 70 bb c0 3d 92 bd 63 3c dd a6 82 3e 5e 02 38 3d
       0.09410751 0.013900178 0.25517932 0.044924133
000070 cd 0b 1e be 50 43 d3 3c 41 a6 a3 3e 80 ca aa 3c
       -0.15434189 0.025788933 0.3196278 0.020848513
000080 50 62 cf bd 6c 79 10 bd d4 29 bd 3e fc d9 ed 3c
       -0.101261735 -0.035272047 0.36945975 0.029034607
000090 db 7e 3c be 1c a2 2e 3d d2 72 c6 3d cb c2 53 3c
       -0.18407767 0.04263507 0.09689869 0.01292486
0000a0 f8 89 07 3f ac 59 44 be 4d 5f 9e bd 6c bd 2c be
       0.529449 -0.19174832 -0.07733021 -0.16869134
0000b0 7a 48 64 be 7f 6f 22 3e 10 89 34 bd 6e f8 bd 3e
       -0.22293273 0.15862845 -0.044076025 0.371036
0000c0 34 f8 f0 bc fe 5c 88 3d 64 d4 df bd 98 eb 03 3e
       -0.029415227 0.06658362 -0.10929182 0.1288284
0000d0 26 52 00 3d f2 b8 ae 3e 6c 18 79 bd d9 2e d7 bd
       0.031328343 0.34125477 -0.060814306 -0.10506982
0000e0 f8 16 67 be ab 1f cc 3d ad d8 62 3e 08 c4 8a 3e
       -0.22567356 0.09966978 0.22152968 0.27102685
0000f0 03 6b ac be ed 50 76 3c 4c 82 0e bd a8 f7 e3 3d
       -0.33675393 0.015033943 -0.03479223 0.11131221
000100 11 e0 d6 bd 94 85 8f 3d 3b b3 db 3c 3d 19 78 be
       -0.10491956 0.070079 0.026818862 -0.24228378
000110 b2 87 f6 3d be 49 77 3e 06 dc e6 be 7d 3b b8 3d
       0.120376006 0.24149224 -0.4508974 0.089957215
000120 9f 79 dc 3d 7e 12 78 3c 4b dc a1 be 7e ff d6 bd
       0.10765385 0.015141128 -0.31613383 -0.1049795
000130 ba 1b c0 bd 1f 6a 91 be 7e 7a 8f 3d 2f 33 86 3e
       -0.093802884 -0.28401276 0.070057854 0.26210925
000140 cd 3a 19 3f 0f 1b 06 be 13 56 70 be b8 14 64 bd
       0.5985535 -0.1309626 -0.23470335 -0.05568382
000150 1e b9 79 be ca a1 d2 be 61 2c 16 bb de a2 cf 3e
       -0.24387023 -0.4113906 -0.0022914635 0.40553945
000160 3c b7 69 be 52 9c 3e 3e e4 40 76 3d 18 9f dc 3e
       -0.22823805 0.18614319 0.06012048 0.4309013
000170 a1 2c 7e bc 58 cd 8c 3e b3 bc b2 be a7 1e 00 be
       -0.01551357 0.27500415 -0.3490959 -0.12511693
000180 c0 09 23 3e 7a af 7b be 72 ad 7b 3e e0 91 ae be
       0.15921688 -0.24578658 0.24577883 -0.3409567
000190 9f 50 13 3e 4f a0 a6 bd 85 47 9b 3d 0d 94 86 3b
       0.14386223 -0.08136045 0.07582001 0.0041070045
0001a0 7a a2 ef bd 41 33 43 be f8 a4 6c 3e 10 d8 c9 bb
       -0.11700912 -0.1906252 0.23109806 -0.00615979
0001b0 43 9d 23 bd 5d ec ed 3d 59 17 d0 be 6b 88 5e 3e
       -0.0399449 0.11617348 -0.40642813 0.21731727
0001c0 7a b9 45 3e bb 8e 18 3c ac b2 76 be fd 8c 24 3e
       0.19309035 0.009311373 -0.24091595 0.16069408
0001d0 8b 24 95 3d 94 4e 8c bd 7a 56 c9 be 2e 30 f8 bd
       0.07282361 -0.06850925 -0.3932379 -0.121185645
0001e0 a2 91 fa bd c7 0b af be 50 08 f5 3d ed 4c a9 3d
       -0.122348085 -0.34188673 0.11964476 0.082666256
0001f0 97 3e 0f be 9b d5 a9 bd 66 c2 70 bc f9 36 cf be
       -0.1398872 -0.08292695 -0.014694786 -0.40471628
000200 f6 35 3b 3d a3 ec 8d bc 62 05 81 3e 46 70 8e 3e
       0.045705758 -0.017324751 0.2519942 0.27820033
000210 d1 78 23 3e 0a 50 4c 3e 76 d0 97 3d 6b 4c 8b be
       0.15964057 0.19952407 0.07412808 -0.2720674
000220 35 ee ba be 52 22 70 be 31 4b 92 bd 49 23 5d 3e
       -0.36509863 -0.23450592 -0.07143248 0.21595491
000230 3f fe e0 bd 6c fe a2 3d d1 f2 6a be 48 58 08 bd
       -0.109859936 0.07958683 -0.2294419 -0.033287317
000240 f6 4e 86 bd 4e 70 35 bd ad 20 b2 be 5d 75 27 3e
       -0.06558029 -0.044296555 -0.34790555 0.16353364
000250 59 ca 07 bf 01 02 8b be 64 2b 94 3e 77 0f 5f 3e
       -0.53043133 -0.27149966 0.28939354 0.21783243
000260 72 57 0e 3e 37 db 80 be c4 46 3f be e4 d2 d7 be
       0.13900545 -0.25167248 -0.18679339 -0.42153084
000270 4e 93 8a be 21 ae f7 bd 31 37 8a 3e 88 d0 5b 3e
       -0.2706551 -0.12093759 0.26995233 0.21466267
000280 1c 83 af bd cf c8 03 3e 70 b0 ed 3d 8d 70 d9 3d
       -0.08569929 0.12869571 0.116059184 0.106171705
000290 45 91 37 3e 20 14 a2 3e 14 d7 96 3e 6b 4c c8 be
       0.1792651 0.3165598 0.29460967 -0.39120802
0002a0 3c 2e ed bd 4e 29 de 3c 2d 56 56 38 ce 36 48 3e
       -0.11581084 0.027119305 5.1101833e-05 0.19552156
0002b0 fd 71 1f 3b 2c 50 d6 3e d6 c9 9b be ca bd 47 3b
       0.0024329417 0.4185804 -0.30427426 0.0030478113
0002c0 0b 4e 2d 3e 4c 41 62 3e 7c 37 f0 be 2f 44 90 3e
       0.16924302 0.22095221 -0.4691733 0.2817702
0002d0 52 92 92 bd 8a 42 93 be ce 3f bc 3e 5b f6 d3 3d
       -0.07156815 -0.28761703 0.3676743 0.10349723
0002e0 e2 fd 8f bd 74 54 80 be a7 d2 32 bd e4 95 60 bd
       -0.07030846 -0.25064433 -0.043657925 -0.054830447
0002f0 df 25 f0 bd 41 36 96 be 53 84 a9 3e bc de 10 3f
       -0.11725973 -0.29338267 0.33108768 0.56589866
000300 0f 00 be 3e ca 4b 98 3e e2 d8 ab bd 4b aa f2 bd
       0.3710942 0.29745322 -0.083909765 -0.11848887
000310 11 9f 11 3e 2b bc d9 be d4 8f 23 3e 9f 77 a2 bd
       0.14220835 -0.42526373 0.15972835 -0.07932972
000320 ef cc b0 be cf 5e 74 be 7e 06 e1 3e 31 d0 b2 3d
       -0.34531352 -0.23864292 0.43950266 0.087311156
000330 41 32 b8 3d ed 36 6b 3e f8 d6 34 be 6c 4f 9b be
       0.0899396 0.22970171 -0.17660129 -0.30334032
000340 ce d3 bc be 5f 10 bd 3d 5a 1a b9 bd 98 6e 2b 3e
       -0.36880344 0.09231638 -0.09038229 0.16741407
000350 84 f5 0c be ee 49 2f be 9a 55 b2 be 76 37 4c 3e
       -0.13765532 -0.17118046 -0.34830934 0.19943032
000360 9c c7 44 be 92 32 b2 be 12 98 e7 3e 18 98 1d 3e
       -0.1921677 -0.34804207 0.45233208 0.1539005
000370 4a 44 0c be 9c fd 1d 3d a2 34 b5 bd 1e 0b ba be
       -0.13697925 0.03857194 -0.088479295 -0.36336607
000380 53 77 09 be 8f 33 08 bd 5c 8c c6 3e 80 ce c9 3d
       -0.13424425 -0.033252295 0.3877896 0.0985384
000390 23 f8 4b 3e 46 de e9 3e f8 97 27 be 30 0a 0e bf
       0.19918875 0.45677394 -0.16366565 -0.55484295
0003a0 ba 02 4a be 29 5d d2 bc 9f dd a3 bd 78 09 fe bd
       -0.19727603 -0.025679188 -0.08001255 -0.1240415
0003b0 c1 01 ea bc 79 9e ef 3d 59 fa ac bd 6c ce be be
       -0.02856529 0.11700148 -0.084461875 -0.37266862
0003c0 f7 e0 a7 bd 78 bc 6c be c7 9c f2 be 30 89 48 3e
       -0.081972055 -0.2311877 -0.47385237 0.19583583
0003d0 11 83 ad be 20 bf c6 3e 5f 14 70 3e a2 79 87 3d
       -0.33889058 0.38817692 0.23445271 0.066149965
0003e0 d4 1b 64 3e e2 74 73 3c 09 55 b3 3d ff 7c 21 bc
       0.2227624 0.01485941 0.087564535 -0.009856462
0003f0 63 16 5e 3e 38 ee 70 be 79 80 d6 bd da 93 0d bf
       0.21688227 -0.23528373 -0.10473723 -0.5530373

linear2.bias f4 [18]
000000 da 52 d5 bd f9 d5 7b 3d b2 54 ae be a1 00 88 3d
       -0.10416193 0.061483357 -0.34048992 0.06640745
000010 a4 ac 24 3e 53 c8 4d 3d e7 84 ba 3d 15 b7 e8 bd
       0.16081482 0.050239872 0.0910738 -0.11363045
000020 f9 4f af bd 94 51 b6 3d dd 84 0f 3e 31 d6 da bd
       -0.085601754 0.089022785 0.14015527 -0.10685385
000030 35 b6 8e bd 4d b4 81 3d 43 a2 89 3d 5a a6 55 3e
       -0.06968347 0.06333218 0.06720402 0.2086424
000040 48 95 fa 3d cd 0a 8a bd
       0.122355044 -0.06740341

linear3.weight f4 [144, 288]
000000 7f f9 24 00 71 f3 63 38 97 2d 90 3c e0 a0 87 2d
       3.39558e-39 5.434774e-05 0.017599864 1.5419166e-11
000010 3e c7 cd 3c 3d 91 fc 3b 83 6f 24 b9 4a d5 fb 3c
       0.02511942 0.0077077434 -0.000156818 0.030741353
000020 9d 4b 70 bc d2 cf 27 3c a0 34 93 bc c9 6c d9 bc
       -0.014666465 0.010242419 -0.01796943 -0.02654113
000030 2b 97 92 bb 62 49 ab bb 1a 97 e6 bb f4 4b aa 28
       -0.004473587 -0.005227254 -0.0070370557 1.890673e-14
000040 60 56 1a 38 8a 6d b1 b7 8c 2f 5e bb 85 0b 83 bc
       3.6796904e-05 -2.1151052e-05 -0.0033902852 -0.015996704
000050 31 c1 14 bd 26 ec 62 3d e4 5a ea bc b1 6a 9c 3c
       -0.036317054 0.05540099 -0.028607793 0.019093843
000060 41 a9 e9 bc 1b 20 95 bb 6f 94 bb 3d 8a 1c 82 3c
       -0.02852309 -0.0045509464 0.09159171 0.01588275
000070 36 ed a0 3d 65 0a 90 3d 80 fa 2d 3b e0 3b be bd
       0.078577444 0.070332326 0.0026547015 -0.09288764
000080 3d a3 94 3d 2a 5a f4 bc 11 7f 63 3d c6 d5 49 3d
       0.07257698 -0.02982815 0.0555411 0.049276136
000090 a9 0a 49 ba 42 ea a3 3d d0 02 81 bc e3 92 56 3d
       -0.000766913 0.080036655 -0.015748411 0.052386176
0000a0 d3 98 3c 3d c3 9d da 3b d5 bd a5 bd c6 09 16 bc
       0.046044182 0.0066716387 -0.08092848 -0.009157604
0000b0 f3 ca da bd cc dc 1a 3d 24 eb 79 bd 6c fa 34 b9
       -0.10683241 0.037808225 -0.061015263 -0.00017259427
0000c0 09 f9 8f bd 88 f1 e6 3c 55 ed 17 bd e7 3e c9 3d
       -0.070299216 0.028191343 -0.03709157 0.09826451
0000d0 d2 72 62 3c 5a 81 c1 3b 27 f5 42 bb 2a 93 02 3c
       0.013821321 0.0059053125 -0.0029748173 0.007969657
0000e0 3a 5b 26 3a f8 05 74 39 6b 96 d7 3c cb f0 81 b9
       0.0006345991 0.00023271877 0.026316842 -0.00024784202
0000f0 07 9f 15 bc da bd 8a 3a 15 fb a7 3b bd 3b 26 3c
       -0.009132153 0.0010585145 0.005126367 0.010146079
000100 c0 c5 97 3c d5 cc 04 3d c9 1d 00 3d 6b 1c bc 39
       0.018526912 0.032421906 0.031278405 0.00035879327
000110 3c 24 ed 37 33 48 6c bd 7f 78 54 3c b5 2a 2f 00
       2.8269475e-05 -0.057686042 0.012968182 4.331589e-39
000120 ef 7d 16 00 d0 97 06 be dd c7 09 bb b9 b3 48 bc
       2.065557e-39 -0.1314385 -0.0021023669 -0.0122498805
000130 4e f6 91 bc 63 c8 98 bc 8d 29 c6 3c 30 0d 05 bd
       -0.017817643 -0.01865024 0.024189735 -0.03248328
000140 a7 c8 89 bc 9e d5 cf 3b c4 0d 7a bd 09 66 41 3d
       -0.016819311 0.006342604 -0.061048284 0.04721645
000150 cd 31 73 bd f9 1d d7 bb 6c 38 32 bd 84 f3 18 b8
       -0.059373666 -0.0065648523 -0.04351084 -3.6466416e-05
000160 92 34 b9 bc 78 f0 0e 3c 3f a8 fe 3c 5b 26 c6 3d
       -0.022608075 0.008724324 0.031086085 0.096752845
000170 c1 10 6c bd cc e0 0b bd c2 00 c9 bd 62 ae 47 bd
       -0.057633165 -0.03414993 -0.09814598 -0.04875029
000180 cf c7 74 3e ac 19 6e 3e 50 9a 5f 3d 0f c4 0f 3d
       0.23904346 0.2325198 0.054590523 0.035099085
000190 4b e4 2f 3e e7 1b f0 bd c2 f6 7b bb 52 14 eb 3d
       0.1717693 -0.11724072 -0.003844664 0.11478485
0001a0 9c bd 12 bd 4d 65 99 3d 64 c5 03 3e 8a 9e bf bd
       -0.035825357 0.07490025 0.12868267 -0.09356411
0001b0 a3 0b 90 bd 8a 74 08 be a9 42 bb bb a1 3c c0 3d
       -0.070334695 -0.13325706 -0.0057147336 0.09386564
0001c0 d9 d9 16 be bb de 43 3e 64 d5 39 3e c9 47 2c be
       -0.1473154 0.19127934 0.18147808 -0.16824259
0001d0 3c 35 1c 3e 5e fe 8a bb fb 5a 60 bb 98 40 5a bd
       0.15254682 -0.0042417487 -0.0034233916 -0.053284258
0001e0 1c 4c 9f bd 2f 3c 84 3c 5a 64 61 3c 9f 3f 91 be
       -0.077781886 0.016141979 0.013756836 -0.28368852
0001f0 97 ff 4f 3c 01 6b 4b be 11 b1 e1 3d fd 44 0f 3d
       0.012695215 -0.19865038 0.11020101 0.0349779
000200 4e 63 9d bd 3a aa d3 bc 4b 02 1d bc 48 cb 76 bc
       -0.076849565 -0.025838006 -0.009583066 -0.015063114
000210 8b bd 62 3c f7 10 af 3d e6 39 78 bc c7 d8 c1 3b
       0.013839136 0.08548158 -0.015150523 0.0059157345
000220 8f a4 a8 bd 1b fd ad bc c6 09 d1 bc b8 77 b2 bb
       -0.08234512 -0.021238854 -0.025517356 -0.0054464005
000230 21 b5 fa bc bb eb 23 bd 04 9f f4 ba 1c e7 3d bd
       -0.030603947 -0.040019732 -0.0018663113 -0.04636298
000240 40 68 21 2f e7 7d 8e bd 7e 02 8c bd 3a c8 a2 bc
       1.4679902e-10 -0.06957608 -0.06836413 -0.019870866
000250 99 a1 b1 bd 28 34 74 3c 0c a1 0d 3d 34 ee 9f 3a
       -0.086734004 0.014905013 0.034577414 0.0012201727
000260 0a 07 be bd d3 9c 1a 3b 89 f0 cf bd 97 fc 75 bd
       -0.09278686 0.002359201 -0.101533 -0.06005534
000270 08 4a 9e bd 5a bc 4c bd db 29 30 be 80 40 7c 36
       -0.07728964 -0.049984314 -0.17203467 3.758847e-06
000280 69 92 dc 38 1c d9 a2 bc 65 dd a9 bc cd 01 4a 3c
       0.000105176885 -0.019878916 -0.020735452 0.012329531
000290 8d 01 28 3d e9 a1 8c 3e 2b d9 cf 3d 33 12 90 3d
       0.041017104 0.27467278 0.101488434 0.07034721
0002a0 7d 16 fb bd 4f 36 61 bc 54 f1 0d bd 06 e6 09 3e
       -0.12260149 -0.013745858 -0.034653977 0.13466653
0002b0 3f 89 a0 bd 97 95 e0 bd 72 9b ed bd fd 9c 0c be
       -0.078386776 -0.10966032 -0.116019145 -0.13731761
0002c0 71 b9 57 3e e2 a7 8a 3d 94 59 bc bd 67 48 52 3e
       0.21066834 0.06770302 -0.09196773 0.20535432
0002d0 2f 21 2c 3c 91 1e 30 be 41 58 25 3d ee 81 90 ba
       0.010505958 -0.1719916 0.04036737 -0.001102505
0002e0 ae 0b ab be 3f 36 35 3e 25 21 ab 3d 54 8e 24 3d
       -0.33407348 0.17696474 0.08355931 0.040174797
0002f0 5a 21 72 3c b6 56 a6 bd b5 ec 63 ba c1 3c b7 bd
       0.014778459 -0.081220075 -0.0008694635 -0.08947135
000300 3c d7 d2 be 59 bd 82 be 76 87 1d be 58 aa 37 bd
       -0.41179836 -0.25535086 -0.15383705 -0.044840187
000310 1a 05 1a bc 29 0f 33 be 4a d5 1f be 34 9b 38 3d
       -0.00940063 -0.17486252 -0.15608707 0.04506989
000320 a7 32 90 3b cd 5c 3a 3d 70 3a 5b 3d b3 99 8c bc
       0.0044005695 0.045498658 0.053522527 -0.017163133
000330 e4 20 88 bd 36 24 13 be e6 d1 b4 b8 7f 3f 31 bc
       -0.066468984 -0.14369282 -8.6221655e-05 -0.010818361
000340 fd af dc 3d 98 4e 80 3a 4b a5 05 bd 4c 0a 92 3b
       0.107757546 0.0009789048 -0.03262834 0.004456794
000350 14 52 62 3d d0 bc 82 3d 7b 9d 00 3e 63 5e 05 bc
       0.055254057 0.063836694 0.12560074 -0.008140179
000360 2d d1 2e 00 e5 8f fe 3c a3 97 00 bd 7e 2c f4 38
       4.299471e-39 0.031074474 -0.031394612 0.00011643114
000370 00 f8 8e bc de 1b c4 bd 86 1b 17 be 1d 25 a2 bc
       -0.01745224 -0.09575628 -0.14756593 -0.019793088
000380 67 b8 ad bc a4 8e 0b 3c f6 ab 49 3d c5 83 e8 3d
       -0.021206094 0.008517895 0.04923626 0.11353258
000390 fe e9 91 3d 7f d1 55 be 01 fb 5d 3d 54 67 85 b2
       0.071247086 -0.20880698 0.054194454 -1.5530226e-08
0003a0 04 80 f6 3c 7c 95 ff 31 20 53 fa bd e7 02 18 3e
       0.03009034 7.438471e-09 -0.12222886 0.14844857
0003b0 c3 b2 93 bd 3b 4c b9 bb 7c 3f 60 39 e8 92 2a 3a
       -0.072118305 -0.0056548393 0.00021385954 0.0006506876
0003c0 e4 97 0e be cd a7 1a be 93 3e 00 bd 2d 46 af 3c
       -0.13925129 -0.15103073 -0.031309675 0.021395767
0003d0 ca 73 da bc 13 6f 19 3c ce ca 30 bc 35 e1 1c bc
       -0.02666654 0.009364861 -0.01079054 -0.009575178
0003e0 72 10 bb 3d 15 05 01 bd 68 e3 46 3e f2 31 6e 3d
       0.09133996 -0.031498987 0.19422686 0.0581531
0003f0 b9 46 b7 bc 46 c9 6f 3e b8 64 67 3d 15 79 bc ba
       -0.02237259 0.23416623 0.056492537 -0.0014379347

linear3.bias f4 [144]
000000 5f 36 17 3d f3 12 06 3d 6e d7 f5 bc 57 40 68 bd
       0.036917087 0.032732915 -0.030009951 -0.056701984
000010 c5 6b 0e bc f2 9a f8 3c d6 3a 7e b7 76 3b 3b bc
       -0.008692686 0.030347321 -1.5153279e-05 -0.011427751
000020 46 8d a6 bb 2b 81 19 00 0d 82 b0 bc 72 17 dc 3d
       -0.005082759 2.342224e-39 -0.021546388 0.10746659
000030 99 00 68 2c 14 08 70 bd 84 20 93 bc fd 1e 24 bc
       3.2969515e-12 -0.058601454 -0.01795984 -0.010017154
000040 08 01 10 3d 63 3c 51 bc 5f 7d 7f bd a5 50 1e bd
       0.035157233 -0.012770745 -0.062375423 -0.038651127
000050 d4 1f 97 ba 62 5d 56 bd fa 21 55 3d 58 4b bd ac
       -0.0011529871 -0.05233515 0.052034356 -5.380068e-12
000060 c2 0a 39 bd b1 a5 26 bd 05 b4 bb 3c db 99 7e bd
       -0.045176275 -0.04068536 0.022912988 -0.062158447
000070 2d aa 26 ae 59 85 7a bb 2f f2 2a bd 8b d0 83 bc
       -3.7895177e-11 -0.0038226454 -0.04173487 -0.016090652
000080 c0 ac dc 10 b5 6d 41 bc 23 1b 55 bd f9 c4 4d bc
       8.7040863e-29 -0.011805941 -0.052027833 -0.012559169
000090 cf 17 12 bc ce 53 46 bd fb ff 12 3c 0e db a9 bd
       -0.008916809 -0.048419766 0.008972163 -0.082937345
0000a0 9f 3c 87 bd 59 86 d5 bc 75 b5 38 bd 05 42 4a 3d
       -0.066033594 -0.026065039 -0.045094926 0.049379367
0000b0 19 69 1f bc 51 e3 4d 86 3e fa 51 bc 3f 88 8e bc
       -0.009729647 -3.872322e-35 -0.01281601 -0.017398952
0000c0 d6 4e 02 bc 6d 5a 0b b9 cf 27 b6 bb b3 34 8e b0
       -0.007953366 -0.00013289759 -0.005558945 -1.0346838e-09
0000d0 10 8e bb bd 53 5d 20 00 ee d4 7e bd 12 ac 05 3d
       -0.09157956 2.972214e-39 -0.062214784 0.032634802
0000e0 24 b6 1b 3a 40 87 6d bd 5a 73 c2 3c 3b 9d 36 bb
       0.0005939922 -0.057990313 0.023736645 -0.0027864713
0000f0 16 ee 6f b9 a0 3e ff 3b 6f 4b b0 b7 1b 0b cf 3c
       -0.0002288151 0.007789448 -2.1015961e-05 0.02527385
000100 43 ab ed bc e8 d3 7b bd d2 bb b4 bc 52 a3 f2 bc
       -0.029012328 -0.061481386 -0.022062216 -0.029618893
000110 6f 1b b5 2a f0 bf 77 b7 a1 ee ab bb 30 a7 61 3c
       3.2171095e-13 -1.4767036e-05 -0.0052469526 0.013772771
000120 b1 24 0f bd 88 4b fc 39 bf a0 26 bd d3 83 cf b7
       -0.0349471 0.0004812146 -0.040680643 -2.4737708e-05
000130 32 ba 8c bd 1d c6 93 b7 4e fe ed b7 69 4a 1e ba
       -0.068714514 -1.761602e-05 -2.8371021e-05 -0.00060383097
000140 3d 8d 35 34 e0 91 09 3b db 97 64 b5 36 63 27 b1
       1.6908321e-07 0.002099149 -8.51576e-07 -2.4358093e-09
000150 cd c1 a3 bc 1d 52 43 bd 94 70 28 bd ef 7a d4 3c
       -0.019989872 -0.04768573 -0.041122988 0.025937526
000160 07 8a 01 bd d6 75 aa bd 68 83 c2 32 df f2 81 bb
       -0.031625774 -0.08323257 2.2644329e-08 -0.00396572
000170 ba 8b 05 bd b1 86 e3 3c 75 4d 95 bc 05 dc 34 bb
       -0.032603957 0.027774187 -0.018225411 -0.0027596962
000180 49 30 b0 bc de e2 44 bd ed 47 cd b0 3f c6 c2 3b
       -0.0215074 -0.04806792 -1.4936156e-09 0.005944043
000190 26 65 0b 3c e2 e1 f6 bc 34 c1 a3 bc ca 2d f7 bb
       0.008508002 -0.030137006 -0.019989587 -0.0075433003
0001a0 41 00 08 3d a7 4c f8 b7 c8 89 eb bb 26 44 a2 3c
       0.033203367 -2.9599598e-05 -0.0071880557 0.019807886
0001b0 0e 35 19 bc 88 ae b8 3b 91 3b 03 80 c5 97 f5 3c
       -0.009351028 0.00563604 -2.96875e-40 0.029979596
0001c0 21 24 5f 3c c3 96 02 bc a0 fd c7 bc 2a 83 26 bd
       0.013619454 -0.007970515 -0.02441293 -0.04065243
0001d0 55 6f 4f bc c8 fc a0 3c df b8 6b bc be 5a 80 bc
       -0.012660821 0.019651785 -0.014387338 -0.01566827
0001e0 b9 50 28 3b a0 a7 ae 3c 0d ce db bc b4 3d 5d 3d
       0.002568288 0.021320164 -0.026831651 0.054013923
0001f0 77 b9 e5 ba 93 b6 12 bc 79 92 4e bd 8d 52 95 bc
       -0.0017526586 -0.008954662 -0.050432656 -0.01822784
000200 1b 9d 4c 3b 2a 08 52 3d 9f d3 4d 3c 6a 82 a4 3c
       0.0031221572 0.051277317 0.012562661 0.020081718
000210 05 a6 fd b8 4b 38 cb bc 11 6f 5a bb e0 0a c6 b8
       -0.00012094904 -0.024807116 -0.003333036 -9.443401e-05
000220 36 3e 9e 3a 4b 19 cf 3c d3 47 67 bc 7a 00 00 a9
       0.0012072984 0.025280615 -0.014116245 -2.8422123e-14
000230 b1 04 95 bd 9f cf eb bb 68 8f 65 bc e8 1a 4b bd
       -0.072762854 -0.007196381 -0.0140112415 -0.049586207

linear4.weight f4 [72, 144]
000000 a9 4f fa bd 20 1c 5c 3e 5e 92 3f be 23 06 4a 3d
       -0.12222225 0.21495104 -0.18708178 0.04932226
000010 e5 69 a3 bc 1c 57 7b 3e c8 32 a4 b4 08 70 0f 3d
       -0.019947955 0.24544948 -3.058433e-07 0.03501895
000020 72 de 2b be b8 7a 8a 1d cb 15 8a bd b7 2a 99 3d
       -0.16784075 3.6655184e-21 -0.06742438 0.0747885
000030 e8 bc 15 3c 5e 70 dd 3d d3 77 0c 3d 1a 5d 85 bb
       0.009139277 0.10812448 0.03429396 -0.0040699365
000040 64 ea 86 be 73 f2 35 bd ca 0d b8 3d 30 0b d0 3d
       -0.263507 -0.04442067 0.08987005 0.10158384
000050 af 9a 5f 3b ae 07 92 bc 36 bf 38 be 85 95 c8 b9
       0.0034119298 -0.017825928 -0.18041691 -0.00038258373
000060 a6 b8 01 3e 01 5c 29 bb 7b 59 c9 3d 8d 6b d6 3c
       0.12668094 -0.0025842192 0.0983152 0.026174331
000070 a5 b6 9b 31 6e bb 2c bd c2 f3 80 3d ce 60 39 3a
       4.531858e-09 -0.042170934 0.06296493 0.0007071615
000080 5a cd 98 26 ae 05 71 3e 09 e5 67 3d c3 09 66 be
       1.0602779e-15 0.23537323 0.05661491 -0.22464661
000090 c6 5b b2 ba 9f 58 2e bd 6f 0e 7d be 6b ce dc 3d
       -0.0013607673 -0.042564984 -0.24712537 0.107815586
0000a0 06 1c 4d 3d da 42 98 3d 19 dd 08 be b4 00 65 3e
       0.050075553 0.07434626 -0.13365592 0.2236355
0000b0 0a 5b f0 3d 3c 49 33 2f da 07 3a 3b 74 46 7b 3e
       0.11736114 1.6305973e-10 0.0028386028 0.24538594
0000c0 62 24 0c 3d b6 ab 06 39 94 dd e8 bd 68 e1 1f b7
       0.034214385 0.00012843203 -0.11370388 -9.52962e-06
0000d0 bf e2 c3 3e 6a ba 04 80 f0 8c a0 3d 14 6f 07 be
       0.3825893 -4.34215e-40 0.07839382 -0.13225967
0000e0 5c 9b 3c 3d 79 e7 af bd f7 69 89 3e 0c 8e 47 be
       0.0460466 -0.08589072 0.26838657 -0.1948778
0000f0 8a b6 b0 3b 17 21 3b be 1f 34 aa 3a 2c 53 43 be
       0.005392854 -0.18274342 0.0012985504 -0.19074696
000100 b3 6b 95 3d 2a 1b 1f 3b 9f 75 7d bd 46 69 c0 3d
       0.072959326 0.0024277666 -0.06187975 0.09395079
000110 e1 4f 08 ad 40 bd 7d bc 88 39 1b bc 6e 41 ab 3d
       -7.748442e-12 -0.015487015 -0.009474166 0.08362089
000120 3d ed 14 bd a7 77 0f be e2 0f e1 3c 5b 4d 03 bb
       -0.03635906 -0.14010487 0.027473394 -0.002003512
000130 13 65 90 bd 83 58 62 bc 68 72 0c 39 ae ba 33 bb
       -0.070505284 -0.013815048 0.0001339406 -0.0027424502
000140 47 c3 32 38 a0 2a f3 3d ec 59 b0 3a 8b 7a 00 3b
       4.2620373e-05 0.118733644 0.0013454533 0.0019604291
000150 ea 86 1d be af d3 34 3e 00 3f cf bd 8b 7d ff bd
       -0.15383497 0.17658876 -0.10119438 -0.12475117
000160 2e 60 16 be 42 87 a0 bd af 5e 61 b5 bc 14 76 bb
       -0.14685127 -0.078382984 -8.3956814e-07 -0.003754898
000170 f8 b3 8c 3e dc bb a8 bc 92 50 8a bc ae b9 b7 3d
       0.27481055 -0.02059739 -0.016884122 0.089709625
000180 5f 60 26 3d e2 42 29 bd 2c 5d a4 3b dd c0 d4 3e
       0.04061925 -0.04132355 0.0050159898 0.41553393
000190 5c 02 04 3e 85 01 40 be f7 47 14 be 6f a8 28 bd
       0.12891525 -0.1875058 -0.14480577 -0.041176256
0001a0 48 bf 8b 3b a8 8d 23 b6 7f 64 ff bc b2 4a 6e 3d
       0.004264746 -2.4371348e-06 -0.03117585 0.058176704
0001b0 ac 9d e0 bd c8 82 dd bd b6 b9 e4 30 4e d1 9b 3d
       -0.109675735 -0.1081596 1.6641966e-09 0.07608281
0001c0 f2 9b 9f bd e4 b9 97 bc 13 38 8e bb 97 a5 1a 3e
       -0.07793416 -0.018521257 -0.0043401807 0.1510223
0001d0 ba b4 1b 3e 71 d5 0d 3d 7b bf 40 be bf e1 10 bd
       0.1520566 0.03462738 -0.18823044 -0.03537154
0001e0 41 4b 45 bb 66 5b 87 3d 8c 68 c7 3d 3d 37 11 be
       -0.003010467 0.0660923 0.097367376 -0.14181228
0001f0 a3 c8 92 3c 18 0b 4d 3d 2c 38 9a 3d 33 d0 cd 3e
       0.017917937 0.050059408 0.07530245 0.40197906
000200 5b 63 c0 bc 6a ba 6c 3e 68 fc a3 3d 52 84 3d be
       -0.023484876 0.23117986 0.08007127 -0.18507507
000210 cc dc 2d 3a 04 b8 4b 3b 8c 6b 89 bc 5e 44 a2 3a
       0.00066323276 0.0031085024 -0.016774915 0.0012379994
000220 a2 8b 64 3b 52 8f 0f bc da 47 83 3c a5 84 a4 32
       0.0034873267 -0.008762198 0.016025472 1.9152433e-08
000230 14 ee 91 be 01 d2 af bc 08 d9 22 be 18 3c 7f 3d
       -0.28501952 -0.021462442 -0.15903103 0.06231317
000240 80 01 07 3e c7 a4 f0 bc 16 85 62 be 91 71 a3 3d
       0.13184166 -0.029375447 -0.22121081 0.079806454
000250 f5 b0 35 3e 2b a4 30 be 62 3d 11 ba 20 00 1f bd
       0.17743285 -0.17250125 -0.0005540458 -0.03881848
000260 ee 53 9d 3e 77 98 d2 15 03 68 57 be b5 c9 00 be
       0.30728096 8.505887e-26 -0.21035771 -0.12576945
000270 d1 0d 44 37 d2 de 29 be c8 62 b6 bb 5e c2 0d bc
       1.1685727e-05 -0.16588905 -0.005565975 -0.008652298
000280 d1 2e d5 bc b7 14 82 bd 06 62 60 be e1 8d fe bd
       -0.0260233 -0.06351607 -0.21912393 -0.12429405
000290 90 b7 63 bb b5 5c 74 3e f6 d2 50 3e 40 7a 72 b9
       -0.0034746863 0.2386349 0.20392975 -0.0002312446
0002a0 c6 6d 77 3d d0 72 35 3d dd d7 0f be 05 4d e3 bb
       0.060407422 0.044298947 -0.14047189 -0.0069366717
0002b0 84 30 81 aa 0e b4 c9 bc 1a 47 87 3e b5 38 39 bc
       -2.2948668e-13 -0.02462199 0.26421434 -0.011305024
0002c0 0e cf ba b2 18 08 e3 bd 73 96 07 3c da 16 1e 3e
       -2.1747407e-08 -0.11085528 0.008275616 0.15438405
0002d0 24 c7 90 bb 95 5a 16 be a8 cb 70 3e 0b 39 58 3e
       -0.0044182707 -0.14682992 0.23515189 0.2111551
0002e0 f5 51 d4 bd 09 c7 d0 bd d3 2c a1 3e 87 3e 0d 3e
       -0.103671946 -0.10194213 0.3147951 0.13793384
0002f0 0f 05 05 bd 1b ba 57 a7 1c a4 9a 3c 53 52 32 be
       -0.032475527 -2.9938132e-15 0.018877082 -0.17414217
000300 dd 9f a6 ba 00 19 1a 3a f3 54 4b 3e cd 6f 48 ba
       -0.0012712438 0.0005878359 0.19856624 -0.0007646054
000310 2b 70 7d bd c8 94 71 2a a6 1b 7b 3e 9f c2 6e 3e
       -0.06187455 2.1456719e-13 0.24522266 0.2331643
000320 40 3e f8 3d 39 fa 26 be 7e b7 23 be 92 55 b7 3e
       0.12121248 -0.1630639 -0.15987965 0.35807472
000330 db 0a ad 3b 19 d1 d7 3d fd c9 93 ba a3 f7 c2 3d
       0.005280835 0.10537929 -0.0011275407 0.09519889
000340 8f c9 48 3e d0 c4 06 3e 8d 30 36 3d 2f 0d ea 3d
       0.19608139 0.13161016 0.044479895 0.11428296
000350 c0 c6 a8 2c c9 66 08 3c f3 ef 81 3c 48 77 ac bd
       4.796913e-12 0.008325287 0.015861487 -0.084211886
000360 c0 22 b7 bc ec 35 80 bd 3a 50 28 3e 6c 51 26 3c
       -0.022355437 -0.06260285 0.16436854 0.010151248
000370 fd 74 23 3d 17 cb 41 bb 17 d5 50 b7 3f c4 bc 39
       0.03990649 -0.0029570514 -1.244738e-05 0.0003600437
000380 69 5e 20 bb 13 fc 8f bd 76 f1 67 3b 7a 04 b1 3b
       -0.0024470335 -0.07030501 0.0035391725 0.005402145
000390 4d ae 08 be aa 41 df 3d 3c a0 81 be 17 e2 18 bc
       -0.1334774 0.10901196 -0.25317562 -0.009331248
0003a0 55 ff 88 be 28 b3 84 3e ef 3e 5e b7 6c 9b ad 3c
       -0.26757303 0.25917935 -1.3246884e-05 0.021192275
0003b0 0c 0c a6 bc 2e 18 ae 3c 43 28 02 3e 31 95 d1 3c
       -0.020269416 0.021251764 0.12710671 0.025583835
0003c0 e2 f7 a5 3b dd 46 f3 bd 83 57 49 3c 0f 93 25 be
       0.0050649503 -0.118787505 0.012288931 -0.1616938
0003d0 28 41 0e be 9f 9a 17 3e 3d 1d 01 3e d2 25 0f 3d
       -0.13892043 0.14805077 0.1260881 0.034948178
0003e0 01 b1 4b be e7 9f ba 34 d2 3e 2e bd ad 9f b4 bd
       -0.1989174 3.4761544e-07 -0.04254038 -0.08819518
0003f0 80 3d 1b be f7 88 87 3d 43 96 17 30 e4 af fe 3d
       -0.15160179 0.06617921 5.5147015e-10 0.12435892

linear4.bias f4 [72]
000000 df 20 a3 bd ae 0f 90 3d b1 2f 5a 3d 85 e3 75 3d
       -0.07965254 0.07034241 0.05326814 0.060031433
000010 98 d4 f6 3d 25 05 05 a8 31 06 8d 3d 9b 5b a7 bc
       0.12052268 -7.384099e-15 0.068859465 -0.020429423
000020 02 98 88 89 0f aa 8f 3c f1 5e 17 bd 55 e8 a3 3b
       -3.2883757e-33 0.017537145 -0.036955778 0.0050020614
000030 b0 f6 73 3d 46 64 8d bb 1f 30 12 bb 38 8b 31 3c
       0.05956143 -0.004314932 -0.0022306514 0.010836415
000040 92 02 e5 1a 3a de a2 bd 14 f3 b7 bc 94 3e 17 bd
       9.471633e-23 -0.079525426 -0.022454776 -0.036924914
000050 51 de 10 bd 8a 2d e2 bb 08 7f 8e bd 95 ac ba 3c
       -0.035368267 -0.0069024013 -0.06957823 0.022787372
000060 64 8e ef bc 31 74 97 bc 66 87 0d 88 b0 e5 20 b0
       -0.029242702 -0.018488022 -4.2589804e-34 -5.8534066e-10
000070 be de e8 a2 d5 28 c2 3c 7c fa c1 b6 de f7 d3 b7
       -6.3119563e-18 0.02370111 -5.7810084e-06 -2.5268582e-05
000080 96 9e 82 bd cc 0b 69 bb 1b 7e 64 3d f5 25 0d 3e
       -0.06377904 -0.003556001 0.055784326 0.1378401
000090 e8 fc cb 3d 15 7e 91 3b 7b 83 8d bc 26 99 ae bd
       0.099603474 0.004440079 -0.017274609 -0.085253045
0000a0 d1 14 f8 b4 e1 d2 b1 b8 f4 28 dc 3d 70 39 91 ba
       -4.6208746e-07 -8.479297e-05 0.10749999 -0.001107974
0000b0 96 cb 5a b5 64 33 90 3c f7 a0 d2 bc 2d 5a 1a b3
       -8.1507585e-07 0.01760263 -0.02571152 -3.5937934e-08
0000c0 9e ff 11 3c ef ef d7 bd a5 0f cb bc ac 96 08 be
       0.008911042 -0.105438106 -0.024787733 -0.13338727
0000d0 96 a8 51 be 96 61 84 3b 31 da 2b bc e2 c6 2f bd
       -0.20474467 0.0040399535 -0.010489033 -0.04291428
0000e0 ac c0 cb bc 8a 77 be bc f7 5e 8f bb 3c 67 36 3e
       -0.024872147 -0.02325036 -0.0043753344 0.17812818
0000f0 95 4b 45 bc 80 36 fc bc ee b3 46 bd 78 54 1b b3
       -0.012041946 -0.030787706 -0.048511438 -3.6165574e-08
000100 28 00 f3 3d a3 a3 03 bd 63 1c 8d b1 1d da 18 3a
       0.11865264 -0.032138478 -4.1068673e-09 0.0005830841
000110 40 75 a2 9e 0f 4e 87 bc 2a c1 34 3e 0f 21 41 3e
       -1.720091e-20 -0.016516713 0.17651811 0.18860267

linear5.weight f4 [36, 72]
000000 9f 15 48 3c 32 28 f6 3d cc 64 01 3e 5b ad 43 be
       0.012212186 0.120193854 0.12636107 -0.19109099
000010 de f8 16 3e aa e8 43 a2 a2 43 b7 3d ae 2a d3 bb
       0.14743373 -2.65506e-18 0.08948447 -0.006444297
000020 06 75 92 0d 43 f7 74 3d ca 1b 9c bc 6f 7e 24 3e
       9.026117e-31 0.05980612 -0.01905622 0.16063856
000030 4b 32 28 3d b9 96 7c ba f9 15 10 3c 0c ba bd ba
       0.041063588 -0.00096354965 0.008794301 -0.0014475002
000040 ef d6 24 1c ca 02 63 be 5b 00 74 3c 3e ff ea bb
       5.4540843e-22 -0.22169033 0.014892663 -0.0071715405
000050 1d 07 31 3d dd de c2 3b d8 8c 9f bc 97 fd 0a 3e
       0.043219674 0.0059469775 -0.01947634 0.135733
000060 4d 89 a4 3d bf eb 89 3d 6c e1 5f 87 f0 c1 99 37
       0.080340005 0.06734418 -1.6842901e-34 1.832933e-05
000070 4a 01 d7 17 26 81 21 bd 2a e9 f6 b6 5a 2b c8 b6
       1.3894375e-24 -0.039429806 -7.358515e-06 -5.9655113e-06
000080 a9 f7 19 bd 08 7f 28 3b 4b ad c2 3d d5 4e 12 3e
       -0.037589703 0.0025710482 0.09505709 0.14287885
000090 ac 3e 09 3e b9 b8 58 3d 00 9c f1 ba d8 7c 7e be
       0.13402814 0.05291054 -0.0018433332 -0.24852312
0000a0 fb 5f 48 37 69 95 dc 37 37 28 e7 3d 46 6f f5 3a
       1.1943276e-05 2.6295618e-05 0.11286967 0.0018725179
0000b0 5e 0c b5 b6 00 f7 4d 3d 13 bb 05 3c f8 b9 8d b4
       -5.39566e-06 0.050284386 0.008162278 -2.6398607e-07
0000c0 00 61 fe 3c 1d 50 3d bc 2f ce a5 bd 42 3b 94 be
       0.031052113 -0.011554745 -0.08095967 -0.2895146
0000d0 f3 03 3d bb f9 f1 b0 bc 19 fd 38 bb f8 aa a9 3d
       -0.0028841465 -0.021599757 -0.002822703 0.08284563
0000e0 12 b1 a5 3a fe b5 fe bd c1 6e 4b 3c f9 da e8 3d
       0.0012641272 -0.12437056 0.0124165425 0.11369891
0000f0 0c 4b 91 3c 7e dd d2 3d df 40 a8 bd db 08 ce b7
       0.01773598 0.102961525 -0.08215498 -2.4561237e-05
000100 c4 92 9b bd 1f db 34 bc 95 d8 a0 2e 26 ab c9 3d
       -0.07596353 -0.011038571 7.31443e-11 0.09847097
000110 14 22 91 aa 36 58 df 3c 43 ef 5b 3e ca be 63 3d
       -2.578082e-13 0.027263742 0.2147799 0.055601873
000120 06 7a 0f be 33 16 d8 bd 16 c4 42 bd 83 54 8d 3e
       -0.14011392 -0.10551109 -0.047550283 0.2760354
000130 23 80 29 3e da ce 9a 25 51 c7 00 3e 1d f7 cf 3c
       0.16552787 2.685491e-16 0.12576033 0.025386387
000140 56 5c 12 a8 46 ec 12 bc 2f 39 a8 3e cb dd 8f 3a
       -8.12465e-15 -0.008967465 0.32856128 0.0010976134
000150 1e 0f 35 3e 0f 0a 7e 3a d8 b0 d2 bc 2b 07 4e bc
       0.17681548 0.000969083 -0.025719091 -0.012574951
000160 64 10 b1 9c 43 7e b2 3d eb 1f 8a 3c 66 89 2a 3d
       -1.1717114e-21 0.08715489 0.016860923 0.04163494
000170 a4 06 1f 3d e3 34 08 bc 42 81 32 be f9 e9 01 be
       0.038824692 -0.00831339 -0.1743212 -0.1268691
000180 8d 76 95 bd ca cc 1b bd ca 1a 08 08 ed 0d 1d b5
       -0.072980024 -0.0380371 4.09575e-34 -5.850732e-07
000190 62 8a 98 27 06 6e 85 3e 5e bc a1 ba 6c ab 36 36
       4.233851e-15 0.26060504 -0.0012339463 2.7219894e-06
0001a0 1f 9e 0b be ab 40 97 bb 29 89 b7 be 37 77 9f bd
       -0.13634537 -0.0046158633 -0.35846832 -0.0778641
0001b0 be 4e 72 bd d8 7f 05 3c f8 07 f1 bb ef 06 da 3d
       -0.059157126 0.008148156 -0.0073556863 0.10645854
0001c0 dd 51 1e 3b f6 72 8c b7 d9 78 99 bd 30 47 76 b7
       0.002415768 -1.6742833e-05 -0.07493753 -1.4679317e-05
0001d0 1f 96 fd 35 bd 0e 71 3d 73 be 61 bb 7e c0 80 b5
       1.889366e-06 0.058851946 -0.0034445792 -9.592766e-07
0001e0 31 e4 be 3c 39 15 b8 bd 74 73 95 3b 52 b3 20 bd
       0.02330217 -0.08988423 0.004560882 -0.039233513
0001f0 aa 26 70 be b5 b7 44 3e 58 63 61 bb ad df 42 3e
       -0.23452249 0.19210704 -0.003439149 0.19030638
000200 ec 8f 41 bc 3b 41 28 3e 41 86 06 3c 04 6b 52 be
       -0.011814099 0.16431133 0.00821072 -0.20548636
000210 a6 3e 48 3d 96 d1 b1 bd ee 2a f1 bc 7a 48 e0 b5
       0.04888787 -0.086825535 -0.029439416 -1.6710394e-06
000220 56 08 92 3e 64 34 0f 3c ec d2 9f b1 9c 6f 26 3e
       0.28521985 0.008740518 -4.651488e-09 0.16253513
000230 f0 e0 a9 99 ee 0c 86 bd 5a 59 64 bd ae be 7c 3d
       -1.7565042e-23 -0.06545435 -0.055749275 0.061705284
000240 b3 54 95 3b 3d 3c ca bb 72 bc 15 3a ee 54 f2 3d
       0.004557216 -0.0061717317 0.00057119795 0.11832605
000250 db 72 1f 3d 0e 96 cd 8a df 41 87 3d e7 75 69 bb
       0.038927894 -1.9797226e-32 0.06604361 -0.0035623254
000260 d3 3d 1c 23 19 ef 9f 3d 54 88 26 be 2e 9a 7c 3d
       8.469869e-18 0.07809276 -0.16262943 0.061670475
000270 de d4 9b 3c 22 26 28 3c 20 c4 01 bd af e1 fa 3b
       0.019022401 0.010262998 -0.03168118 0.007656298
000280 8f 7c 34 1b 46 c5 8d 3e 63 d9 21 bd 77 f5 fa 3c
       1.4929498e-22 0.2768957 -0.039513957 0.030634625
000290 9d 14 fa bc ea 5b 67 3b 54 53 a0 bd 85 ce b1 3d
       -0.030527407 0.0035302588 -0.078283936 0.086819686
0002a0 96 d5 df 3d 00 12 21 3a 59 30 6b 08 c4 82 c9 31
       0.1092941 0.0006144345 7.0774573e-34 5.8647363e-09
0002b0 d0 a9 e0 18 b9 f4 86 bd 5e 53 95 38 d3 27 67 34
       5.807411e-24 -0.06589646 7.120402e-05 2.152804e-07
0002c0 6c d3 90 3e 8e 2d 71 3a f2 7e ad 3c dd b4 2e 3d
       0.28286302 0.00092002086 0.021178696 0.042652953
0002d0 e5 0f a6 bd 7d 57 05 bd c5 0d ad 3b 97 e7 b8 3e
       -0.081085004 -0.03255414 0.0052811825 0.3611419
0002e0 cc d5 1f b8 08 7e 24 b7 80 b4 4b bd 05 12 aa ba
       -3.8107668e-05 -9.804506e-06 -0.049732685 -0.0012975341
0002f0 d6 4f 17 36 19 db e3 bb 60 24 fb 3c 78 f6 3a 3a
       2.2547224e-06 -0.0069536087 0.030656993 0.00071320636
000300 5a 36 5d 3d 82 5e 55 bb 49 c8 cf 3d 18 ed 14 3e
       0.05400691 -0.0032557552 0.10145623 0.14543569
000310 c4 7c e3 bd e2 15 1f 3d a0 8b 69 3b 6c 7d 25 bd
       -0.111077815 0.03883923 0.0035636202 -0.040402815
000320 ef 57 e8 3b ef c2 55 3e 7f 7c d7 3c 09 e7 81 bd
       0.0070905606 0.20875143 0.026304482 -0.063428946
000330 8a 5c a8 3d 69 cb b8 bd 64 5a 30 3e be 19 e9 37
       0.082207754 -0.090231724 0.17221981 2.7787752e-05
000340 8a 63 84 3e 7e 4f 89 3c 6d 4d af ad 4c 2d 25 3e
       0.25857192 0.016761538 -1.992958e-11 0.1613056
000350 f8 38 1a 2c 55 8e 36 3d 1f 89 dc bd 46 4d c8 bd
       2.191634e-12 0.044569332 -0.10768341 -0.09780364
000360 39 7b 48 bd 4f 62 9a 3d 51 18 1b bc 44 8f 63 be
       -0.04894564 0.07538282 -0.009466247 -0.2222262
000370 94 6b 0b 3d ab 75 6f 9a ff 8d af 3d 74 aa 45 3c
       0.03403814 -4.9519093e-23 0.085720055 0.012064565
000380 fc e6 a2 ab 09 2d 8a 3d 24 bc 63 3d db e5 05 bd
       -1.1574903e-12 0.06746871 0.055599347 -0.03268991
000390 b0 2b 2b 3d 6c d9 1d 3a bd e9 65 bc 1c 2f 16 bc
       0.04178971 0.0006021473 -0.014032778 -0.009166505
0003a0 92 b3 29 1c c9 60 4e 3e 30 c5 c0 bb 40 75 76 3d
       5.61495e-22 0.20154108 -0.0058828816 0.060170412
0003b0 22 78 95 bb 8b e2 5c 3b 1f 5e 78 bd 3f 3e 95 bd
       -0.00456144 0.0033704366 -0.060636636 -0.07287263
0003c0 b0 f5 bc 3c cd f8 0c be aa 2f 75 88 fe c3 00 3a
       0.023066372 -0.13766785 -7.3783035e-34 0.00049120176
0003d0 3a b9 a7 16 c8 20 14 be fb f4 ab 3a 78 c9 06 b8
       2.70972e-25 -0.1446563 0.0013119275 -3.2135722e-05
0003e0 fb cb 98 bc 50 b7 a7 ba bb 74 04 be 9b 1a f1 3d
       -0.018651953 -0.001279572 -0.12935154 0.11772653
0003f0 04 aa 19 3d 2f bf cd 3d 17 7e 9c bb 08 46 25 be
       0.037515655 0.10046231 -0.0047757733 -0.16139996

linear5.bias f4 [36]
000000 e2 b1 3f 3e 59 df b9 3c 1e bf 01 3d 43 6b 02 3e
       0.187202 0.022689508 0.031676404 0.1273623
000010 cf ba 58 3d 32 54 ff 3c 4d 9c 89 b8 64 a4 c7 3d
       0.05291253 0.031168077 -6.561782e-05 0.09748152
000020 b3 73 71 3d b9 ba 08 3e a3 b3 00 3e 34 8d 29 be
       0.05894823 0.13352479 0.12568526 -0.16557771
000030 ee d0 3c bc a1 b4 e9 99 df dc 50 87 9f 7a 9d a3
       -0.011524422 -2.416459e-23 -1.5713089e-34 -1.7073906e-17
000040 04 21 80 bd d7 37 ce 3d 3b 45 b2 3e c5 7b f2 ba
       -0.06256297 0.10069244 0.34818444 -0.0018500021
000050 aa a5 94 3c 6e cf 11 3e bc 17 bd 3d 89 8e 96 3c
       0.018145401 0.14239284 0.092330426 0.018378513
000060 fd dd ac 3e 78 9e b8 bb 06 84 cf 3d e4 6b 0d 3e
       0.33763114 -0.0056341253 0.10132603 0.13810688
000070 4c 91 4b 3d f2 ba 5f 97 e0 02 45 a2 a7 b4 16 bd
       0.049699113 -7.2291144e-25 -2.67e-18 -0.036793377
000080 d4 5d 9f bb 8b 50 32 3e 3b 44 c9 3d 9b 94 56 3c
       -0.00486348 0.17413537 0.09827467 0.013096954
