HW1/saved models/Model 6 - Split image-16 36, lr=0.0001, wd=0.0001, bs=32.pkl (torch_old, 682036 bytes, 36 tensors)

linear1.weight f4 [18, 49]
00000000: c148 a33d ea8b 723e 3b46 a23e 1841 393d
00000010: 3912 2c3c eca7 523b 0a57 bbbd 8956 3a3e
00000020: 181f bb3e cb60 013e c029 8d3d ab99 1d3e
00000030: 33fa 153e 8fb5 11be 4987 e63d 6721 303e
00000040: 8498 b83c 3783 a03d 0bff 693d bf63 883c
00000050: d7f6 89bd 39b4 34be 4515 3b3d e9f5 e63d
00000060: ac03 583d cebb 653d e4cf d03d 9fe9 14be
00000070: 6bf8 8cbe fabc 3b3e fe5f 253e e28b 6ebc
00000080: 108d 193e 214a 2a3e d34d 4dbd 2089 42be
00000090: ba9b 8d3d 2f1b b93d 75c9 733d c515 013d
000000a0: cfde fc3d 5db9 8b3e 7ace adbd 8a04 a2bc
000000b0: 444e 163e c1b0 2d3e 3aa5 263e 3148 0d3e
000000c0: 1adc 933e 0d98 4c3e cc9c 613d ff20 903d
000000d0: bb03 033e f3a6 05be f38b bcbe 0e69 54be
000000e0: b00a 543d 5c25 593c 674c b73d 749b b63b
000000f0: 2432 9abe cd3c 43be b739 013d b973 a1bd
00000100: 6a97 80bd f937 12be e673 b8be b606 4abe
00000110: 94e3 00be 047c 0cbd 2aab 11bd 4e26 80be
00000120: 3a5d 05be e5c4 c2be 7503 95be 3827 99bc
00000130: 1ee1 243e 58e0 97be d5c6 28be 7f0d 5fbe
00000140: a691 34be df1a 6cbe 87bd 883c cf77 ab3e
00000150: e44e a4bd 5cf0 6fbe b91a 26bc b6a1 48be
00000160: bf1c fbbd ca9d b0bb 3ff2 273e 98fa d3be
00000170: 7fe5 86be 5745 dabd b199 363c 08d5 a43d
00000180: 4740 833e 6f72 653e 2f79 b93d c3ea 293e
00000190: f241 2b3e 52d2 323e 3962 77be 919e acbe
000001a0: 35c6 acbe f8b1 683e 817c d03d 900d d63d
000001b0: ee53 14bd 7891 8cbd de21 abbe 81d8 06be
000001c0: ac24 683e 4606 723e c8b5 193e 063c 88bd
000001d0: 9256 75be 527f b7be 58b4 98be e561 923e
000001e0: ba3d 593d 0202 6f3b 19eb 343d 677d a3be
000001f0: ee68 66be 78b9 cd3b adf5 8cbd 2094 3bbc
00000200: 51a7 34be 27c1 2cbe ebe5 64be 46be 36be
00000210: 83aa a6bd 235b 17bd 43cf 513d ffb2 443d
00000220: 19eb a0bd 7be0 cabd 6845 d9bd 535f 863c
00000230: 6f08 f53d 166b c73d c780 193e 7622 b23e
00000240: 40ad 513e f824 23bb dea2 023d edc1 4b3e
00000250: fffb 373d c278 093e 7bd0 be3d 8819 0cbd
00000260: 354b a0be 1270 62be 8ec8 283e 080c e2bd
00000270: 6594 cb3d 564b 0bbd b313 02be 84a9 88be
00000280: c21d 87be 9132 7cbc 7e4e 55bd 6635 f73d
00000290: 9717 123e 4bc1 063d d7d1 5ebe 2bb1 8abe
000002a0: 98a7 d6bb ba44 f93d 28f3 a93d 857c 8b3d
000002b0: 6b47 d3bd 8d3e 97bd 043c 1ebe fa6b 353e
000002c0: c066 eb3d 31e3 4f3e 4dc3 b73e 710b 7a3e
000002d0: a37a 033e a790 c2bd d9d5 99bd 77c5 f9ba
000002e0: 1d81 933d bfae ef3d 547b 953e a40f aa3e
000002f0: 2fca 0e3e c13f 2bbe 79fd 973d ef4e de3d
00000300: 4e41 1b3e 6fba 9a3e 7122 3b3e fe29 8d3e
00000310: 80ac 513e 2896 1a3d 7b39 9d3d 321d 1f3e
00000320: c116 c3bd 28fb 8dbd 9ecd 17be 921d 473e
00000330: fa56 773e 1d61 d53d b985 b13d cac3 993c
00000340: 8e73 e43d 0f11 853d 1281 2c3e 2645 8f3e
00000350: 0e3e 383e 6403 183e 31aa c43d c123 553b
00000360: ec4d 303e aac6 913e 57a1 b63b 8ca4 083e
00000370: 04ad e43c 88a2 333e cf8e 6a3e c9d5 5f3e
00000380: e2b2 dbbd 921b 37be 6907 5ebe acf0 6dbd
00000390: fd89 863d cdc1 1f3e 7f65 813e f633 d5be
000003a0: a418 07be 65df 093c 75e2 373e 5ff6 433e
000003b0: 6e47 31bd 5683 61be c7fc 36be 8a42 3cbe
000003c0: 619a 67bd 8616 a63c 39ab b23d 1956 2c3d
000003d0: 6430 bdbd 2525 ba3d 3f4d 563e 2ae6 8b3e
000003e0: 2b91 de3d b681 d03d 2e01 2d3e 73c8 143e
000003f0: eb5f 4ebc dc84 653d fc74 e2bc 9b5a 78bd
0.07972861 0.23686185 0.31694207 0.045228094 0.0105023915 0.0032143546 -0.09147461 0.18197073
0.3654716 0.1263458 0.06892729 0.15390651 0.14646225 -0.14229415 0.11256272 0.17200242
0.022533663 0.07837527 0.057127994 0.016649125 -0.06736534 -0.17646874 0.04567458 0.112773724
0.052737877 0.056087308 0.10195902 -0.14542244 -0.27533278 0.18333808 0.161499 -0.014559718
0.14995217 0.1662984 -0.050123047 -0.18997622 0.06914468 0.09038388 0.059518296 0.0315149
0.12347185 0.27289858 -0.08486648 -0.019777555 0.14678293 0.16961958 0.16273966 0.1379707
0.28878862 0.19979878 0.055081174 0.070375435 0.12794392 -0.13051967 -0.36825523 -0.207432
0.051768005 0.013253536 0.089501195 0.0055727307 -0.3011638 -0.19066162 0.03154918 -0.078834005
-0.0627888 -0.14279164 -0.36025923 -0.19729123 -0.12586814 -0.034297958 -0.035563625 -0.25029224
-0.13023844 -0.38040844 -0.291042 -0.018695459 0.161015 -0.29663348 -0.16482098 -0.21782492
-0.17633685 -0.23057126 0.016691936 0.33489844 -0.0802286 -0.23431534 -0.010138207 -0.19592938
-0.12261342 -0.0053899037 0.16401003 -0.41402125 -0.26346967 -0.10657757 0.011145041 0.08048445
0.25634977 0.22406934 0.09056317 0.1659346 0.16724375 0.17463043 -0.24158563 -0.33714727
-0.3374497 0.2272414 0.10179997 0.104518056 -0.036212854 -0.068636835 -0.33424276 -0.13168527
0.22670239 0.23635206 0.1501075 -0.066520736 -0.23958805 -0.35839325 -0.2982509 0.28590313
0.053037383 0.0036469703 0.04416952 -0.31931612 -0.22500965 0.006278213 -0.068827964 -0.01144889
-0.17641951 -0.16870557 -0.22353332 -0.17846021 -0.08137991 -0.03695215 0.05122305 0.048022266
-0.07857341 -0.099060975 -0.10608941 0.016402876 0.11964499 0.09737222 0.14990531 0.34791917
0.20476246 -0.0024893861 0.031893604 0.19898196 0.044918057 0.13424972 0.09317108 -0.034204036
-0.31307378 -0.22113064 0.16482756 -0.11037451 0.099404134 -0.034007393 -0.12702827 -0.2669183
-0.2638989 -0.015392915 -0.05207681 0.12070732 0.14266811 0.032899182 -0.21759735 -0.27088293
-0.0065507405 0.12171312 0.082983315 0.068108596 -0.10316356 -0.073849775 -0.15452582 0.17716971
0.114942074 0.2030151 0.3589119 0.24418427 0.12839751 -0.095002465 -0.07511491 -0.0019056041
0.07202361 0.11703252 0.29195654 0.33215058 0.13944314 -0.16723539 0.07421393 0.10854899
0.1516163 0.30220363 0.18274857 0.275711 0.2047596 0.037740856 0.07676979 0.15538481
-0.09525824 -0.0693267 -0.1482453 0.19444874 0.24154273 0.104189135 0.08668084 0.018770117
0.11154853 0.06497394 0.16846111 0.27982444 0.17992422 0.14845043 0.09602774 0.0032522532
0.17217225 0.2847188 0.0055734324 0.1334402 0.027914532 0.1754247 0.2290604 0.21858896
-0.107274786 -0.17881611 -0.21682514 -0.05809085 0.06569288 0.15601273 0.25272748 -0.41641206
-0.13192993 0.008415078 0.1795748 0.19136952 -0.04328101 -0.22022757 -0.17869864 -0.18384758
-0.05654371 0.020274412 0.087240644 0.042074297 -0.092377454 0.09089116 0.20927905 0.2732404
0.10867532 0.101809904 0.16894981 0.1452959 -0.012596111 0.056034908 -0.027643673 -0.060633283

linear1.bias f4 [18]
00000000: fc7e d73d 881d c23c d37f a73c 7f60 773e
00000010: ef02 e63d 6873 3e3e e58b 993d 60b1 943e
00000020: 128f 8d3d b72d 743e 0418 f53a 72e6 353e
00000030: 05eb a73e c464 a03e 1240 413e 9d87 3d3c
00000040: 494d 983e 3037 ce3d
0.10522267 0.023695722 0.020446694 0.24157904 0.11231028 0.18598711 0.07497386 0.29041576
0.06912054 0.23845564 0.0018699174 0.17763689 0.32796493 0.31326878 0.18872097 0.011567977
0.29746464 0.1006912

linear2.weight f4 [144, 288]
00000000: 48f9 a0ba a265 66bb 7d00 1aba d651 3fbb
00000010: ed89 6b2f 04c3 92b9 1813 8eba 367e 52b9
00000020: 549d 39b9 ae9f 15bb 7c91 34b8 5b8f 1426
00000030: 6dfc 6880 6092 1cb2 26f3 1e3c bfe0 1bbb
00000040: 6c36 0c38 3071 d4ba b220 71ba 5cc0 fabb
00000050: 2543 1d3c fff8 30bc 9800 803b 351f 6a3a
00000060: 1e48 49bc dc4c 013b 8b69 9dbb eb7d 13bc
00000070: 3bc9 a9bb 093b c73a fdbc 8139 6c9f 343a
00000080: 1bbf 953c ba0a 37bc 8821 d63b 6907 333b
00000090: 2ed1 863b ef8f 253c f716 84bb 6dc2 93bb
000000a0: d76f 833b c36e 00bd 8ca8 e3bb 421d 80bc
000000b0: aa57 d1ba 5452 48bb 3149 60bc 691e 08bc
000000c0: 72c4 80bc 2340 37bd f121 b53c 3700 b5bb
000000d0: fb47 3c3b 6437 04bc a281 1d3a 0309 d73c
000000e0: 72e9 e7b9 91d0 da38 aa35 27b9 4dd5 ad3a
000000f0: 4aa3 803b bbee 15bb 55fe b63a 1d48 5e3b
00000100: cf07 87ba dc6b d0ba 1977 6fbb b60e 4dbb
00000110: 3e93 b83c 2a88 6b3b 1cef 0739 5413 f63a
00000120: 44d8 adbb 03b4 0f3c d7c5 3dbb f37c a239
00000130: 6a51 923a a66d 93bb c106 e53a 1c1f 81bb
00000140: 4c22 553b 1264 a9bb 6efe 6a3a d9cd 243b
00000150: 96d2 8b3b 987a d9ba 6bab b03c 61bd 12bc
00000160: 68a0 cd3a 8e05 a13b 05ca acbc 0b57 59bc
00000170: 6c71 5dba 2c83 35bc fd74 9bbc ffc1 13bd
00000180: ef0b 3f3d 7415 bcbc 3db3 193d 7a95 afbb
00000190: 18e1 1cbd 20a8 c5bc bcf0 9b3c 3121 67bc
000001a0: 4b2c 0a3c fbab 9c3c a2f5 b33b e52b cdbc
000001b0: 0e47 d23b 4401 93bb 4ff3 ff3a d716 a53c
000001c0: 7766 fcbb b18f d9bc a01c 603c 2434 f4ba
000001d0: 6721 d63c 7350 b7bc 1def 85bc ab61 a3bc
000001e0: 149f 703b 0532 a7bc 2c2d 95bc eec6 1e3c
000001f0: 078d b1ba b56c 713c 2859 64bb 8f3b fc3b
00000200: 41a6 83bc d751 ebbb 446a f03b 9a61 e83a
00000210: d25b 053b 17d3 eab9 73a1 103b e281 09bb
00000220: 169d cfba a1f4 8ebb 4c9f b2bc 5540 65bc
00000230: 44c7 ae3c 35a5 3f3a 5215 f73b 8a81 4d3b
00000240: 292f 5a3a 074c dd3b 8d4d 3c3b ec21 5dbb
00000250: b01f 173a a926 443b f9d0 65bb 6fbb f53b
00000260: ad9e 4f3c 3eac 9c3c a2c2 cc39 ce52 6f3b
00000270: c925 8ab8 5884 ad3b aa32 2c3c 172f 023d
00000280: 739b bc3b 6ff1 1a3c 6b40 2e3c b003 433c
00000290: 2320 d7bb 9954 2e3a 8050 173d a43d 0d3d
000002a0: 0dd8 943c 4b21 4f3d 893f cabc bc6e 3f3d
000002b0: a990 70bc 7b91 9a3c b54b bb3c 9d92 fa39
000002c0: 7508 36bb 63ea 2d3c c093 bf3c f1d6 0a3c
000002d0: 0dd6 b23c d81e 93ba 8ad3 49bb 10ec 0dbb
000002e0: 79fa 5a3c e6aa 043d 5625 80bc 16d3 e2bc
000002f0: 5269 5dbd 7af3 56bc d4ba 1ebd 30de edbb
00000300: c8d9 48bc 127b ad3c 7dde 3a3c 116d a0bb
00000310: b41f 7cbc 9519 acbc ef56 6239 6ebf 92bc
00000320: b63b 943c 0c0e c1bb 5daa 653a c009 733b
00000330: 137d 843a e0b9 293b 6c5d 973a 0469 183c
00000340: a367 c93a a384 d8bb de6a d33c 72ec ca3c
00000350: d19e 30ba 6ba8 d23b f815 e33b 1eab c13b
00000360: 37fa 1e34 0240 3b3b e288 b83b c710 b337
00000370: 9a3d 663b be02 3139 8748 a5bb ada5 863b
00000380: 20c0 c93b 2d2f 6cbc 24c2 b739 0c6a 4b3b
00000390: c09b 52bb d104 4b3b 1b75 923c fd2e c73b
000003a0: f8b4 943b 6451 1538 53a5 51bc dda3 a13b
000003b0: 416d 45bc a2e5 853b 1e13 2ebc 5420 13bc
000003c0: a496 c139 8dd6 8e3b ffe2 3abc 679a 0abd
000003d0: 7ef8 0abd 8905 f2bb 2637 23bc e79b b2bb
000003e0: 6e7a 65ba 487e ca3c 6641 b6bc d405 a6bc
000003f0: 7f30 05bc 2477 65bc 782f d5bc c36f 103b
-0.0012281323 -0.0035155793 -0.00058747065 -0.0029193065 2.1422127e-10 -0.00027992588 -0.0010839431 -0.00020074178
-0.00017701584 -0.0022830772 -4.3050837e-05 5.15421e-16 -9.641445e-39 -9.113677e-09 0.009701526 -0.0023785082
3.3429285e-05 -0.0016208049 -0.00091982924 -0.0076523256 0.009598528 -0.010801553 0.003906321 0.0008931042
-0.0122852605 0.001972965 -0.0048038415 -0.009002189 -0.0051814592 0.0015200089 0.00024745605 0.0006890211
0.018279603 -0.011171991 0.006534759 0.002731765 0.0041142916 0.010105117 -0.004031058 -0.0045092613
0.004011135 -0.03135563 -0.0069475826 -0.015638951 -0.001597156 -0.003056665 -0.013689325 -0.008308032
-0.015718672 -0.0447389 0.022110911 -0.0055237073 0.0028729427 -0.008069847 0.00060083915 0.026249414
-0.00044233684 0.000104338986 -0.00015946353 0.0013262421 0.0039257156 -0.002287789 0.0013961295 0.0033917495
-0.001030201 -0.0015901285 -0.0036539494 -0.0031289286 0.022531148 0.0035939314 0.00012963678 0.0018774071
-0.005305322 0.0087709455 -0.0028957033 0.00030992142 0.0011163179 -0.004499155 0.0017473326 -0.003940476
0.0032521663 -0.0051694 0.00089643046 0.0025147109 0.004267047 -0.0016592322 0.021566113 -0.008956284
0.0015688064 0.0049139922 -0.021092424 -0.013265382 -0.0008447382 -0.011078637 -0.018976683 -0.03607368
0.04664224 -0.022959448 0.03752445 -0.005358395 -0.038300604 -0.02412802 0.01903569 -0.014107035
0.008433412 0.019124975 0.005491928 -0.025045345 0.006417162 -0.004486235 0.0019527468 0.020152492
-0.0077026444 -0.026557775 0.0136787 -0.0018631262 0.026138974 -0.022377228 -0.01634937 -0.019944033
0.0036715912 -0.020409593 -0.018210016 0.009690983 -0.0013546058 0.01473539 -0.003484318 0.0076975296
-0.016070487 -0.007181387 0.0073368866 0.0017729283 0.0020348919 -0.00044789232 0.0022068887 -0.0020981957
-0.0015839662 -0.004362658 -0.021804474 -0.013992389 0.021335252 0.00073106895 0.0075403834 0.003135773
0.00083230674 0.006753448 0.0028732747 -0.0033742143 0.00057649147 0.002993027 -0.0035067184 0.0074991505
0.012672109 0.0191251 0.00039054925 0.0036517861 -6.587391e-05 0.0052953176 0.010510126 0.03178319
0.0057558357 0.009456976 0.010635476 0.011902735 -0.0065651103 0.0006650179 0.036942005 0.034482613
0.018169427 0.05056886 -0.024688499 0.046736464 -0.014682927 0.018868199 0.022863248 0.0004779295
-0.0027776037 0.010614964 0.023385882 0.008474098 0.021830583 -0.0011224402 -0.0030796253 -0.0021655597
0.013365381 0.032389544 -0.015642803 -0.027688544 -0.05405552 -0.013119573 -0.038752392 -0.007259153
-0.012258954 0.021176849 0.011405584 -0.004895814 -0.015388418 -0.021008292 0.00021585425 -0.017913546
0.018094879 -0.005891567 0.0008761043 0.003708467 0.0010108076 0.0025898144 0.0011548228 0.009302381
0.0015365969 -0.0066076084 0.025807794 0.024770949 -0.00067375327 0.0064287684 0.006930109 0.0059102913
1.4805924e-07 0.0028572087 0.005631552 2.1346275e-05 0.0035131932 0.00016881057 -0.0050440463 0.0041091056
0.0061569363 -0.014415544 0.00035049126 0.003103855 -0.0032136291 0.0030978213 0.017878106 0.0060785995
0.0045381747 3.560017e-05 -0.012795764 0.004932864 -0.012049974 0.0040862123 -0.010624675 -0.008979876
0.00036924065 0.0043590725 -0.011406659 -0.033838656 -0.033928387 -0.0073859137 -0.009961879 -0.005450714
-0.00087539 0.024718419 -0.022247981 -0.020266451 -0.008129238 -0.014005456 -0.026023611 0.0022039271

linear2.bias f4 [144]
00000000: da19 a0ba c150 33bc aecb 9b3c 2ea1 35bd
00000010: 126e 25bc 8c21 373d e903 8dbb f778 cb3c
00000020: 32a7 a33c b970 fdbb 5e3c c03c a90d b83b
00000030: e063 bf3c cba8 cdbb 0165 313d 575a f33b
00000040: ea9b 38bd 8481 583c 5ddd 923c a982 583c
00000050: 6bbf 893c d37f 01bd 8897 ffbb 5274 b2bc
00000060: 240d f93c 4d2d 2cbc d734 f2bc 6193 9fbc
00000070: bbbf f3bc 6145 a8bc 791f 0abc 071c 17bd
00000080: 025a 333c e9e6 303c d036 ea3a a1da e93b
00000090: d1c2 273c 20f6 57bc 21e9 cf3b 64bc 923c
000000a0: 7893 b53a ca18 ae3c de1e 713c d8a1 72bd
000000b0: 0637 803c c684 0e3d 7c7a b63c 62a7 673c
000000c0: c574 08bc f2d3 ba3c 71ed b83c 350e 643b
000000d0: e1ea 9abc 8db5 153d 398e 7bbc 8abe 983b
000000e0: 3443 d83b 5590 1e3a f6e9 f53c 87b8 8c3c
000000f0: 8e13 a9ba 6c2b c4bc 166a 843c 841a 99bb
00000100: 4be1 863c 111c dc3c f3e2 003d 310d 13bd
00000110: 1ce4 e5bb 64c2 2e3c c10c 063a c219 2b3d
00000120: cbbd 273c 2804 3cbd 7510 f93c 833d 0fbd
00000130: c211 583a 87d7 7b3c 6bc0 02bc 404e f03c
00000140: ccba 473c b5a9 afbb 4990 1cba 33f2 2b3c
00000150: f999 58bc 1cea a23b bc50 77bd 625d b1bc
00000160: b9ec 593d 1120 613c dc93 6abc fbae c537
00000170: 5183 fe3c 05de 50bc c469 94bb 28ec 14bc
00000180: bb43 993c 17f6 a83b f0e2 923c da2d e73b
00000190: 648f 4a3c 415d c0ba 542d 8f3c 932c ab3b
000001a0: 4309 da3c 294d a8bb 6a59 65bd e7c8 b23c
000001b0: 119e 513b 00a8 a23c 2715 0ebd 4512 733d
000001c0: a0e5 6eba 419c 9abc c1b8 e839 b6d8 3c3c
000001d0: beac e53b 75ca 7bbc 7a71 de3c 048f 163b
000001e0: 70b3 5abc bd39 37bc 24ab bc3c a06e 07bc
000001f0: 0796 e23b c864 32bd 647d a4ba a3b8 e8bc
00000200: e951 70bc 9aa9 6b3c 0204 3d3c 432a c93c
00000210: 3965 4b39 5829 c7bc 3992 31bd 890e 8a3c
00000220: aff6 33bd 61e8 a83c 59ed 4ebd 760d 8fbb
00000230: f402 e7bb 8551 6bbc f0a1 7c3c 2c14 633b
-0.0012214736 -0.010944546 0.01901802 -0.044343166 -0.010097044 0.044709727 -0.0043034446 0.024837954
0.019977186 -0.007734385 0.023466285 0.005616863 0.023363054 -0.006276225 0.043309215 0.007426541
-0.045070566 0.013214473 0.01792782 0.013214746 0.016814908 -0.031616043 -0.0078000464 -0.021783981
0.030401774 -0.010508847 -0.029566212 -0.019479455 -0.02975451 -0.020540895 -0.008430355 -0.036891963
0.0109467525 0.010797241 0.0017869119 0.0071366583 0.010239319 -0.013181239 0.00634493 0.017912097
0.0013853153 0.021252055 0.014716832 -0.059236377 0.015651237 0.03479459 0.022275202 0.014139028
-0.008328621 0.022806142 0.022574158 0.0034798507 -0.018910827 0.036550093 -0.015353733 0.004661386
0.006599808 0.0006048729 0.030018788 0.017177833 -0.0012899505 -0.023946486 0.016163867 -0.0046723504
0.01646485 0.026868852 0.031466436 -0.035901252 -0.007015718 0.0106664635 0.0005113595 0.04177261
0.010238121 -0.0459024 0.030403355 -0.03497077 0.0008242392 0.01537121 -0.007980446 0.029334188
0.012190532 -0.005360807 -0.0005972428 0.0104947565 -0.013220304 0.0049717557 -0.06037973 -0.021650974
0.053204272 0.013740555 -0.014317479 2.3565712e-05 0.031068476 -0.012748246 -0.00452921 -0.009089507
0.018709054 0.0051562893 0.017930478 0.0070550265 0.012363289 -0.0014676229 0.017477669 0.0052238195
0.026615744 -0.0051361513 -0.055993475 0.021824313 0.0031985084 0.0198555 -0.03468814 0.059343595
-0.0009113196 -0.018873336 0.0004438814 0.011526277 0.007009118 -0.015368094 0.02715372 0.0022973428
-0.013348445 -0.0111831995 0.023030825 -0.008266121 0.0069148573 -0.043553144 -0.0012549576 -0.028408354
-0.014667966 0.014383698 0.0115366 0.024556285 0.00019397297 -0.024311706 -0.04335234 0.016852634
-0.043936428 0.02061862 -0.05051932 -0.0043656183 -0.0070499126 -0.0143626975 0.015419468 0.0034649475

linear3.weight f4 [72, 144]
00000000: fa3c 2e3c 0e96 223c 37ad ef3c 389c 0f3e
00000010: 4ff1 f6bc 75b5 78bc d910 46bc 03d3 87bd
00000020: 2b7d 24be 81b5 07bb 5b8b d83c aad2 ac3d
00000030: 0569 eebc 6865 b5bc 9c38 833c 683e 283e
00000040: cf2d 073d fe63 2fbd 7982 f83c 3b4f 393d
00000050: 1c27 ef3c 2a88 6c3d cbf8 193d 4dc8 133c
00000060: 125a 94bd 6a8b d6ba ba3e 4fbd 19e2 993c
00000070: 1f0e 403e 3533 853d 8521 86bb 83e1 e5bd
00000080: 66e9 513c 8b0a 48bd 428e 2cbc 2a40 ff3d
00000090: 0be0 9eba 127f 833d 5fdb a73c 7a1c a73c
000000a0: ca8c 1e3e ff43 3cbd 7950 adbb 71bd 043e
000000b0: ee96 8dbb b4b5 ab3c 65f9 023d 4c5d 413e
000000c0: e326 183c 2c91 61bc dc2f fcbd 7452 d23d
000000d0: f12a 5b3c f196 073e 1e68 a5bc 76a9 373d
000000e0: 4225 ecbc 4c39 46bd c5ad 803b 4943 e53c
000000f0: 85d4 803d 97e6 de3d 2432 3ebd 87e0 303d
00000100: 556a b63d 7036 0d3e 5338 de3d 8f12 563d
00000110: 4709 813d db1c 783d d6fc f3ba 009e 28bd
00000120: 89f6 0c3d 0a20 ca3d 169b be3d bf58 ce3d
00000130: 38c4 b1bc 647e 503d 19c4 1a3d 0851 dcbc
00000140: 92c3 033c f7cb 34bd 1a2b 98bd f00d 473c
00000150: 25cf 9fbd 047f b23c 47c4 033e 5285 00bc
00000160: 5b9d 623d b816 0e3e 5580 1bbd 31c5 6b3b
00000170: 07c7 813d 64dc 2e3d 2adc c4bc 195a 993d
00000180: 1216 073e 70d2 83bc fe45 813d 8afa 73bc
00000190: 3e2d 123e 8bae b3bb 5fb1 b53d 4ebc ff3d
000001a0: c64d 853d b6ce 863d 24c6 95bc 182f 0ebc
000001b0: 9939 cc3c eb74 98bd 7b72 dabc 3352 2c3d
000001c0: f165 7b3c 2990 113e 0306 a1bd 5405 3e3c
000001d0: 5a9e be39 23b2 953d 83d4 cc3c a0c4 8d3d
000001e0: 77e8 153d bd2e c5bd 0e99 183c 1801 08be
000001f0: 7b7b c4ba 224c 8a3d a318 873d ddc8 ba3d
00000200: 840b 88bd 7435 25be 0323 a53d 0c71 f6bd
00000210: 6744 b6bc 2f7b 5c3d 9cbb 22be 07f5 3bbd
00000220: 8dc9 ffbc e5dc 463c fe6d 023e 1389 203e
00000230: a864 813c 20e1 87bc 7831 323c 7639 3d3c
00000240: 4dd8 ea3c 2985 5e3b 10a8 7e3d 9ab7 a4bc
00000250: 26d1 cc3d fcd6 6cbe f2ed 30be f808 853d
00000260: eba3 a1bd 04d1 8e3d 8f8d 1fbe ecdc b33d
00000270: 4311 8e3d 8459 02bd da9a 9a3d 140c d9bb
00000280: bc56 5abe c29e a13d 4097 b53c ff3f 553d
00000290: 3197 543d 315c 50bc 61dd afbc 7091 0cbc
000002a0: ca36 f53d f7bf af3c e29d ad3d 201d 963d
000002b0: 26dc 243d bf50 7f3d d61f 153d 3e84 1d3e
000002c0: bc16 2dbd 3e90 8c3d 1514 4f3c 6437 82bd
000002d0: e045 a8bc 2fce d53d 1e62 713d 2576 ac3d
000002e0: 4303 a2bd 3ec5 aebc d848 0a3b c2cb cc3d
000002f0: e5db 74be 519e 093e 3cca ce3c 9419 273e
00000300: e17f 71bd 6b8e 93bc 7628 563d b4c2 c13d
00000310: 3990 493d 5bec 443e 985f b43b 1456 8b3c
00000320: 7aa0 ec3c 5fbf 273e 7857 8a3d c82c 083b
00000330: 0b54 733d d8fe 86bd da2d 773c 3aca 3e3d
00000340: 6d9a aabd 49da df3d 20e3 51bb cbc7 183e
00000350: 6393 903b 73a4 60bd 9d91 613d 1f08 3ebb
00000360: d016 ebbd c0f4 883d 624d e53d 00cf 6d3c
00000370: a458 703d 362c 50bd d77e 6cbc 6b24 be3d
00000380: f6ea 1a3d 7de5 203c 4558 21bd de27 913d
00000390: 60a4 473d a385 a3bc 97c4 8bbd 7071 c93d
000003a0: 2624 253e 3d82 273d 5bf7 433c 6b8e 823d
000003b0: 36b9 39be b50f a73d 26ae 8e3c 9e69 30bd
000003c0: efe1 f5bc c409 e6bc 5bd6 283d 980f bc3d
000003d0: 8303 343e 447a 973c b7c8 1fbe df8c 80bd
000003e0: f897 773d f13f 14bd dd57 b2bd dda5 133e
000003f0: b5df 46bd bcbe debd 24b0 0ebe a7a7 cb3c
0.010634655 0.009923471 0.0292574 0.14024436 -0.030144362 -0.0151799815 -0.012088978 -0.06632044
-0.16063373 -0.002070755 0.026433637 0.084386185 -0.029102812 -0.02214308 0.016018204 0.16430056
0.03300267 -0.04281997 0.030335652 0.045241576 0.029193453 0.057747044 0.037590783 0.009019923
-0.07243742 -0.0016368453 -0.05059693 0.01878457 0.18755387 0.065039076 -0.0040933513 -0.112246536
0.012811994 -0.04883818 -0.010531964 0.1246341 -0.0012121213 0.06420721 0.020490346 0.02039932
0.15483394 -0.045963284 -0.005289134 0.12962891 -0.0043209707 0.020960666 0.031976122 0.18883246
0.009286615 -0.013767522 -0.12313816 0.10269633 0.013376937 0.13241173 -0.020191249 0.044839345
-0.02882636 -0.048394486 0.003926965 0.027986186 0.06290535 0.10883825 -0.046434537 0.043182876
0.08907 0.13790298 0.10850587 0.052263793 0.06300598 0.060574394 -0.001861478 -0.041166306
0.0344148 0.09869392 0.09306924 0.10075521 -0.02170001 0.050901785 0.03778467 -0.026894107
0.008042233 -0.04413983 -0.07430096 0.012149319 -0.078031816 0.021789081 0.12867843 -0.007844286
0.055325847 0.13875854 -0.037964184 0.003597569 0.063367896 0.04269065 -0.024030764 0.07487888
0.13192013 -0.016091555 0.06312178 -0.014891276 0.14275071 -0.0054834536 0.088717215 0.12487088
0.06508975 0.06582396 -0.018282957 -0.00867822 0.024929808 -0.07444175 -0.026665917 0.04207058
0.015344129 0.14215149 -0.07862475 0.01159795 0.00036357605 0.073093675 0.025003677 0.06922269
0.03659865 -0.09628055 0.009313835 -0.13281667 -0.0014990413 0.067528024 0.06596496 0.09120343
-0.066428214 -0.16133672 0.080633186 -0.12033281 -0.022249414 0.053828415 -0.1589188 -0.045887973
-0.031224037 0.012137626 0.12737271 0.1567729 0.015795067 -0.01658684 0.010876052 0.011549344
0.028667593 0.0033953881 0.062171996 -0.02010708 0.100008294 -0.23128885 -0.17278269 0.06495851
-0.07892593 0.0697346 -0.15581344 0.08782372 0.06936886 -0.03182365 0.07549067 -0.0066237543
-0.21322149 0.07891609 0.022166848 0.052062985 0.051902 -0.012717293 -0.021467866 -0.008579597
0.11973341 0.02145384 0.084773794 0.07329774 0.040249012 0.062332865 0.036407314 0.15382478
-0.04225801 0.068634495 0.012639065 -0.06358221 -0.020541131 0.10439717 0.058931462 0.08420972
-0.079107784 -0.021334287 0.0021100547 0.09999801 -0.23912008 0.13439299 0.025242917 0.16318351
-0.058959845 -0.018012246 0.05228468 0.09460965 0.049209807 0.19230787 0.0055045597 0.017008819
0.028885115 0.16381596 0.067549646 0.0020778645 0.05940632 -0.06591576 0.015086615 0.046579577
-0.08330236 0.109303065 -0.0032026246 0.14919965 0.004412101 -0.05484433 0.05507051 -0.002899654
-0.114789605 0.06687307 0.111964 0.014514685 0.058678284 -0.050823413 -0.014434538 0.0928429
0.037821732 0.009820339 -0.03939082 0.07087682 0.048740745 -0.019961184 -0.06824606 0.098360896
0.16127071 0.04089569 0.01196083 0.0637482 -0.18137059 0.08157293 0.017417025 -0.043069474
-0.03001496 -0.028080828 0.04122005 0.09182662 0.17579465 0.018490918 -0.1560391 -0.06276869
0.060447663 -0.03619379 -0.08708165 0.1441874 -0.048553187 -0.108762234 -0.1393438 0.024860216

linear3.bias f4 [72]
00000000: f60e 98bc 956b e53c b243 843d 82a6 c63c
00000010: 7163 05b1 c589 803d 9651 e43c 94ec 543d
00000020: 1c5b ef3c eb50 28bc 3b56 5e3c 46a3 4e3d
00000030: 688c ee3b 9806 0bbc 0c50 8a3c 52e7 4a3b
00000040: 0a66 013d 5cf4 0bb6 98ce a13c 8aa2 133d
00000050: 03d2 4600 ef34 903c 6b50 273d 66ca 44ba
00000060: 69a2 02bd deb1 243b b9c4 0d3d 44c2 2b3d
00000070: de3d 04bc a09d 0c3d d355 b7bc 138b 533c
00000080: 49f5 b23c 4cdf bc3c 904d 1abc f73b 8abb
00000090: aa6d ea3c 2a51 31bc 3abc 053d 676b f73b
000000a0: e0c2 103b 778f 9dbc 832d 843a 5d09 2f3d
000000b0: 6e99 3c3b 24bd 393b cb34 01bd 195e f63c
000000c0: a8cf 6d3d 2890 603d d731 173d 8ab6 603d
000000d0: a3fd 513d 4402 3d3c d146 513d c612 aeba
000000e0: b5dc 113d 2a3a 413c 03e6 1e3d 5a73 203d
000000f0: f94c 803d daf4 273d fe9f 36bd 289b 913c
00000100: da38 933d ad82 7b3d 1297 813d beb7 173d
00000110: 7b53 8e3c 5509 bbbc 6b36 87bc 5b17 063d
-0.018561821 0.0280054 0.06458224 0.024249319 -1.9410573e-09 0.062762775 0.027870934 0.05198343
0.029218249 -0.010273199 0.013570364 0.05044868 0.0072799213 -0.008485459 0.016883872 0.0030960632
0.031591453 -2.085485e-06 0.019751832 0.03604368 6.503823e-39 0.017603366 0.040848177 -0.00075069664
-0.031893168 0.0025130431 0.034611437 0.041933313 -0.008071391 0.03433001 -0.022379791 0.012911576
0.021845477 0.023055695 -0.009417906 -0.004218574 0.028616745 -0.010822574 0.03265021 0.007550645
0.002208881 -0.019233448 0.0010084364 0.04273354 0.0028777975 0.0028341496 -0.031544488 0.030074166
0.058059365 0.054824978 0.036912765 0.054861583 0.051267277 0.011536185 0.051092926 -0.0013280741
0.035610873 0.011793653 0.038793575 0.039172508 0.06264681 0.041004993 -0.044586174 0.01777418
0.07188578 0.06140392 0.063276425 0.037040465 0.017373791 -0.022831598 -0.01650544 0.032737117

linear4.weight f4 [36, 72]
00000000: e662 163c 4527 c0bc 0dc2 0b3e 5835 0c3e
00000010: 785e 0baf 895f 86be d09f 983d b1f2 44be
00000020: 7f67 8d3d 2bdc 4d3e b7eb 113e 94d0 0a3d
00000030: 414c 023e 02ff 973d 0876 f13d a6d3 373e
00000040: 0abc d5bd 140a b436 a731 343e 11e7 31bc
00000050: 14ed 658c 42b6 34bc 7b67 273e 4e15 56bb
00000060: 9691 ef3d 73a8 803d 6237 853d c967 1fbe
00000070: a136 c23d 30b0 c1bc f41f 80be 4d9d f2bc
00000080: 6fba b83c 41c4 1bbd 8a93 3e3e f9df 803e
00000090: 3b00 34be 9dd2 293e d72e 083d 65c0 013e
000000a0: c682 323e 8ff4 eebc 9f3f 553e 33bb c13d
000000b0: 648a dc3d 3d93 2a3e a531 45be 0074 bfbd
000000c0: 1b7a 953d 99ad 69bd 7af5 863b cd4a 8c3e
000000d0: e3ec d63d 7a75 e4bc 0c92 6bbd d9f6 6a3d
000000e0: 2f1c c33d 8b62 f23d 97f7 f33d 9307 13bd
000000f0: 827c 52bd e36b dabb c34b 013e 34b5 1b3e
00000100: 29fc c23d 1442 f1bc 4ff2 04be 4813 3cbe
00000110: 35dc 213d aa37 593d 50a6 12be 675e 433e
00000120: 248f 00bc 6b07 d9bd 1cdd 88bc fcab 203e
00000130: ccea 2bb0 43c9 bebd fa6e dabd b886 5fbe
00000140: 500f 753d ae98 c4bc 225c 03bd 5f52 7f3c
00000150: 661d bd3d 622e 833e e38f f03d 8cb9 643e
00000160: efd4 77bd 9614 a231 ba02 6ebd 8e31 49bd
00000170: 4546 5c1e 1151 b6bc 404b e43d b2ce 7ebb
00000180: e42c 993c c091 65be 485a 0fbe 48bb 803d
00000190: 9b90 2dbe 3a35 89bd c21a 83bd a7e8 493b
000001a0: 32e6 1d3e 1e9a 923c d58b e3bd 7351 2e3e
000001b0: e3bf 64be 320d f33d de11 9f3d 772a 14bd
000001c0: b247 553d 7580 8e3d 3a28 c7b8 cd19 923c
000001d0: 4f9d d03d 0a4f 8c3d 9050 72be eefe b63d
000001e0: b4b3 eebd 3775 34be 5096 ebbd 2227 143e
000001f0: 9b36 9fbd 3bee 193e 55ba 35bd 4f04 6abd
00000200: 4500 25bd aa52 1c3d 41e8 c33b a933 84bc
00000210: 04a6 803d c234 293e a116 933b bf84 073d
00000220: e96a 463d 47e8 88bd 30a1 55bd a34a 2fbc
00000230: cd61 1d3d a67d 353e 14d0 68bd 118c 503d
00000240: ca48 55bd 354c 8a3e e16c 4b3e b388 d53d
00000250: 64e6 99ad aeb0 8b3e 1e75 b9bd 1d16 c5bd
00000260: fccf c13d 907e de3d 7f0c 95bc dc29 ecbd
00000270: b69c 7c3d ab91 b23d 8027 a73d fd9f 3d3e
00000280: 0a84 afbd 6d0b 2d35 6c7d 9f3e 732f 753e
00000290: ad52 1028 094d 45bd 2bfa 3f3e 928b 803b
000002a0: 811f 09bc 45b4 833d c75a 54be 461e f03d
000002b0: 975d 2bbe b7df 11be 28ad 073e 389b 903d
000002c0: 047d 523e 4647 22bc 725b 373d 178a ea3d
000002d0: b065 02be 59d6 8b3d 56b2 9cbd 46a0 13be
000002e0: 2661 b23d 5971 34be e1f8 b0bc 1eb7 fe3d
000002f0: 22b6 653c 3326 08be c2f4 1fbe 7c33 133e
00000300: ac09 e13d 5003 9cbd 809f 54bd 3d4b 763d
00000310: 1f56 363e b30e 03be 1da6 cfbd 5d14 0f3e
00000320: d7a3 0dbd 82b5 813d 8bda 253e 1064 c03d
00000330: 1a80 9c3e 8088 5f3c 7d00 22be a784 1abd
00000340: a6c9 5e3e 52b2 713c 675d 503e 1402 dbbc
00000350: cc6c b03d 2390 403e 05dc 08bd 631e 39be
00000360: 5c5c 1681 7041 9481 d0ab 9580 4b32 c180
00000370: c05a a781 a7db 6300 dcb0 4680 4934 8b81
00000380: 2bbe e180 6bdc 8181 3257 2781 d042 1c81
00000390: 83ff 7c81 f8d7 a081 a33c e880 7dd2 6300
000003a0: 31bb ab80 d2e6 8081 e552 8581 dc7a 8180
000003b0: 40c0 8a81 4888 3281 b291 2780 2071 6b01
000003c0: 1ca0 3580 de07 9a81 fdac 3880 eefa 6e81
000003d0: c303 1f00 c8c6 ad81 d25d 2c80 ba83 e080
000003e0: 652d dc80 dbe3 9881 4bbe 5900 be98 3881
000003f0: 3bbf 7081 f6a4 0881 338d 5880 2d9f c880
0.009178853 -0.023456225 0.13648243 0.13692224 -1.2675538e-10 -0.26244763 0.07452357 -0.19233204
0.06904506 0.20103519 0.14250074 0.03389032 0.12724401 0.07421686 0.11790091 0.17951831
-0.10436256 5.3655913e-06 0.17597066 -0.010858313 -1.7712861e-31 -0.011029782 0.16348068 -0.0032666507
0.1169769 0.06282129 0.06504704 -0.15566935 0.09483076 -0.023643583 -0.25024378 -0.029616022
0.022549836 -0.03802896 0.18610969 0.25170878 -0.17578213 0.16584249 0.033247795 0.12671049
0.17432699 -0.029169349 0.20825051 0.094595335 0.107685834 0.1665773 -0.19257219 -0.09348297
0.072986804 -0.05705032 0.0041186186 0.27400818 0.10494401 -0.027888048 -0.057512328 0.05736432
0.0952686 0.11835202 0.119124584 -0.035895895 -0.05138827 -0.006665693 0.12626557 0.15205842
0.09520752 -0.029450454 -0.12983058 -0.1836673 0.039516646 0.0530316 -0.14321256 0.1907898
-0.007846627 -0.10597118 -0.016706996 0.15690607 -6.2543104e-10 -0.093157314 -0.10665698 -0.21828735
0.059829056 -0.023998585 -0.032070287 0.015583604 0.09234123 0.25621325 0.11746194 0.22336406
-0.060505804 4.717161e-09 -0.05810807 -0.049119525 1.16612344e-20 -0.022255452 0.11147165 -0.0038880524
0.018698163 -0.2241888 -0.13999283 0.06285721 -0.16949694 -0.06699605 -0.06401588 0.0030808838
0.15419844 0.017895754 -0.11110655 0.17023258 -0.22338824 0.11867751 0.0776708 -0.03617331
0.052070327 0.06958095 -9.496552e-05 0.017834568 0.10186254 0.06851013 -0.23663545 0.08935343
-0.116553694 -0.17622839 -0.11503279 0.14468053 -0.07774087 0.15032284 -0.044367153 -0.057133015
-0.04028346 0.038164772 0.0059786146 -0.016137915 0.06281665 0.16524032 0.0044887816 0.03308558
0.0484418 -0.066849284 -0.052155674 -0.010698947 0.03842335 0.17723712 -0.056839064 0.050914828
-0.05207137 0.27011266 0.19865753 0.10426464 -1.74964e-11 0.27283233 -0.090555415 -0.096233584
0.09463498 0.10863984 -0.018194435 -0.115314215 0.06167289 0.0871919 0.08161831 0.18518062
-0.08570106 6.446415e-07 0.31150377 0.23943882 8.011533e-15 -0.04816917 0.18747775 0.003922888
-0.0083693275 0.06430868 -0.20737754 0.11724524 -0.1673492 -0.14245497 0.13249648 0.070608556
0.20555502 -0.009904688 0.044764943 0.1145212 -0.12734103 0.06827993 -0.076512024 -0.14416608
0.08709936 -0.17621364 -0.02160305 0.124372706 0.014020475 -0.13295822 -0.15620711 0.14375108
0.10988173 -0.07617819 -0.051909924 0.060130347 0.1780629 -0.12798576 -0.101391055 0.13972612
-0.034580078 0.06333448 0.16196649 0.093940854 0.30566484 0.013643384 -0.15820499 -0.037724163
0.2175661 0.0147519875 0.2034813 -0.02673439 0.08614501 0.18804984 -0.033412952 -0.18077998
-2.7616913e-38 -5.446051e-38 -1.3745124e-38 -1.7742292e-38 -6.147633e-38 9.17051e-39 -6.49193e-39 -5.113556e-38
-2.0731206e-38 -4.77034e-38 -3.0735615e-38 -2.870061e-38 -4.646841e-38 -5.908462e-38 -2.1327587e-38 9.167223e-39
-1.5771021e-38 -4.7350985e-38 -4.897543e-38 -1.1890853e-38 -5.096906e-38 -3.2791214e-38 -3.63385e-39 4.3243846e-38
-4.924718e-39 -5.6581954e-38 -5.204844e-39 -4.389373e-38 2.84825e-39 -6.38354e-38 -4.074418e-39 -2.0618406e-38
-2.0220094e-38 -5.616294e-38 8.241623e-39 -3.390505e-38 -4.421824e-38 -2.509761e-38 -8.132176e-39 -1.8424201e-38

linear4.bias f4 [36]
00000000: ddb4 303c 7c2f e83c f136 313d 6710 f900
00000010: 6bcf 04bd e449 4d3d 563a 8e3a 4f6c f6bc
00000020: 9174 1e3d f748 55bc 56ed b9bc fc0a 6f3d
00000030: b42b 223d c865 ce3c dc7a 3abd 5bca bf3b
00000040: d842 273d e215 6139 0f6c 2a3d 0e08 a73b
00000050: 862d c93b d6ea 663d 5f24 393d 4dcb 2e81
00000060: a36f 9e3d 5cd6 263d dcc9 de3d 2d97 3a3c
00000070: 16f1 503d 0257 19bd cbd6 dd00 6a38 a83d
00000080: be36 243c c3b5 a53b 1b02 433d a9b8 973c
0.010785309 0.028342955 0.043265287 2.2872923e-38 -0.03242437 0.050119296 0.0010851126 -0.030080942
0.038685385 -0.013017884 -0.022696178 0.058360085 0.03959246 0.025195017 -0.045527324 0.00585298
0.04083523 0.00021465824 0.04160696 0.0050973957 0.00613946 0.0563763 0.0452007 -3.2104614e-38
0.07736137 0.040731773 0.10878345 0.011388582 0.051011167 -0.037436493 2.0372698e-38 0.08213885
0.010022817 0.005057068 0.04760943 0.01852067

linear5.weight f4 [18, 36]
00000000: 994d 7d3e 8dc9 503e 991d 5b3e 604e ba00
00000010: 69f2 c7bd d5fb 913e dcfc 073e 13d0 623e
00000020: 13e5 ab3e 1cc0 073e e4b2 d4bd 93f7 3bbe
00000030: 55da 413e ac55 75bd b784 263e 6f0a 713e
00000040: 1ec3 8ebe 7d10 223e 8e56 56bd 4b25 a3bd
00000050: e8b9 d93d 00e4 9cbe d011 12bd a97b 87b5
00000060: 5589 a7be 0df7 80be f649 2abe a856 503e
00000070: f50d 843d eecb 893e 95fa 6f2d 287f 633e
00000080: c6fb 0e3e 6747 8cbd b256 e63c 7a1a 2e3d
00000090: 9a7e 4bbe 5121 22bc c97f b83d b247 ba00
000000a0: 0618 20be a455 9e3e ad6b 05be 9a50 343d
000000b0: c15d c53d e078 c93e f89e 413e 7b2f 44bd
000000c0: 4d79 ac3e 3efc ca3e 3452 143e 159a b1be
000000d0: 5715 8bbd 4d15 513d 409e 8f3e 4ef5 b53e
000000e0: f3ea 453e 4036 0dbe 8110 1a3e a544 f42f
000000f0: c8e6 723e f9b7 d13b e578 4c3e fb36 f53d
00000100: 64a8 cbbd 5aed e7bd 3e28 11aa 4131 4dbe
00000110: c99a 4fbe 8b3b 7cbe dcdb 3e3e edc1 6a3e
00000120: 0455 1abd edcc 0dbe 4b77 cf3d 5f56 5c81
00000130: 7f3c 5fbc b6e2 743b e68b 693e 3be3 eb3d
00000140: 0a73 423e bd82 853d c615 e03d 12d7 ff3d
00000150: 6b2b e0bd 8f37 693b 7ddd 313d 87dd 8b3e
00000160: 57e5 d1ba d34b 2dbe 2f70 603d cbde 90bd
00000170: f6b3 91bd 0477 8838 ff74 123d 13a9 fdb4
00000180: 7715 6dbe 4e33 30be fb34 6ebe 58b1 abbd
00000190: 47f2 033e 2c0c 343e 6f5e b088 d140 2f3e
000001a0: e4fd 823e e8bc 513e d5b4 24be 3097 473e
000001b0: 3a86 023e c1fa 453e 947f 523c 4829 7d81
000001c0: b922 b3be 854d 00bd 0867 37be 5251 8a3d
000001d0: a2be afbc 764c 703d 5d19 453e 26ef 02bd
000001e0: f799 46be 1970 503e 5978 67be d485 903d
000001f0: 27d6 debd 1c1b 5cbe c498 873e 44af f8bc
00000200: c082 473e 854f 88be d2f6 503e ed09 2fb3
00000210: f956 813e 58c3 0ebe 6362 043e 85a7 c13d
00000220: e4b4 4dbe 4201 453e 824e 111e ca90 ba3d
00000230: 465d 4bbd 8693 cabd e2d2 0dbe a0b2 583d
00000240: 27c9 ac3d 56ff 703e 8761 933e cad1 0a01
00000250: 15a7 16be 15f1 1f3c cf72 babd 05ca 67bd
00000260: 3062 80bd 489a e63d 8786 11be 4d52 433d
00000270: 5f8d 043e 8824 bc3b f5c6 593e cf9c 22be
00000280: 170d 073e fc2c b53b 9f0d f93d 8f33 483d
00000290: 634e 243e 0e1d 933d 7de9 eabd 0ea8 8526
000002a0: 6625 033d 54cc 773e e5f4 883e e800 203d
000002b0: 017c 31be 125c 743e 3c87 8c23 6c94 d63d
000002c0: a10e 9abe 0703 e73d d58b 593e b092 15be
000002d0: 3c09 82bc 1355 01be d556 a1bd a8b6 9080
000002e0: f82a bf39 2785 a7bd 3015 2f3e e296 b53d
000002f0: 4ab8 2a3d 4543 0a3e 2fe4 283d e392 e43d
00000300: 6d4b a73d 106c 3ebe 0a46 92be dcfb 2a3d
00000310: 6001 03be 82aa d1bd 4323 953d 2690 e6bd
00000320: 409f 003e 2155 8abd e2e8 823d b8cb 47b0
00000330: 7c04 bc3d b6af fdbd 49a2 85be 7909 58be
00000340: 7453 58bd c576 463d d65b 8dae 5ba4 a53d
00000350: e46f 273e b123 99bc 4019 1d3e 3463 a83c
00000360: 37ab 683e 529a 27be f4b2 2fbd 1fbb 0401
00000370: b714 493d 2ab7 513e b306 10be d727 16bc
00000380: 7b81 423e 16e5 1e3d 20b7 4dbe 276b 0e3e
00000390: 6861 77be bacc 3a3e 9fa5 58be 1a0a e13e
000003a0: e62f 71bb a995 25be 5e69 103d 933b 50be
000003b0: 6e49 223e 8f33 e5bd bd9e 433e 8814 8638
000003c0: 9635 d5bd 0559 ecbc ffc9 d3bb f677 853e
000003d0: c909 32be dbd8 fbbd b470 2ea5 1e85 51be
000003e0: 94ef 393e 512c 0f3e b636 2f3e c0cd d4bd
000003f0: 00f3 82ba cad1 e33d 10aa 36bb 4e57 a001
0.24736632 0.20389386 0.2139801 1.7109518e-38 -0.09763033 0.28512445 0.13280052 0.22149687
0.33573207 0.13256878 -0.10385683 -0.18356161 0.18930943 -0.059896156 0.16261564 0.23539136
-0.27883238 0.15826602 -0.05232864 -0.079660974 0.10631162 -0.306427 -0.03566152 -1.0094274e-06
-0.32721964 -0.25188485 -0.16629776 0.20345557 0.064479746 0.26913399 1.36412175e-11 0.22216475
0.13963231 -0.068495564 0.028117511 0.04250572 -0.19872513 -0.009895639 0.09008748 1.7107122e-38
-0.15634164 0.30924714 -0.13029356 0.04402218 0.09637023 0.39350033 0.18908298 -0.047896843
0.33686295 0.3964557 0.14484483 -0.34687868 -0.067911796 0.051045705 0.28050423 0.35538715
0.19327907 -0.13790226 0.15045358 4.4432116e-10 0.23720849 0.006400105 0.19967993 0.11973377
-0.09944227 -0.11324568 -1.2892549e-13 -0.2003832 -0.2027389 -0.24632089 0.18638557 0.2292554
-0.037678733 -0.13847704 0.10130175 -4.0469587e-38 -0.013625263 0.0037366576 0.22807273 0.1151795
0.18989196 0.06519077 0.10941653 0.12492193 -0.10945781 0.0035586094 0.04342412 0.2731745
-0.0016013783 -0.16923456 0.054794487 -0.070737444 -0.07114403 6.507154e-05 0.035756107 -4.724794e-07
-0.2315272 -0.17207071 -0.23262398 -0.08383435 0.1288539 0.17582768 -1.0614816e-33 0.17114569
0.25584328 0.20482218 -0.16084607 0.19491267 0.12746516 0.19333936 0.0128478 -4.649838e-38
-0.3498743 -0.03132393 -0.17910397 0.06753792 -0.021453205 0.05866667 0.19247957 -0.03196635
-0.1939467 0.20355262 -0.22604503 0.07056776 -0.1088069 -0.21494716 0.26483738 -0.03035701
0.19483471 -0.2662317 0.20406654 -4.075439e-08 0.25261667 -0.13941705 0.12928157 0.0945578
-0.20088536 0.19238761 7.692471e-21 0.091096476 -0.0496495 -0.09891419 -0.13849977 0.052904725
0.08436804 0.23534903 0.28785345 2.5497113e-38 -0.14712174 0.009762068 -0.09103929 -0.056589145
-0.06268728 0.112598956 -0.14211474 0.04768591 0.12944554 0.0057416596 0.21267302 -0.1588013
0.13188587 0.005529044 0.12160801 0.048877295 0.16045527 0.07183276 -0.114703156 9.27428e-16
0.032018088 0.24199039 0.2674934 0.039063364 -0.1733246 0.23863247 1.5236104e-17 0.10477528
-0.30089286 0.11279874 0.21244748 -0.14606738 -0.015873544 -0.1263011 -0.0787789 -1.3289836e-38
0.00036462373 -0.08179694 0.17097926 0.08866669 0.041679658 0.13502224 0.041233238 0.11160829
0.08168683 -0.1859591 -0.2856906 0.041744098 -0.12793493 -0.102376 0.07282116 -0.11257963
0.12560749 -0.06754518 0.06392075 -7.268528e-10 0.09180543 -0.1238703 -0.26100376 -0.21097364
-0.052813962 0.04845311 -6.428251e-11 0.08087989 0.16351277 -0.018693777 0.15341663 0.020555116
0.22721563 -0.16367462 -0.042895272 2.4378824e-38 0.04909202 0.20480028 -0.14065056 -0.009164772
0.18994705 0.038792692 -0.20089388 0.13908063 -0.24158251 0.1824216 -0.2115693 0.4395302
-0.0036802231 -0.16170372 0.035256736 -0.20335226 0.15848324 -0.11191475 0.19103523 6.393442e-05
-0.10410611 -0.028851042 -0.006463289 0.26068085 -0.17386545 -0.12297221 -1.513028e-16 -0.20460936
0.18157798 0.13981749 0.17110714 -0.10390806 -0.0009990633 0.111239985 -0.0027872361 5.8899994e-38

linear5.bias f4 [18]
00000000: ee3e bf3d 6e19 d63d 0890 5ebd 7ce1 723c
00000010: 8d4d 19bd 11b1 7dbd 661b 8b3d a73e 693d
00000020: 2efd bcba a502 cfbd 86d4 123c 7311 423d
00000030: b29d 0ebc e4c2 8e3c a3b6 883d 55b6 813c
00000040: ba76 58b9 b71c 513d
0.09338175 0.10454069 -0.054336578 0.0148242675 -0.037427474 -0.06193644 0.06792335 0.056944516
-0.0014418715 -0.10107926 0.008961802 0.047379922 -0.00870459 0.017426915 0.0667546 0.015834013
-0.00020643594 0.051052775

linear6.weight f4 [10, 18]
00000000: 2901 763b f5f5 513e c88b c2be ebc1 c13d
00000010: f753 b3bc 494d 50be 2511 c13e cd30 d33b
00000020: a199 7abe 9f65 173e d064 f5be 9328 a1bc
00000030: d2ef 59bd 7b25 aa3e 23b5 b8be ad6f c0be
00000040: 093b 43bb e4c5 483e 4fd1 fdbd e40d 8dbe
00000050: 020c 843d 41cb 8bbe a655 d5be d408 663e
00000060: e443 4b3e 0d20 143e 75ac c53e 4337 953e
00000070: 0752 513d 9e3d b4be 19de 313e 8bb7 873d
00000080: 502d d0ba 0734 6fbe 14b9 95bb 08bc 9f3d
00000090: b79d c23e 1835 b6be 466b ed3d 6494 503d
000000a0: 4b45 3a3c d3ca 90be afab da3d 0ed6 3cbb
000000b0: 9e60 2d3e bf64 eabd 5759 fdbe dc50 653e
000000c0: 803c 6cbe 4e24 d1bc f15b 1f3d d53d 61bd
000000d0: 3ec6 0e3b 4f43 143d 5789 b33e 06ed 053d
000000e0: d3bc 173e de3f cf3c 68d4 83be 28e0 303e
000000f0: 7e5b 5b3d 8aaa afbe c1ba 80be db22 1cbf
00000100: b00f 01bc 1c4e b8be f678 6dbd 3029 8b3c
00000110: 060f bdbb 1041 823e ed5a 893a 8389 ddbd
00000120: c36f 7ebd b260 503e 3e0e bdbc a6af 86be
00000130: 1968 68be 99d8 0b3e b46d 5bbd 4acd 593e
00000140: 68ea 80be 81a5 bb3e 5a92 9bbd 0280 8c3e
00000150: d984 86bc 6588 20bf 0093 d53e 026d f03c
00000160: e080 44bb 3081 fbbe f8b1 d5be 2d48 323e
00000170: 4e3b febd 6791 9a3e e850 c63c 3ff5 b83d
00000180: 5c94 10bd ca97 14be 6e70 673e 44ed f8bc
00000190: 9e96 9d3e 0cc6 f1be 2206 b7be 35b3 89be
000001a0: 795e f4bd 9bc6 553c 6a20 e6ba b686 1e3d
000001b0: c2b2 613e e3df 963e 3491 8fbd ff0b 983e
000001c0: 9d0c 38bd f99f c0be 442a d0be eba4 eabc
000001d0: 4f78 4abe b504 5a3e 146d 1dbe 3bf1 58be
000001e0: a6eb a5be 7d0b eabe 6918 543e 5428 bebe
000001f0: 6c2b 703a 5514 b13e 42cb 5fbe b7e9 36bf
00000200: 1bee a33d 5883 17be 764c 16be 6565 723e
00000210: 24b0 c9be 1a64 513e 6131 913d 91d5 b2be
00000220: 1bac 33bd 226e 973e 80d6 c23d bbaa 46be
00000230: 8bd7 7ebd 7b5a 7c3e 36b8 37bb 8ea4 e7be
00000240: ca07 babd 34c4 013e f618 5abe 5fda 23bf
00000250: 7567 803e be92 dabc cf73 edbe b91b 63be
00000260: 3bb1 033c a222 183d 4ff7 4ebd ae81 383d
00000270: a4ce 833d 80ee 0fbd b2e8 99be be8e 143c
00000280: 5dc5 e03a e34e aa3e 6e8f e6be 6ffd 4c3d
00000290: f293 023e 8814 d2bb 33fd 38be 2fc1 05bf
000002a0: e86c 1f3e 0d26 68be a0f4 3bbf 19e7 aa3d
000002b0: ba0c 1b3e c319 053a f11d 883d a082 52bd
000002c0: 1a08 03bf e9fb a73e cee5 2dbb 1b92 85be
0.0037537313 0.20503981 -0.3799727 0.09460815 -0.021890623 -0.20341982 0.37708393 0.0064450265
-0.24472667 0.14784859 -0.47928476 -0.019672668 -0.053207226 0.3323172 -0.36075696 -0.37585202
-0.0029789826 0.1960674 -0.12393438 -0.2754966 0.06447603 -0.27303508 -0.41666907 0.22464305
0.19850117 0.14465351 0.38608137 0.29143724 0.051103618 -0.3520326 0.1736988 0.06626805
-0.0015882645 -0.2335969 -0.004569182 0.07799536 0.38010952 -0.35587382 0.115927264 0.050922766
0.01136906 -0.28279743 0.10677277 -0.002881411 0.16931388 -0.11444997 -0.49482223 0.22394127
-0.23069954 -0.025530007 0.03890604 -0.05499061 0.0021785642 0.036197003 0.3506572 0.032696746
0.14818124 0.025299009 -0.2574799 0.17273009 0.05355405 -0.34309798 -0.25142482 -0.60990685
-0.007877275 -0.35997093 -0.057976685 0.016987413 -0.005769613 0.25440264 0.0010479369 -0.10817244
-0.062118303 0.20349386 -0.02307808 -0.26305884 -0.2269596 0.13656844 -0.053571418 0.21269718
-0.25178838 0.36649707 -0.07596274 0.27441412 -0.016420769 -0.6270812 0.41713715 0.029348854
-0.0029984042 -0.49122 -0.41737342 0.17410345 -0.12413655 0.30189058 0.024208501 0.09031152
-0.035297737 -0.14511028 0.22601482 -0.030386575 0.30778974 -0.4722141 -0.35746866 -0.26894537
-0.11932082 0.0130478395 -0.0017557268 0.03870269 0.22040847 0.29467687 -0.07010117 0.29696652
-0.044933904 -0.3762205 -0.40657246 -0.028643092 -0.19772457 0.21290858 -0.15373641 -0.21185772
-0.32406348 -0.4571189 0.20712437 -0.37140143 0.0009161744 0.34585825 -0.2185488 -0.7145037
0.080043994 -0.14796197 -0.14677605 0.23671491 -0.39392197 0.20448342 0.070894964 -0.34928563
-0.043865304 0.29576212 0.09513569 -0.19401066 -0.062217277 0.2464389 -0.0028033382 -0.45242733
-0.09083517 0.12672502 -0.21298584 -0.6400508 0.2507893 -0.0266813 -0.46377417 -0.22178544
0.0080378605 0.037142403 -0.05052882 0.045045547 0.06435898 -0.03513956 -0.30060345 0.0090672355
0.0017148663 0.3326331 -0.45031303 0.05004638 0.12751749 -0.006411139 -0.18065338 -0.522479
0.15568888 -0.22670765 -0.73420143 0.0834486 0.15141574 0.0005077386 0.06646336 -0.051394105
-0.51184237 0.3280938 -0.002653468 -0.26088032

linear6.bias f4 [10]
00000000: a15b 083e 6abd 503c 2e23 1bbe 39a8 d43b
00000010: 237e c1bd 3906 d0bd c6be 11be cd82 2e3e
00000020: 5a3a 05be a1fe 6dbd
0.13316204 0.012740472 -0.15150139 0.0064897803 -0.09447887 -0.10157437 -0.1423293 0.17042084
-0.1301054 -0.05810416
